examples/onnx/gradient_boosted_trees/network.onnx (onnx, 78706 bytes, 59 tensors)

trees.0.0.value f8 [4, 1, 1]
000000 7b 09 ed 25 b4 97 00 40 7c 09 ed 25 b4 97 00 40
       2.074074074074074 2.0740740740740744
000010 7c 09 ed 25 b4 97 00 40 04 f7 11 dc 47 70 ef bf
       2.0740740740740744 -0.9824561403508771

trees.0.0.threshold f8 [3]
000000 00 00 00 c8 cc cc 04 40 00 00 00 60 66 66 0c 40
       2.599999964237213 3.549999952316284
000010 00 00 00 60 66 66 16 40
       5.599999904632568

trees.0.1.value f8 [5, 1, 1]
000000 11 11 11 11 11 11 f1 bf 1c c7 71 1c c7 71 fc 3f
       -1.0666666666666667 1.7777777777777777
000010 11 11 11 11 11 11 f1 bf 17 6c c1 16 6c c1 d6 3f
       -1.0666666666666667 0.35555555555555557
000020 dd c9 7c 48 77 32 ef bf
       -0.974910394265233

trees.0.1.threshold f8 [4]
000000 00 00 00 c8 cc cc 04 40 00 00 00 00 00 00 13 40
       2.599999964237213 4.75
000010 00 00 00 70 66 66 fa 3f 00 00 00 00 00 00 fc 3f
       1.6500000357627869 1.75

trees.0.2.value f8 [7, 1, 1]
000000 20 ea a1 1e ea a1 ee bf 20 ea a1 1e ea a1 ee bf
       -0.9572649572649574 -0.9572649572649574
000010 91 91 91 91 91 91 01 40 1d 66 e9 1d 66 e9 ed 3f
       2.1960784313725488 0.9347410759175464
000020 1f ea a1 1e ea a1 ee bf 67 70 fc bc c5 51 f2 3f
       -0.9572649572649573 1.1449639684933801
000030 93 91 91 91 91 91 01 40
       2.1960784313725497

trees.0.2.threshold f8 [6]
000000 00 00 00 00 00 00 13 40 00 00 00 70 66 66 fa 3f
       4.75 1.6500000357627869
000010 00 00 00 00 00 00 17 40 00 00 00 00 00 00 fc 3f
       5.75 1.75
000020 00 00 00 70 66 66 fa 3f 00 00 00 70 66 66 13 40
       1.6500000357627869 4.8500001430511475

trees.1.0.value f8 [5, 1, 1]
000000 6b b6 82 8a 54 32 fb 3f c4 08 82 5e a0 eb ed bf
       1.6997876558847576 -0.9350129934175802
000010 c4 36 18 d7 80 f1 ed bf 24 29 cd 4e 7b 5b ee bf
       -0.9357303811136366 -0.9486671961870212
000020 dd 57 c3 89 ed 02 ee bf
       -0.9378574076351885

trees.1.0.threshold f8 [4]
000000 00 00 00 a0 99 99 e9 3f 00 00 00 70 66 66 fa 3f
       0.800000011920929 1.6500000357627869
000010 00 00 00 30 33 33 13 40 00 00 00 70 66 66 13 40
       4.799999952316284 4.8500001430511475

trees.1.1.value f8 [5, 1, 1]
000000 82 ff 9b 30 96 05 f0 bf c9 f7 1b 34 42 2c f8 3f
       -1.001363935356466 1.510805324126965
000010 45 f5 ed de 77 09 f0 bf f0 07 20 e9 2c 43 d4 3f
       -1.0023115833458445 0.3166000630009185
000020 9a 7c 05 85 66 29 ed bf
       -0.9113037679743627

trees.1.1.threshold f8 [4]
000000 00 00 00 a0 99 99 e9 3f 00 00 00 00 00 00 13 40
       0.800000011920929 4.75
000010 00 00 00 70 66 66 fa 3f 00 00 00 00 00 00 fc 3f
       1.6500000357627869 1.75

trees.1.2.value f8 [7, 1, 1]
000000 ca 77 53 d1 dd 5d ed bf d9 7d e3 cd 1e 4b ed bf
       -0.9177083099746082 -0.9154199620497209
000010 c9 62 11 f0 cb 64 fc 3f 62 9a fb 9e 9d ca ef bf
       1.7746085527089 -0.9934833626874247
000020 fa 8e 8c 70 1d 5b eb 3f 99 ed 8c 60 e9 a9 ed 3f
       0.8548724363540423 0.9269911657096827
000030 0d b4 8f df 3b 7b fc 3f
       1.780086396490563

trees.1.2.threshold f8 [6]
000000 00 00 00 00 00 00 13 40 00 00 00 70 66 66 fa 3f
       4.75 1.6500000357627869
000010 00 00 00 a0 99 99 e9 3f 00 00 00 00 00 00 fc 3f
       0.800000011920929 1.75
000020 00 00 00 d0 cc cc 13 40 00 00 00 70 66 66 13 40
       4.950000047683716 4.8500001430511475

trees.2.0.value f8 [5, 1, 1]
000000 3d 4c 53 4a df 54 f7 3f 5e 4e f4 72 a3 a8 ec bf
       1.4582207587561833 -0.8955857510758951
000010 ee e4 22 a9 63 ce ec bf b4 c5 8a bf 10 99 ed bf
       -0.9001940062945815 -0.924934743981956
000020 a9 52 27 5c 2b cb ec bf
       -0.8998009490847682

trees.2.0.threshold f8 [4]
000000 00 00 00 c8 cc cc 04 40 00 00 00 00 00 00 13 40
       2.599999964237213 4.75
000010 00 00 00 70 66 66 fa 3f 00 00 00 70 66 66 13 40
       1.6500000357627869 4.8500001430511475

trees.2.1.value f8 [5, 1, 1]
000000 82 e8 55 fa e3 5c ee bf 83 7d f8 64 a7 40 f5 3f
       -0.9488391770712641 1.3282846397558792
000010 06 99 0f 46 5a 69 ee bf e5 78 e8 17 16 31 d2 3f
       -0.9503604286553873 0.28424599013113855
000020 88 03 0a 1a dc 6f eb bf
       -0.8574047573639385

trees.2.2.value f8 [7, 1, 1]
000000 3d 11 54 d4 b8 45 ec bf 9a 9f e1 2c 99 29 ec bf
       -0.8835109850920514 -0.8800779224957183
000010 9a b0 03 84 02 21 f8 3f f4 89 d1 25 05 7b c8 3f
       1.5080590397656466 0.19125427576643939
000020 41 08 15 ec c2 3e fe 3f 7d 78 d8 5f ea 69 e8 3f
       1.8903226110419526 0.76292914123384
000030 f9 4e f1 8f d8 42 f8 3f
       1.516319811130357

trees.2.2.threshold f8 [6]
000000 00 00 00 00 00 00 13 40 00 00 00 70 66 66 fa 3f
       4.75 1.6500000357627869
000010 00 00 00 c8 cc cc 04 40 00 00 00 00 00 00 fc 3f
       2.599999964237213 1.75
000020 00 00 00 c0 cc cc 1b 40 00 00 00 70 66 66 13 40
       6.949999809265137 4.8500001430511475

trees.3.0.value f8 [5, 1, 1]
000000 fb fd 84 22 d4 a6 f4 3f 2e 9e d1 45 50 9a eb bf
       1.2907296513002382 -0.8625871051453424
000010 cd f7 bf 4f c6 c5 eb bf 9d 65 ac ca ae d2 ec bf
       -0.8678924138655418 -0.9007181127992002
000020 a8 d6 e9 a3 5a c6 eb bf
       -0.8679631425317966

trees.3.0.threshold f8 [4]
000000 00 00 00 a0 99 99 e9 3f 00 00 00 00 00 00 13 40
       0.800000011920929 4.75
000010 00 00 00 70 66 66 fa 3f 00 00 00 70 66 66 13 40
       1.6500000357627869 4.8500001430511475

trees.3.1.value f8 [5, 1, 1]
000000 03 1c 0d 3d 53 fd ec bf 24 d9 72 bb ef 25 f3 3f
       -0.9059234802633686 1.1967618295871683
000010 2d 91 69 6c 09 0b ed bf 6f aa 39 5f c9 71 d0 3f
       -0.9075972669057016 0.2569449834760808
000020 3c 0b 64 1b d7 f1 e9 bf
       -0.8107715163208478

trees.3.2.value f8 [7, 1, 1]
000000 d6 e7 80 32 45 54 eb bf 04 75 97 8a 4c 34 eb bf
       -0.8540369020840852 -0.8501341540210494
000010 0c fb b9 de 2a 38 f5 3f dd c3 63 96 ac 8c fd 3f
       1.32621275904211 1.8468442797277398
000020 b7 d7 9b a0 13 f2 c1 3f d1 03 92 11 38 e7 e6 3f
       0.14020009367203354 0.7157249777957252
000030 0b 75 7b 9b 75 9a f5 3f
       1.3502098153615545

trees.3.2.threshold f8 [6]
000000 00 00 00 00 00 00 13 40 00 00 00 70 66 66 fa 3f
       4.75 1.6500000357627869
000010 00 00 00 c8 cc cc 04 40 00 00 00 00 00 00 fc 3f
       2.599999964237213 1.75
000020 00 00 00 d0 cc cc 02 40 00 00 00 d0 cc cc 17 40
       2.350000023841858 5.950000047683716

trees.4.0.value f8 [5, 1, 1]
000000 57 38 e7 bb 90 b3 f2 3f f5 cc e4 c7 cc b6 ea bf
       1.1688392009705433 -0.8348144439864017
000010 aa ce 2a b4 66 e3 ea bf 4a 5d a8 8e 31 ed eb bf
       -0.8402589339152275 -0.8727042948038755
000020 0a f1 c3 dc a7 ed ea bf
       -0.8415107070755152

trees.4.1.value f8 [5, 1, 1]
000000 03 19 5a 49 df da eb bf 05 bb 98 4c 5e 25 f1 3f
       -0.8704677994399223 1.0716231338553268
000010 c8 b0 4c 29 a2 61 9b bf 14 c9 b5 5d 7f 19 c6 3f
       -0.02673962952683054 0.1726531226700635
000020 e6 c6 67 11 1d 2c ec bf
       -0.8803849544476321

trees.4.1.threshold f8 [4]
000000 00 00 00 a0 99 99 e9 3f 00 00 00 00 00 00 fc 3f
       0.800000011920929 1.75
000010 00 00 00 d0 cc cc 13 40 00 00 00 70 66 66 13 40
       4.950000047683716 4.8500001430511475

trees.4.2.value f8 [7, 1, 1]
000000 db 8e 21 a0 86 84 ea bf 47 49 8b 4d e2 63 ea bf
       -0.8286774756965899 -0.8246928705723712
000010 7b 31 70 9d 5c 1f f3 3f b3 bc 3d 0f e8 b9 be 3f
       1.1951566839153134 0.12002420780275962
000020 1a 7a e8 c8 b6 26 fa 3f eb 85 79 8d 05 66 df 3f
       1.6344516609166306 0.49060190978897705
000030 13 36 58 2a 79 53 f3 3f
       1.20787922421312

trees.5.0.value f8 [5, 1, 1]
000000 b9 8d 9f 92 4d 3b f1 3f 4b 1e 7e a3 ee f8 e9 bf
       1.0769782760115574 -0.8116372292724433
000010 51 9c 2c c8 c0 e1 e9 bf 34 c4 1f 98 3a a2 ea bf
       -0.8088077459004898 -0.8323033305333696
000020 da 3f 47 65 54 11 ea bf
       -0.8146154382793569

trees.5.0.threshold f8 [4]
000000 00 00 00 c8 cc cc 04 40 00 00 00 00 00 00 13 40
       2.599999964237213 4.75
000010 00 00 00 70 66 66 fa 3f 00 00 00 90 99 99 14 40
       1.6500000357627869 5.1499998569488525

trees.5.1.value f8 [5, 1, 1]
000000 4b 97 45 f3 da e8 ea bf 88 62 23 a9 95 da ef 3f
       -0.8409247161296006 0.9954326919060614
000010 47 67 da 25 2c 8a 9a bf b8 86 f3 e8 c1 0f c5 3f
       -0.025917711077091423 0.16454337954114862
000020 13 7b f8 7c 5c 2d eb bf
       -0.8492872658569887

trees.5.1.threshold f8 [4]
000000 00 00 00 c8 cc cc 04 40 00 00 00 00 00 00 fc 3f
       2.599999964237213 1.75
000010 00 00 00 d0 cc cc 13 40 00 00 00 70 66 66 13 40
       4.950000047683716 4.8500001430511475

trees.5.2.value f8 [7, 1, 1]
000000 eb 85 21 6a e1 d1 e9 bf cd 97 89 84 ad b4 e9 bf
       -0.8068701813573943 -0.8033053959486495
000010 3b fb fd 92 f2 56 f2 3f 45 98 d7 b2 d6 80 f9 3f
       1.1462274305228692 1.5939547525427014
000020 ef 1c ec 20 10 41 b4 3f 05 68 8a 3a be 34 e0 3f
       0.07911778262870305 0.5064383643505158
000030 a3 f5 2e 57 6f ea f1 3f
       1.119735088882728

trees.5.2.threshold f8 [6]
000000 00 00 00 00 00 00 13 40 00 00 00 70 66 66 fa 3f
       4.75 1.6500000357627869
000010 00 00 00 a0 99 99 e9 3f 00 00 00 00 00 00 fc 3f
       0.800000011920929 1.75
000020 00 00 00 d0 cc cc 02 40 00 00 00 d0 cc cc 17 40
       2.350000023841858 5.950000047683716

trees.6.0.value f8 [5, 1, 1]
000000 2f e7 3b 20 28 18 f0 3f cb f8 70 8d 95 57 e9 bf
       1.00589764205365 -0.7919414293790167
000010 38 6e 28 b4 36 17 e9 bf a8 6c 5e 49 ea 04 ea bf
       -0.7840837019643407 -0.8130999978051436
000020 84 89 03 2d f8 6f e9 bf
       -0.7949181441475024

trees.6.1.value f8 [5, 1, 1]
000000 b2 93 a7 6a ce 1d ea bf d3 2e 2d de 7b e8 ed 3f
       -0.8161384661767583 0.934629377306431
000010 1f 48 a4 36 65 23 99 bf 33 e9 1c 50 40 6a b7 3f
       -0.024549085102144482 0.09146501499063646
000020 08 23 c0 24 d0 96 ea bf
       -0.8309097974571111

trees.6.1.threshold f8 [4]
000000 00 00 00 a0 99 99 e9 3f 00 00 00 00 00 00 fc 3f
       0.800000011920929 1.75
000010 00 00 00 d0 cc cc 13 40 00 00 00 d0 cc cc 17 40
       4.950000047683716 5.950000047683716

trees.6.2.value f8 [7, 1, 1]
000000 99 91 4e 59 37 38 e9 bf 65 c4 73 8e e7 1e e9 bf
       -0.7881123298907823 -0.7850225240964731
000010 e8 8f 43 b5 60 b3 f1 3f dd b1 a7 b4 1f d0 e1 3f
       1.1062933998700775 0.5566557434481713
000020 0a 51 30 24 f8 36 f0 bf f9 99 50 73 4e f1 db 3f
       -1.013420239794018 0.4366031767007424
000030 53 5d 48 8c b1 ad f0 3f
       1.0424056510726885

trees.6.2.threshold f8 [6]
000000 00 00 00 00 00 00 13 40 00 00 00 70 66 66 fa 3f
       4.75 1.6500000357627869
000010 00 00 00 c8 cc cc 04 40 00 00 00 00 00 00 fc 3f
       2.599999964237213 1.75
000020 00 00 00 70 66 66 fa 3f 00 00 00 d0 cc cc 17 40
       1.6500000357627869 5.950000047683716

trees.7.0.value f8 [5, 1, 1]
000000 65 16 87 b8 64 64 ee 3f 31 90 4e 3f fe cd e8 bf
       0.9497550586754185 -0.7751456486189509
000010 84 3e 31 5a 80 75 e8 bf 66 ac d0 e1 08 83 e9 bf
       -0.7643434297151122 -0.7972454462482232
000020 8c 3a 90 11 31 e4 e8 bf
       -0.7778554289851214

trees.7.0.threshold f8 [4]
000000 00 00 00 a0 99 99 e9 3f 00 00 00 00 00 00 13 40
       0.800000011920929 4.75
000010 00 00 00 70 66 66 fa 3f 00 00 00 90 99 99 14 40
       1.6500000357627869 5.1499998569488525

trees.7.1.value f8 [5, 1, 1]
000000 98 ed 51 be 79 72 e9 bf 5e 83 91 4c c8 07 ea 3f
       -0.7952240674198263 0.8134500022389195
000010 74 20 90 de 87 c9 f0 bf b4 51 a1 01 a6 62 d0 3f
       -1.0492018407694816 0.2560210243148291
000020 b3 20 cc b2 23 bf e9 bf
       -0.8045824520240984

trees.7.1.threshold f8 [4]
000000 00 00 00 a0 99 99 e9 3f 00 00 00 00 00 00 fc 3f
       0.800000011920929 1.75
000010 00 00 00 60 66 66 1c 40 00 00 00 70 66 66 13 40
       7.099999904632568 4.8500001430511475

trees.7.2.value f8 [7, 1, 1]
000000 e9 e4 20 8a ef b3 e8 bf c2 78 f5 8e 91 9e e8 bf
       -0.7719648073026778 -0.7693565170445924
000010 b6 5b fc dc 65 2b f1 3f 62 e5 fc 86 72 35 e0 3f
       1.0730951912171185 0.5065243374330459
000020 37 a8 f5 a5 25 a0 ef bf 86 08 45 46 95 35 d1 3f
       -0.9882992020986937 0.268895453093258
000030 a0 ee 01 86 61 2c ef 3f
       0.9741675965628538

trees.7.2.threshold f8 [6]
000000 00 00 00 00 00 00 13 40 00 00 00 70 66 66 fa 3f
       4.75 1.6500000357627869
000010 00 00 00 c8 cc cc 04 40 00 00 00 00 00 00 fc 3f
       2.599999964237213 1.75
000020 00 00 00 70 66 66 fa 3f 00 00 00 70 66 66 13 40
       1.6500000357627869 4.8500001430511475

trees.8.0.value f8 [5, 1, 1]
000000 2c db 70 4d 23 f3 ec 3f 47 58 2d 6c 16 5d e8 bf
       0.9046799194828501 -0.7613632309755837
000010 0d 54 04 9b 23 f4 e7 bf 96 8d bd 9c 91 03 e9 bf
       -0.7485521342920279 -0.7816856442772628
000020 2a 46 08 4f 45 6e e8 bf
       -0.7634607833480846

trees.8.1.value f8 [5, 1, 1]
000000 28 29 2b 6d 35 e1 e8 bf b1 69 3f ed 21 2f ec 3f
       -0.7774912960242419 0.8807534822220103
000010 7d aa f8 5d 6c 5f a3 bf 44 d6 ee f9 fc 36 c4 3f
       -0.03783739707099174 0.15792810634381926
000020 39 59 43 35 e6 22 e9 bf
       -0.7855101623816046

trees.8.1.threshold f8 [4]
000000 00 00 00 c8 cc cc 04 40 00 00 00 70 66 66 13 40
       2.599999964237213 4.8500001430511475
000010 00 00 00 70 66 66 fa 3f 00 00 00 00 00 00 fc 3f
       1.6500000357627869 1.75

trees.8.2.value f8 [7, 1, 1]
000000 24 12 0c c2 f0 41 e8 bf 3b a2 61 6c de 34 e8 bf
       -0.7580493726714548 -0.756453715975176
000010 c8 67 cd 74 d8 b0 f0 3f 48 6c 18 e9 73 be e3 3f
       1.0431751787750603 0.6169986298222137
000020 55 8c c6 e2 0b 1d f7 bf 63 8f ed 70 87 76 f4 3f
       -1.444591413347344 1.2789377604721828
000030 a5 95 f8 b7 ab 56 ed 3f
       0.9168299287018057

trees.8.2.threshold f8 [6]
000000 00 00 00 00 00 00 13 40 00 00 00 70 66 66 fa 3f
       4.75 1.6500000357627869
000010 00 00 00 c8 cc cc 04 40 00 00 00 90 99 99 14 40
       2.599999964237213 5.1499998569488525
000020 00 00 00 30 33 33 09 40 00 00 00 30 33 33 fb 3f
       3.149999976158142 1.699999988079071

trees.9.0.value f8 [5, 1, 1]
000000 20 e7 ad 3f b8 c6 eb 3f 7a 03 31 e7 5d f5 e7 bf
       0.8680077785240634 -0.7487020030458631
000010 4d 86 d2 03 d0 96 e7 bf 2b c4 54 55 d6 a9 e8 bf
       -0.7371597361236099 -0.770732084905949
000020 86 be 6b 58 ec 04 e8 bf
       -0.7506009795160515

trees.9.1.value f8 [5, 1, 1]
000000 cd c1 99 02 88 65 e8 bf 99 fb c5 be 35 7f e7 3f
       -0.7623939562600356 0.7342785573999776
000010 77 f1 3e 16 06 60 ef bf 6e 75 4c e2 68 2a c9 3f
       -0.9804716524591147 0.1966067414258918
000020 a3 2a f6 32 c8 ed e8 bf
       -0.7790261264174955

trees.9.1.threshold f8 [4]
000000 00 00 00 c8 cc cc 04 40 00 00 00 00 00 00 fc 3f
       2.599999964237213 1.75
000010 00 00 00 d0 cc cc 15 40 00 00 00 d0 cc cc 17 40
       5.450000047683716 5.950000047683716

trees.9.2.value f8 [7, 1, 1]
000000 65 52 2e 41 95 df e7 bf ac 05 5e cf 6c d3 e7 bf
       -0.7460428498330428 -0.744558720602233
000010 0c 30 ca 68 18 ec ef 3f 20 a3 6f 57 0b 78 e1 3f
       0.9975702330280014 0.5459038455711358
000020 6f 49 18 cc 9c 92 f2 bf 53 b0 fa 2e 8e 1c f6 3f
       -1.1607940647560004 1.381971534264285
000030 bb 54 0b 7d 5d 71 e7 3f
       0.7325885240813003

trees.9.2.threshold f8 [6]
000000 00 00 00 00 00 00 13 40 00 00 00 70 66 66 fa 3f
       4.75 1.6500000357627869
000010 00 00 00 c8 cc cc 04 40 00 00 00 00 00 00 06 40
       2.599999964237213 2.75
000020 00 00 00 30 33 33 14 40 00 00 00 70 66 66 fa 3f
       5.049999952316284 1.6500000357627869

onnx::MatMul_912 i1 [3, 4]
000000 00 00 00 01 00 01 01 00 00 00 01 00
       0 0 0 1 0 1 1 0 0 0 1 0

onnx::MatMul_914 i1 [3, 4]
000000 01 01 01 01 01 01 01 00 00 01 01 00
       1 1 1 1 1 1 1 0 0 1 1 0

onnx::MatMul_915 i1 [4, 5]
000000 00 01 01 01 01 00 00 00 01 01 00 00 01 00 00 00
       0 1 1 1 1 0 0 0 1 1 0 0 1 0 0 0
000010 00 00 00 01
       0 0 0 1

onnx::MatMul_917 i1 [4, 5]
000000 01 01 01 01 01 00 01 01 01 01 00 01 01 00 00 00
       1 1 1 1 1 0 1 1 1 1 0 1 1 0 0 0
000010 00 00 01 01
       0 0 1 1

onnx::MatMul_918 i1 [6, 7]
000000 00 00 00 01 01 01 01 00 00 01 00 00 00 00 00 01
       0 0 0 1 1 1 1 0 0 1 0 0 0 0 0 1
000010 00 00 00 00 00 00 00 00 00 00 01 01 00 00 00 00
       0 0 0 0 0 0 0 0 0 0 1 1 0 0 0 0
000020 01 00 00 00 00 00 00 00 00 01
       1 0 0 0 0 0 0 0 0 1

onnx::MatMul_920 i1 [6, 7]
000000 01 01 01 01 01 01 01 01 01 01 00 00 00 00 01 01
       1 1 1 1 1 1 1 1 1 1 0 0 0 0 1 1
000010 00 00 00 00 00 00 00 00 01 01 01 01 00 00 00 01
       0 0 0 0 0 0 0 0 1 1 1 1 0 0 0 1
000020 01 00 00 00 00 00 00 00 01 01
       1 0 0 0 0 0 0 0 1 1
