examples/onnx/nanoGPT/network.onnx (onnx, 899643 bytes, 21 tensors)

transformer.wte.weight f4 [65, 64]
-0.001846532 -0.00830076 0.016133418 -0.00094588526 -0.0409418 0.00817367 0.009146631 0.016763138
0.03271346 0.015282902 0.0028892301 -0.022458922 -0.008149937 0.022117874 -0.0292357 -0.016271792
0.015399171 0.018122239 0.0005951421 0.016406784 -0.005071475 -0.0381307 0.0182785 -0.016367123
-0.0047377483 -0.023555713 0.0073983213 -0.028418204 0.053201456 6.87434e-05 0.012609354 0.0119735105
0.023155821 -0.0100415 -0.033547863 0.022462007 -0.016540067 -0.010434389 0.040229563 -0.014100513
0.02480494 0.022378549 -0.026368376 0.02356705 0.005455955 0.02516626 -0.0076216827 -0.007274888
-0.05138112 0.006586212 -0.0034169848 0.01328457 -0.023775656 0.016262913 0.015619666 -0.0056844885
0.021748936 0.024961838 -0.02546265 0.008173554 0.0035651075 0.0037297073 0.025639905 0.045984548
-0.007794241 0.004706715 -0.0012096334 0.017339297 -0.017020931 0.0012622322 0.007266907 0.037068617
-0.039188385 0.013441819 0.02810281 -0.025598811 -0.01846103 0.0070167677 0.027385168 -0.0045989216
0.0077977884 0.01885807 -0.0020503555 0.024702456 -0.048005547 -0.015307861 0.013000158 -0.03277781
0.007512887 0.0062184217 0.020003224 0.01868566 -0.0216393 0.007855998 0.0075390455 -0.0062527233
0.012614815 0.01385107 0.00798769 -0.022825615 -0.01784009 -0.017126543 -0.0147818355 0.008864616
0.013074578 0.0342682 0.05018815 -0.014144286 0.008685359 -0.016921243 0.03106367 -0.012908788
-0.0046401564 0.006697355 -0.0050660637 -0.014782562 0.044982146 -0.031303596 -0.04048397 0.055551782
-0.0042559714 0.0076468955 -0.02969784 -0.018026287 -0.0006033931 -0.0024777534 0.023966007 0.03266732
-0.014875559 -0.044109873 -0.03199072 -0.0082515385 0.033320088 0.010025511 0.036736898 0.016058642
-0.020652156 -0.009053768 0.017124455 -0.015891546 -0.021154689 0.009526293 0.008949249 -0.024792012
-0.0018467549 -0.006172456 0.038749006 -0.017672483 -0.025314467 -0.02837912 -0.021160128 0.009235906
0.07604208 -0.0024465008 0.010148665 0.008056601 0.042859614 0.0019388641 0.0048697465 0.009748
-0.016086012 -0.00082357187 0.024569089 0.011984929 -0.0011545421 -0.030842954 -0.0072065997 0.015936306
0.0012602924 0.024041388 3.207574e-05 0.02295692 -0.0127917295 -0.009245945 -0.012009064 0.03383296
0.016582908 -0.016772607 0.034945402 0.03989691 -0.02139354 0.030385565 0.00671043 0.0031100926
-0.005128075 0.015455837 0.042003654 -0.00801164 -0.027984783 0.014266127 -0.015689846 -0.03872414
-0.0008595018 0.0077662906 -0.025600798 0.0014181472 0.0048033576 -0.013283863 0.03247324 0.028203992
-0.0010531298 -0.012232449 0.029590987 -0.0037651248 -0.020488452 0.01717136 -0.022327576 -0.027612844
0.018629408 0.010648633 0.011032922 0.008207068 -0.01883819 0.0021312758 0.003368099 -0.01343349
0.01624594 0.028483147 -0.010991263 0.03770625 -0.018070728 0.0017345366 -0.014258395 -0.038518492
-0.0008769831 0.012331848 -0.024951981 -0.0036576735 -0.04276771 0.03515526 0.011779915 -0.010267383
0.0038183534 0.029506132 0.018462755 0.043540142 0.0034021193 0.016780626 0.016695006 -0.032909397
0.013487639 -0.032909904 0.003364531 0.029464705 0.022527196 0.039877135 0.01665686 -0.01531463
0.021656971 0.01192148 0.018056963 0.025785334 -0.032685243 0.018544357 0.004815654 -0.032404862
00000000: 5507 f2ba e9ff 07bc 3b2a 843c 49f5 77ba
00000010: 97b2 27bd dbea 053c c0db 153c d952 893c
00000020: 8dfe 053d 2365 7a3c 3d59 3d3b c6fb b7bc
00000030: 5087 05bc 8b30 b53c b57f efbc 6c4c 85bc
00000040: ce4c 7c3c 1775 943c 4f03 1c3a 8567 863c
00000050: 9e2e a6bb f02e 1cbd cbbc 953c 5814 86bc
00000060: 1d3f 9bbb e9f7 c0bc 9e6d f23b 4bcd e8bc
00000070: c5e9 593d 552a 9038 7797 4e3c 8b2c 443c
00000080: 47b1 bd3c 1b85 24bc 7c69 09bd 3e02 b83c
00000090: 097f 87bc 00f5 2abc c1c7 243d d705 67bc
000000a0: bb33 cb3c 3853 b73c 7e02 d8bc b00f c13c
000000b0: dec7 b23b 7929 ce3c 4fbf f9bb 2f62 eebb
000000c0: 0275 52bd 27d1 d73b 7eef 5fbb 86a7 593c
000000d0: 2ac5 c2bc cd39 853c a1e9 7f3c f244 babb
000000e0: d32a b23c c57c cc3c 0c97 d0bc 5fea 053c
000000f0: 94a4 693b 1b6e 743b c70a d23c 4b5a 3c3d
00000100: d566 ffbb c93a 9a3b 908c 9eba 240b 8e3c
00000110: 7b6f 8bbc 7c71 a53a 3c1f ee3b 43d5 173d
00000120: 0084 20bd 133b 5c3c dd37 e63c 99b4 d1bc
00000130: 963b 97bc eaec e53b dc56 e03c 8db2 96bb
00000140: 9784 ff3b 3d7c 9a3c 425f 06bb ce5c ca3c
00000150: 77a1 44bd d3cd 7abc 9dfe 543c 0642 06bd
00000160: aa2e f63b e7c3 cb3b cddd a33c ab12 993c
00000170: e744 b1bc 72b6 003c 190a f73b a5e3 ccbb
00000180: 5eae 4e3c 99ef 623c cdde 023c c9fc babc
00000190: 6125 92bc f74c 8cbc 832f 72bc e53c 113c
000001a0: c136 563c d05c 0c3d 1792 4d3d 6fbd 67bc
000001b0: 094d 0e3c 6b9e 8abc 3d79 fe3c 627f 53bc
000001c0: 740c 98bb 7c75 db3b 3901 a6bb 8f32 72bc
000001d0: 333f 383d 3338 00bd 85d2 25bd 448a 633d
000001e0: ad75 8bbb cf92 fa3b e248 f3bc ddab 93bc
000001f0: 072d 1eba ce61 22bb 5c54 c43c 2bce 053d
00000200: 9eb8 73bc 8eac 34bd b408 03bd 7631 07bc
00000210: a57a 083d 0a42 243c 6e79 163d 6a8d 833c
00000220: b62e a9bc 4156 14bc 9648 8c3c fd2e 82bc
00000230: 994c adbc 2b14 1c3c df9f 123c 9e18 cbbc
00000240: d00e f2ba 5042 cabb 47b7 1e3d e2c5 90bc
00000250: 4960 cfbc 547b e8bc 0158 adbc 3352 173c
00000260: f3bb 9b3d 7955 20bb 9646 263c d5ff 033c
00000270: 908d 2f3d 7c21 fe3a 6592 9f3b 13b6 1f3c
00000280: d0c6 83bc f9e4 57ba 1d45 c93c 705c 443c
00000290: 0154 97ba 5daa fcbc 5725 ecbb db8c 823c
000002a0: 6530 a53a 72f2 c43c 1089 0638 2710 bc3c
000002b0: 6794 51bc 4e7c 17bc aac1 44bc 6e94 0a3d
000002c0: e1d8 873c b566 89bc e922 0f3d f16a 233d
000002d0: 8141 afbc 26eb f83c 2be3 db3b b2d2 4b3b
000002e0: 6909 a8bb 7b3a 7d3c 060c 2c3d 4143 03bc
000002f0: 5840 e5bc 79bc 693c fe87 80bc 349d 1ebd
00000300: 3050 61ba 5e7c fe3b c4b8 d1bc 20e1 b93a
00000310: 7c65 9d3b 8fa4 59bc a902 053d 0f0c e73c
00000320: 2c09 8aba 9c6a 48bc cc68 f23c 50c0 76bb
00000330: 66d7 a7bc f4aa 8c3c 52e8 b6bc 5534 e2bc
00000340: b39c 983c 9b77 2e3c 6ec3 343c f076 063c
00000350: 8c52 9abc e0ac 0b3b 53bb 5c3b 2418 5cbc
00000360: 3516 853c 7d55 e93c b314 34bc de71 1a3d
00000370: 1009 94bc 6459 e33a 0b9c 69bc 91c5 1dbd
00000380: 57e5 65ba 850b 4a3c 1968 ccbc 94b5 6fbb
00000390: 322d 2fbd f6fe 0f3d 8b00 413c 8738 28bc
000003a0: 573d 7a3b d8b6 f13c 343f 973c 2657 323d
000003b0: 17f6 5e3b 8677 893c f7c3 883c 01cc 06bd
000003c0: 42fb 5c3c 89cc 06bd 777f 5c3b f75f f13c
000003d0: f48a b83c 3556 233d f873 883c 37ea 7abc
000003e0: f669 b13c 5052 433c 32ec 933c c43b d33c
000003f0: f6e0 05bd 56ea 973c a2cc 9d3b f6ba 04bd

transformer.wpe.weight f4 [64, 64]
-0.006267093 -0.010845624 0.0014372694 0.0031395685 -0.010346552 -0.018714635 -0.00018503111 -0.01773756
0.010447787 -0.0053110686 0.020175507 0.006877676 0.0041898815 0.02794696 0.011384066 0.013417357
-0.017167151 0.017438566 0.012127252 0.000785261 0.012419024 -0.019308334 0.003508324 0.0076164627
0.015096004 -0.013581095 0.036899984 -0.01849988 0.007134734 -0.020112412 0.015056105 0.0123135615
-0.0049951565 0.015481922 -0.006017326 -0.007145191 -0.016429456 -0.020230109 -0.008308979 0.024673209
0.013469012 -0.049169548 0.046993606 -0.0008617627 0.06771447 0.00093467196 0.017688027 -0.0058854357
0.0016122914 0.017550748 0.03067096 0.0010188492 0.0021986072 -0.030000653 -0.0141443545 0.029722778
0.006762752 0.03236935 0.012793858 0.004625895 -0.008654328 -0.02425063 -0.0038708558 0.03902836
-0.012102882 0.021224635 0.004553723 -0.0055868286 -0.00079385075 0.0127249705 0.006632247 -0.009362782
-0.0048782155 0.007576341 0.004368884 -0.0026047819 -0.00657065 0.018042853 0.024215467 -0.030684477
-0.0025103942 0.0008284032 0.022229819 0.010250678 0.0153977405 -0.0027797257 -0.0042720875 0.012270868
-0.010843554 -0.0024881114 0.020760229 -0.0065106833 -0.0015355495 -0.005316353 0.006056927 0.0033887525
-0.019495193 0.009218747 0.011074411 -0.006620076 0.021754988 -0.014807882 -0.026922634 0.03548397
0.010298776 0.0012686315 0.020092048 -0.0044290195 -0.011990536 -0.008344411 0.015677653 0.014063028
0.0061538564 0.03391678 -0.034779094 -0.014664298 -0.003061462 0.02595546 -0.003240076 -0.0074711447
0.002938736 -0.0036754918 0.0413922 -0.018501574 0.026909608 -0.007972992 0.030630745 0.0049844384
0.028826134 0.014446633 0.015420012 0.03078242 0.024180928 0.033422828 -0.02084836 0.049589097
-0.037051488 -0.019429961 -0.012581963 0.019013997 -0.009012126 0.011822871 -0.011351939 0.024141686
-0.016154671 0.043117993 -0.0052308147 -0.00090531766 -0.015810171 0.033927657 0.027311994 0.006875635
-0.015054545 0.011927749 0.02068876 -0.005968731 0.0254528 -0.0040406506 0.020438232 0.012860571
0.022397863 -0.0024661245 -0.013631277 -0.021464093 0.0030370865 0.003272691 -0.014118163 0.032017913
0.004559519 -0.0030310953 0.015357938 -0.0004083562 0.0038053994 -0.021439375 0.003565547 0.0024815947
0.04110274 0.015820412 -0.0067845252 -0.010422507 0.0020604108 0.011185698 0.015231078 -0.049986746
-0.019677162 -0.018892625 -0.0053057307 0.0047409884 -0.0009581628 0.033703864 0.015637511 -0.009258
-0.020198468 0.007833078 0.034438353 -0.0066624433 -0.004397875 -0.002481873 0.006053141 0.007519183
-0.014960292 -0.013603804 -0.028537415 -0.013387268 0.027014246 0.025989098 0.018329432 0.05040172
0.007439401 0.009703082 -0.017940136 0.0001327127 0.0044817193 -0.003056937 0.00695829 0.006845259
0.006177834 -0.01770793 -0.021283444 0.0053646895 0.0028964838 0.012660483 0.012376089 0.020716697
0.012560458 -0.0028600798 -0.001247679 0.0061761565 -0.0058447598 -0.008622561 -0.0026671104 -0.014523805
-0.0016076836 -0.019775374 -0.016443161 -0.01984259 0.01789046 -0.008120136 0.007023416 -0.0029846295
0.025021669 -0.0004251167 -0.0038773497 0.00051756186 -0.024096506 0.0145698935 0.016038734 0.04011756
0.0034031603 -0.007315822 0.0228751 -0.0060483073 0.008072346 -0.0021413378 0.013838102 -0.00087190187
00000000: 305c cdbb d8b1 31bc c262 bc3a 38c1 4d3b
00000010: 9684 29bc 6f4f 99bc e904 42b9 5c4e 91bc
00000020: 322d 2b3c 7908 aebb 1b47 a53c 215e e13b
00000030: 464b 893b 06f1 e43c 3c84 3a3c 79d4 5b3c
00000040: 20a2 8cbc 53db 8e3c 62b1 463c f9d9 4d3a
00000050: 2979 4b3c 832c 9ebc e9eb 653b 8593 f93b
00000060: 3b55 773c 3e83 5ebc 7024 173d 0f8d 97bc
00000070: 7dca e93b c9c2 a4bc e2ad 763c d2be 493c
00000080: 69ae a3bb e3a7 7d3c fd2c c5bb 3522 eabb
00000090: 1197 86bc 9db9 a5bc 6222 08bc 781f ca3c
000000a0: 22ad 5c3c 0266 49bd 5e7c 403d eae7 61ba
000000b0: e2ad 8a3d c604 753a 7be6 903c 9dda c0bb
000000c0: 8653 d33a 96c6 8f3c aa41 fb3c e88a 853a
000000d0: 8216 103b eec3 f5bc b9bd 67bc 2f7d f33c
000000e0: 139a dd3b b995 043d 549d 513c d294 973b
000000f0: e2ca 0dbc 42a9 c6bc 2fae 7dbb 34dc 1f3d
00000100: 2b4b 46bc 49df ad3c 6637 953b b711 b7bb
00000110: 6c1a 50ba 657c 503c 5253 d93b 5b66 19bc
00000120: 70d9 9fbb f442 f83b db28 8f3b fdb4 2abb
00000130: 9b4e d7bb 9bce 933c 845f c63c 035e fbbc
00000140: 6d85 24bb 3329 593a 4f1b b63c 76f2 273c
00000150: ce46 7c3c 0f2c 36bb defc 8bbb c00b 493c
00000160: 29a9 31bc 950f 23bb 5b11 aa3c 9257 d5bb
00000170: 7e44 c9ba cd34 aebb 3079 c63b d515 5e3b
00000180: 62b4 9fbc 3a0a 173c 7271 353c 39ed d8bb
00000190: 8437 b23c c29c 72bc db8c dcbc a457 113d
000001a0: 33bc 283c 3648 a63a 1498 a43c 4f21 91bb
000001b0: f473 44bc ffb6 08bc 6c6e 803c 9d68 663c
000001c0: 4aa6 c93b 52ec 0a3d 8674 0ebd 8642 70bc
000001d0: cfa2 48bb 8ba0 d43c 7457 54bb 81d0 f4bb
000001e0: cf97 403b 85e0 70bb de8a 293d 9d90 97bc
000001f0: 8a71 dc3c 27a1 02bc 54ed fa3c 8054 a33b
00000200: c924 ec3c 92b1 6c3c 38a4 7c3c 6a2b fc3c
00000210: 1517 c63c 60e6 083d 2eca aabc f01d 4b3d
00000220: 4dc3 17bd 952b 9fbc 9424 4ebc 3ec3 9b3c
00000230: 99a7 13bc b7b4 413c 7cfd 39bc c9c4 c53c
00000240: cd56 84bc 7e9c 303d 4167 abbb d752 6dba
00000250: 5584 81bc baf7 0a3d 67bd df3c 024d e13b
00000260: 57a7 76bc 9b6c 433c 797b a93c 5895 c3bb
00000270: 6482 d03c 6f67 84bb 146e a73c 25b5 523c
00000280: b97b b73c b49e 21bb b855 5fbc 77d5 afbc
00000290: db09 473b a57a 563b de4f 67bc 3725 033d
000002a0: 0468 953b 57a5 46bb dc9f 7b3c a418 d6b9
000002b0: 0264 793b a1a1 afbc f4ab 693b 40a2 223b
000002c0: 595b 283d cf99 813c b950 debb 2ac3 2abc
000002d0: f507 073b 3844 373c c58b 793c e7be 4cbd
000002e0: 0032 a1bc b5c4 9abc b2db adbb 4b5a 9b3b
000002f0: 382d 7bba 100d 0a3d 3d1a 803c deae 17bc
00000300: 4277 a5bc 4f56 003c 3b0f 0d3d a050 dabb
00000310: 0d1c 90bb eba6 22bb 6d59 c63b 7b63 f63b
00000320: 031c 75bc 7de2 5ebc 4cc7 e9bc 4656 5bbc
00000330: fb4c dd3c 17e7 d43c 9b27 963c 0972 4e3d
00000340: 38c6 f33b adf9 1e3c 31f7 92bc cb28 0b39
00000350: 63db 923b e456 48bb 5e02 e43b 324e e03b
00000360: 6d6f ca3b 3910 91bc 9e5a aebc 47ca af3b
00000370: efd2 3d3b ea6d 4f3c 14c5 4a3c 10b6 a93c
00000380: 61ca 4d3c 2d70 3bbb 2989 a3ba 5b61 ca3b
00000390: 6685 bfbb a445 0dbc b0ca 2ebb 41f5 6dbc
000003a0: e9b8 d2ba f7ff a1bc cfb3 86bc ed8c a2bc
000003b0: 048f 923c 520a 05bc af24 e63b c699 43bb
000003c0: 3efa cc3c 33e2 deb9 221b 7ebb fdac 073a
000003d0: 0966 c5bc 90b6 6e3c aa63 833c 5052 243d
000003e0: 8e07 5f3b 90b9 efbb 9064 bb3c e130 c6bb
000003f0: e041 043c b055 0cbb 35b9 623c 5890 64ba

transformer.h.0.ln_1.weight f4 [64]
1.0 1.0 1.0 1.0 1.0 1.0 1.0 1.0
1.0 1.0 1.0 1.0 1.0 1.0 1.0 1.0
1.0 1.0 1.0 1.0 1.0 1.0 1.0 1.0
1.0 1.0 1.0 1.0 1.0 1.0 1.0 1.0
1.0 1.0 1.0 1.0 1.0 1.0 1.0 1.0
1.0 1.0 1.0 1.0 1.0 1.0 1.0 1.0
1.0 1.0 1.0 1.0 1.0 1.0 1.0 1.0
1.0 1.0 1.0 1.0 1.0 1.0 1.0 1.0
00000000: 0000 803f 0000 803f 0000 803f 0000 803f
00000010: 0000 803f 0000 803f 0000 803f 0000 803f
00000020: 0000 803f 0000 803f 0000 803f 0000 803f
00000030: 0000 803f 0000 803f 0000 803f 0000 803f
00000040: 0000 803f 0000 803f 0000 803f 0000 803f
00000050: 0000 803f 0000 803f 0000 803f 0000 803f
00000060: 0000 803f 0000 803f 0000 803f 0000 803f
00000070: 0000 803f 0000 803f 0000 803f 0000 803f
00000080: 0000 803f 0000 803f 0000 803f 0000 803f
00000090: 0000 803f 0000 803f 0000 803f 0000 803f
000000a0: 0000 803f 0000 803f 0000 803f 0000 803f
000000b0: 0000 803f 0000 803f 0000 803f 0000 803f
000000c0: 0000 803f 0000 803f 0000 803f 0000 803f
000000d0: 0000 803f 0000 803f 0000 803f 0000 803f
000000e0: 0000 803f 0000 803f 0000 803f 0000 803f
000000f0: 0000 803f 0000 803f 0000 803f 0000 803f

transformer.h.0.attn.bias f4 [1, 1, 64, 64]
1.0 0.0 0.0 0.0 0.0 0.0 0.0 0.0
0.0 0.0 0.0 0.0 0.0 0.0 0.0 0.0
0.0 0.0 0.0 0.0 0.0 0.0 0.0 0.0
0.0 0.0 0.0 0.0 0.0 0.0 0.0 0.0
0.0 0.0 0.0 0.0 0.0 0.0 0.0 0.0
0.0 0.0 0.0 0.0 0.0 0.0 0.0 0.0
0.0 0.0 0.0 0.0 0.0 0.0 0.0 0.0
0.0 0.0 0.0 0.0 0.0 0.0 0.0 0.0
1.0 1.0 0.0 0.0 0.0 0.0 0.0 0.0
0.0 0.0 0.0 0.0 0.0 0.0 0.0 0.0
0.0 0.0 0.0 0.0 0.0 0.0 0.0 0.0
0.0 0.0 0.0 0.0 0.0 0.0 0.0 0.0
0.0 0.0 0.0 0.0 0.0 0.0 0.0 0.0
0.0 0.0 0.0 0.0 0.0 0.0 0.0 0.0
0.0 0.0 0.0 0.0 0.0 0.0 0.0 0.0
0.0 0.0 0.0 0.0 0.0 0.0 0.0 0.0
1.0 1.0 1.0 0.0 0.0 0.0 0.0 0.0
0.0 0.0 0.0 0.0 0.0 0.0 0.0 0.0
0.0 0.0 0.0 0.0 0.0 0.0 0.0 0.0
0.0 0.0 0.0 0.0 0.0 0.0 0.0 0.0
0.0 0.0 0.0 0.0 0.0 0.0 0.0 0.0
0.0 0.0 0.0 0.0 0.0 0.0 0.0 0.0
0.0 0.0 0.0 0.0 0.0 0.0 0.0 0.0
0.0 0.0 0.0 0.0 0.0 0.0 0.0 0.0
1.0 1.0 1.0 1.0 0.0 0.0 0.0 0.0
0.0 0.0 0.0 0.0 0.0 0.0 0.0 0.0
0.0 0.0 0.0 0.0 0.0 0.0 0.0 0.0
0.0 0.0 0.0 0.0 0.0 0.0 0.0 0.0
0.0 0.0 0.0 0.0 0.0 0.0 0.0 0.0
0.0 0.0 0.0 0.0 0.0 0.0 0.0 0.0
0.0 0.0 0.0 0.0 0.0 0.0 0.0 0.0
0.0 0.0 0.0 0.0 0.0 0.0 0.0 0.0
00000000: 0000 803f 0000 0000 0000 0000 0000 0000
00000010: 0000 0000 0000 0000 0000 0000 0000 0000
00000020: 0000 0000 0000 0000 0000 0000 0000 0000
00000030: 0000 0000 0000 0000 0000 0000 0000 0000
00000040: 0000 0000 0000 0000 0000 0000 0000 0000
00000050: 0000 0000 0000 0000 0000 0000 0000 0000
00000060: 0000 0000 0000 0000 0000 0000 0000 0000
00000070: 0000 0000 0000 0000 0000 0000 0000 0000
00000080: 0000 0000 0000 0000 0000 0000 0000 0000
00000090: 0000 0000 0000 0000 0000 0000 0000 0000
000000a0: 0000 0000 0000 0000 0000 0000 0000 0000
000000b0: 0000 0000 0000 0000 0000 0000 0000 0000
000000c0: 0000 0000 0000 0000 0000 0000 0000 0000
000000d0: 0000 0000 0000 0000 0000 0000 0000 0000
000000e0: 0000 0000 0000 0000 0000 0000 0000 0000
000000f0: 0000 0000 0000 0000 0000 0000 0000 0000
00000100: 0000 803f 0000 803f 0000 0000 0000 0000
00000110: 0000 0000 0000 0000 0000 0000 0000 0000
00000120: 0000 0000 0000 0000 0000 0000 0000 0000
00000130: 0000 0000 0000 0000 0000 0000 0000 0000
00000140: 0000 0000 0000 0000 0000 0000 0000 0000
00000150: 0000 0000 0000 0000 0000 0000 0000 0000
00000160: 0000 0000 0000 0000 0000 0000 0000 0000
00000170: 0000 0000 0000 0000 0000 0000 0000 0000
00000180: 0000 0000 0000 0000 0000 0000 0000 0000
00000190: 0000 0000 0000 0000 0000 0000 0000 0000
000001a0: 0000 0000 0000 0000 0000 0000 0000 0000
000001b0: 0000 0000 0000 0000 0000 0000 0000 0000
000001c0: 0000 0000 0000 0000 0000 0000 0000 0000
000001d0: 0000 0000 0000 0000 0000 0000 0000 0000
000001e0: 0000 0000 0000 0000 0000 0000 0000 0000
000001f0: 0000 0000 0000 0000 0000 0000 0000 0000
00000200: 0000 803f 0000 803f 0000 803f 0000 0000
00000210: 0000 0000 0000 0000 0000 0000 0000 0000
00000220: 0000 0000 0000 0000 0000 0000 0000 0000
00000230: 0000 0000 0000 0000 0000 0000 0000 0000
00000240: 0000 0000 0000 0000 0000 0000 0000 0000
00000250: 0000 0000 0000 0000 0000 0000 0000 0000
00000260: 0000 0000 0000 0000 0000 0000 0000 0000
00000270: 0000 0000 0000 0000 0000 0000 0000 0000
00000280: 0000 0000 0000 0000 0000 0000 0000 0000
00000290: 0000 0000 0000 0000 0000 0000 0000 0000
000002a0: 0000 0000 0000 0000 0000 0000 0000 0000
000002b0: 0000 0000 0000 0000 0000 0000 0000 0000
000002c0: 0000 0000 0000 0000 0000 0000 0000 0000
000002d0: 0000 0000 0000 0000 0000 0000 0000 0000
000002e0: 0000 0000 0000 0000 0000 0000 0000 0000
000002f0: 0000 0000 0000 0000 0000 0000 0000 0000
00000300: 0000 803f 0000 803f 0000 803f 0000 803f
00000310: 0000 0000 0000 0000 0000 0000 0000 0000
00000320: 0000 0000 0000 0000 0000 0000 0000 0000
00000330: 0000 0000 0000 0000 0000 0000 0000 0000
00000340: 0000 0000 0000 0000 0000 0000 0000 0000
00000350: 0000 0000 0000 0000 0000 0000 0000 0000
00000360: 0000 0000 0000 0000 0000 0000 0000 0000
00000370: 0000 0000 0000 0000 0000 0000 0000 0000
00000380: 0000 0000 0000 0000 0000 0000 0000 0000
00000390: 0000 0000 0000 0000 0000 0000 0000 0000
000003a0: 0000 0000 0000 0000 0000 0000 0000 0000
000003b0: 0000 0000 0000 0000 0000 0000 0000 0000
000003c0: 0000 0000 0000 0000 0000 0000 0000 0000
000003d0: 0000 0000 0000 0000 0000 0000 0000 0000
000003e0: 0000 0000 0000 0000 0000 0000 0000 0000
000003f0: 0000 0000 0000 0000 0000 0000 0000 0000

onnx::MatMul_499 f4 [64, 192]
0.0043485905 0.0001493218 0.012529824 -0.0030993568 -0.0077115516 0.03851166 0.050868295 0.007243769
-0.0032073462 -0.0009636462 -0.028377654 0.0058028083 0.0048621753 -0.0035579025 0.00069094927 0.028361104
-0.006609448 -0.009413554 -0.027507434 0.002268661 -0.007862154 8.584264e-05 0.013276579 -0.0054283785
0.026539057 0.020670058 0.0022011811 -0.021916257 0.026310941 -0.009828687 -0.007893813 -0.004799833
-0.0075801495 0.016522007 -0.01399274 -0.005648952 -0.007370309 -0.0038385787 0.005331418 0.013205477
-0.0122774625 0.0018580939 0.0059860176 0.01116993 0.011163874 0.018298006 -0.01941161 -0.005235938
-0.030582314 0.018410495 -0.021014528 0.007466379 -0.009048389 0.0005411559 0.0037111067 0.012985253
0.028528325 -0.018477647 -0.0014882676 0.009283599 -0.01328536 -0.020717492 0.011471416 -0.019688336
0.013267451 0.0013061243 -0.0027850217 -0.015710019 0.0029818167 -0.027517807 -0.023059377 0.04005062
0.0433679 -0.01945458 0.010070675 -0.0107357865 -0.043931484 -0.025456814 0.0054737357 -0.0011202842
0.010331748 0.00014814505 -0.022762498 -0.0014862902 0.018365169 0.014109075 0.009994992 0.0065452587
0.03218225 0.00097072904 -0.019342422 -0.040850017 0.0070575997 0.00073303527 -0.026949741 -0.004947126
0.0049725277 -0.020774096 -0.024184117 -0.021443699 0.042288847 -0.013490208 0.024704285 0.022703854
0.003390479 -0.039986625 -0.0042920546 -0.027674645 0.025833819 0.0070172506 -0.012922935 -0.024376037
0.014323842 -0.020621628 0.023119198 -0.0098069925 -0.006446428 0.024912208 0.018100895 0.013674904
0.011716955 0.0006254151 -0.0014195513 -0.01655926 -0.00036074984 -0.00620353 -0.0014647103 0.0116747515
0.012764212 0.02072647 -0.0013996289 0.004505335 -0.017886337 0.009138524 -0.012396046 0.0005416918
0.016260393 -0.011127968 -0.032949157 0.016757589 0.024148626 0.01993844 0.0008559175 0.007578173
-0.011080861 0.040430613 0.015824417 0.01969449 0.012118136 -0.011044461 -0.0016411375 0.023761667
0.042698734 -0.033146985 0.007400288 0.012268011 0.023976525 0.0015578531 0.02454488 0.027077654
-0.011263636 -0.0056586587 0.016315315 -0.048171777 0.0048299422 -0.00026111773 -0.020529775 -0.007284777
0.0030135107 0.025483755 -0.030184645 0.006530319 -0.011820676 0.0011598691 -0.00054569996 0.0032530825
-0.00027258688 0.021311432 0.013277149 0.05548559 -0.024390876 -0.0058110366 0.0027633982 0.02600264
0.028135441 -0.021735437 0.010484105 -0.016928278 -0.0013313029 -0.010880087 -0.0028739667 -0.03723424
-0.013682433 -0.0056324066 -0.016131986 0.0055813775 -0.0033836453 -0.003910241 -0.0154172275 -0.009376132
-0.013726526 0.021369144 0.011068161 -0.0064494777 0.0229689 0.024145095 -0.025976101 -0.011399778
-0.00035529656 0.0020381596 -0.020968331 0.038218595 -0.023713132 -0.0011081386 0.055256046 -0.02335508
-0.023497738 -0.017997263 -0.0028903675 -0.0142105585 0.0075730886 0.023392135 0.013209205 0.010173731
0.016604958 0.0020708425 0.013006808 0.012708639 0.026873661 0.036001265 -0.009231035 0.008867595
-0.021713244 0.016872447 -0.015647855 -0.02748257 -0.004562197 -0.0261048 -0.00080129114 0.002058348
0.01290911 0.024009468 -0.015070891 0.008395086 0.013750363 -0.020199886 0.009714564 0.018997118
-0.008465397 -0.0034531953 0.014394264 0.0071886415 -0.007042705 -0.034834385 0.020276098 0.0077456455
00000000: 9f7e 8e3b 4493 1c39 e449 4d3c 941e 4bbb
00000010: 2fb1 fcbb 67be 1d3d 465b 503d 235d ed3b
00000020: 5732 52bb 349d 7cba 4178 e8bc 7c25 be3b
00000030: e252 9f3b b32b 69bb d220 353a 8c55 e83c
00000040: 1294 d8bb 4f3b 1abc 4557 e1bc d1ad 143b
00000050: 44d0 00bc 6b06 b438 0286 593c 8ae0 b1bb
00000060: 7068 d93c 4154 a93c b141 103b b989 b3bc
00000070: 0b8a d73c 8008 21bc 0d55 01bc eb47 9dbb
00000080: e762 f8bb 2959 873c ce41 65bc d81a b9bb
00000090: a282 f1bb aa90 7bbb 2db3 ae3b c95b 583c
000000a0: 6927 49bc 498b f33a 5b26 c43b 1502 373c
000000b0: aee8 363c b3e5 953c 1905 9fbc 3b92 abbb
000000c0: c387 fabc 9bd1 963c a926 acbc 87a8 f43b
000000d0: b23f 14bc 5cdc 0d3a 0a36 733b 19c0 543c
000000e0: 3cb4 e93c 6f5e 97bc f911 c3ba 3d1a 183c
000000f0: d7aa 59bc bbb7 a9bc 9bf2 3b3c 6f49 a1bc
00000100: b95f 593c 4232 ab3a e984 36bb 4cb2 80bc
00000110: 956a 433b 066d e1bc 05e7 bcbc 1e0c 243d
00000120: 8aa2 313d 365f 9fbc 79ff 243c 27e5 2fbc
00000130: 80f1 33bd cf8a d0bc 065d b33b 80d6 92ba
00000140: 7e46 293c 6257 1b39 6b78 babc a0cf c2ba
00000150: 8d72 963c c029 673c 09c2 233c 9c79 d63b
00000160: 89d1 033d 8678 7e3a 0074 9ebc 5952 27bd
00000170: 7043 e73b 2a29 403a b4c5 dcbc 801b a2bb
00000180: 96f0 a23b 702e aabc c51d c6bc b2aa afbc
00000190: 1237 2d3d 0906 5dbc a460 ca3c 6ffd b93c
000001a0: cc32 5e3b 04c9 23bd 5da4 8cbb f0b5 e2bc
000001b0: 72a1 d33c f7f0 e53b b8ba 53bc 41b0 c7bc
000001c0: 8cae 6a3c b0ee a8bc 7964 bd3c 82ad 20bc
000001d0: 8f3c d3bb b014 cc3c 5448 943c b40c 603c
000001e0: 79f8 3f3c e6f2 233a 3d10 baba 49a7 87bc
000001f0: 0623 bdb9 fb46 cbbb 86fb bfba 7547 3f3c
00000200: fc20 513c 8fca a93c c173 b7ba 7da1 933b
00000210: 5e86 92bc bfb9 153c c918 4bbc 5200 0e3a
00000220: 8434 853c 1552 36bc b2f5 06bd 3647 893c
00000230: 57d3 c53c f055 a33c a75f 603a 5352 f83b
00000240: 808c 35bc 929a 253d 35a2 813c 5756 a13c
00000250: 258b 463c d4f3 34bc 701b d7ba d4a7 c23c
00000260: dee4 2e3d 22c5 07bd 1d7e f23b c5ff 483c
00000270: 6b6a c43c e030 cc3a 5812 c93c f5d1 dd3c
00000280: 1d8b 38bc 456c b9bb b2a7 853c c54f 45bd
00000290: 7e44 9e3b a1e6 88b9 0f2e a8bc 23b5 eebb
000002a0: 527e 453b 4fc3 d03c ca45 f7bc 49fc d53b
000002b0: 82ab 41bc c006 983a 4e0d 0fba ab31 553b
000002c0: fee9 8eb9 5095 ae3c 6688 593c dc44 633d
000002d0: 60cf c7bc 826a bebb 211a 353b 7d03 d53c
000002e0: 4c7c e63c 840e b2bc 86c5 2b3c 2cad 8abc
000002f0: 1d7f aeba 6442 32bc 2959 3cbb ee82 18bd
00000300: 492c 60bc 0d90 b8bb 3a27 84bc fde3 b63b
00000310: 26c0 5dbb 7b21 80bb 8a98 7cbc 599e 19bc
00000320: 39e5 60bc 580e af3c 3b57 353c 2456 d3bb
00000330: 4629 bc3c efcb c53c d5cb d4bc 22c6 3abc
00000340: 1947 bab9 a592 053b c7c5 abbc 1a8b 1c3d
00000350: 0b42 c2bc f63e 91ba 2a54 623d 2753 bfbc
00000360: 547e c0bc ff6e 93bc 526c 3dbb 67d3 68bc
00000370: ac27 f83b dda0 bf3c 6c6b 583c b8af 263c
00000380: 1f07 883c f9b6 073b 821a 553c e537 503c
00000390: 2726 dc3c 1076 133d c43d 17bc 6449 113c
000003a0: f9df b1bc 1638 8a3c ee2f 80bc 2023 e1bc
000003b0: 7b7e 95bb bcd9 d5bc bd0d 52ba 59e5 063b
000003c0: bb80 533c 81af c43c e6eb 76bc 8b8b 093c
000003d0: 3449 613c 3b7a a5bc d629 1f3c d89f 9b3c
000003e0: 73b2 0abc 014f 62bb ebd5 6b3c b28e eb3b
000003f0: 7ec6 e6bb 80ae 0ebd 0f1a a63c 2fcf fd3b

onnx::MatMul_507 f4 [64, 64]
0.0040639406 2.364976e-06 0.0039839833 -0.0040990408 -0.0016409487 0.007078863 0.0003790539 -0.0012147701
0.009386021 0.0043217908 -0.011120133 -0.0035757625 0.0064846547 -0.0051385304 0.0024559493 -0.0047115297
-0.0067489534 -0.010688882 -0.011555423 -0.010465164 -0.0037934603 0.009035417 0.0024887132 -0.0094776675
-0.0051428713 0.005643223 -0.015014438 0.00059314445 0.0014368425 -0.006951248 -0.009488287 0.011324562
0.006809692 0.009664905 0.0008061496 -0.0050132647 -0.014192429 0.0076166266 -0.00760325 0.0028077203
-0.0113388095 -0.0054723835 0.00639407 0.0046643657 -0.011455125 -0.0065240096 0.0010132471 -0.0082797175
-0.0063326163 -0.0017598051 -0.0035488273 -0.0046624057 -0.00943995 -0.006564331 0.012297328 -0.009770387
-0.00642523 0.005050707 -0.004956032 0.0071419105 -0.010481478 0.003343623 0.0039965604 0.0074426318
0.004939443 0.011650483 -0.0032972312 0.0021330726 -0.003698157 0.010860317 -0.0011031982 0.0072741546
-0.0013011802 0.0057544117 0.014779851 -0.015318684 0.005048709 0.0041150195 0.0015330027 -0.0049682176
-0.006512254 -0.009548124 -0.00011531061 -0.0036833659 -0.010771439 -0.007815189 -0.0035067194 -0.0066619823
0.008393093 0.0063502267 0.0026318545 -0.0010488693 -0.0021443889 0.012675321 0.0106729595 -0.0046675825
-0.0012314104 -0.0015361598 -0.014344679 -0.0037864507 -0.0044628954 -0.0015741684 0.0014251729 0.00019874092
0.0043033734 -0.008430002 -0.007936397 0.00090062397 0.002159525 -0.00010902464 0.0007003618 0.004835428
-0.00044086488 -0.0031130058 -5.066237e-05 0.0019635896 0.016035924 0.009007654 -0.0064392784 -0.0015989093
0.0074948547 -0.008165415 0.00014030335 -0.000618061 0.010442237 -0.0028176669 0.013332993 0.008049937
0.0016823421 -0.0156527 0.0036842183 0.021083064 0.003515986 0.0032314688 -0.0038746074 0.0051918346
-0.0021832397 0.010171153 6.1306775e-05 0.00567514 -0.001924535 -0.006008714 -0.004121015 -0.004201419
-0.009427586 -0.01503906 0.0055861506 0.0010799598 -0.01149376 0.0076395813 0.0005222375 0.0011184633
0.0068094814 0.003423781 0.005765915 0.005972606 0.0021090582 0.0025518795 0.0067885322 -0.009694064
0.0008510897 0.0012868592 0.005766909 0.0061584576 -0.013137167 0.0039772396 0.004023031 0.005024462
-0.0020068174 0.005661613 0.005992393 0.0035181863 -0.0107677085 -0.004158033 -0.002419195 0.006605422
0.002612363 0.0038060113 0.0046959454 0.0064207125 0.0049658404 -0.005542869 0.005371032 0.0007989595
-0.0013198024 0.007968323 -0.0036234234 -0.013654905 0.010167525 0.009148624 0.0010760014 0.007858722
0.0023175238 -0.0018301733 0.0016981985 -0.0019203575 -0.0058276914 -0.0065811314 0.014988589 -0.0018645967
0.0055450555 0.010207742 -0.004974963 -0.010089122 0.002507464 0.0028847624 0.0006130462 0.0074856593
0.011977575 0.008820029 0.005113827 0.0060474677 0.008696986 0.0028432582 0.010833914 -0.0009343853
0.00035777883 -0.004218621 0.008636655 -0.011551846 0.0077626603 0.0015361212 0.00087600335 -0.003104299
0.00540318 0.005863107 -0.0017192957 0.0031907596 0.007365825 0.0019975402 -0.008830986 -0.005163377
-0.005127991 0.004782744 -0.002175872 0.00677877 -0.0059120324 0.0044362773 0.0028888101 -0.0010063344
0.00057465816 -0.004510913 0.0074046133 -0.0001629934 -0.00078321656 -0.0040664133 -0.0043669543 -0.004439423
0.012117138 -0.010174472 0.009968834 -0.0058935517 -0.002392741 0.0019239981 -0.0012124584 0.0123687005
00000000: ce2a 853b fab5 1e36 138c 823b 3f51 86bb
00000010: 1a15 d7ba cff5 e73b c1bb c639 ec38 9fba
00000020: d3c7 193c cf9d 8d3b 3831 36bc 5757 6abb
00000030: 3a7d d43b 1e61 a8bb fef3 203b 2d63 9abb
00000040: 5326 ddbb 6c20 2fbc f552 3dbc 1476 2bbc
00000050: b49b 78bb 4909 143c ae19 233b 3848 1bbc
00000060: 8885 a8bb c9ea b83b 1eff 75bc 407d 1b3a
00000070: 6f54 bc3a 4bc7 e3bb c374 1bbc a88a 393c
00000080: d623 df3b 8d59 1e3c c953 533a 5046 a4bb
00000090: 5d87 68bc e594 f93b af24 f9bb bb01 383b
000000a0: 6ac6 39bc ae51 b3bb 5985 d13b 89d7 983b
000000b0: 47ae 3bbc 5cc7 d5bb eece 843a a7a7 07bc
000000c0: d681 cfbb 43a9 e6ba 7193 68bb 18c7 98bb
000000d0: 05aa 1abc 9919 d7bb bb7a 493c f913 20bc
000000e0: bc8a d2bb 6780 a53b 3666 a2bb b006 ea3b
000000f0: 81ba 2bbc af20 5b3b 94f5 823b 52e1 f33b
00000100: 0ddb a13b abe1 3e3c 5c16 58bb 05cb 0b3b
00000110: c75c 72bb 79ef 313c 3099 90ba 085c ee3b
00000120: 5d8c aaba 818f bc3b 3027 723c 38fb 7abc
00000130: a46f a53b 49d7 863b 09ef c83a 6ecc a2bb
00000140: bf64 d5bb bc6f 1cbc ead2 f1b8 a064 71bb
00000150: b17a 30bc 470b 00bc fdd0 65bb c24c dabb
00000160: 2f83 093c 9015 d03b 317b 2c3b 377a 89ba
00000170: e088 0cbb 26ac 4f3c a3dd 2e3c 85f2 98bb
00000180: 4767 a1ba f858 c9ba f205 6bbc 1a26 78bb
00000190: 7b3d 92bb 5454 ceba decc ba3a 1c65 5039
000001a0: 5003 8d3b fe1d 0abc a907 02bc da17 6c3a
000001b0: d186 0d3b 28a4 e4b8 7c98 373a 8372 9e3b
000001c0: e223 e7b9 9203 4cbb 4e7e 54b8 91af 003b
000001d0: c55d 833c d794 133c 9500 d3bb 7e92 d1ba
000001e0: 6697 f53b 3cc8 05bc 651e 1339 5f05 22ba
000001f0: eb15 2b3c 9ba8 38bb a072 5a3c e2e3 033c
00000200: 0982 dc3a 173a 80bc ed72 713b 64b6 ac3c
00000210: 756c 663b 0dc7 533b 20ed 7dbb 4420 aa3b
00000220: af14 0fbb e8a4 263c d391 8038 86f6 b93b
00000230: ae40 fcba bfe4 c4bb 9409 87bb 0fac 89bb
00000240: 2976 1abc 6466 76bc 070c b73b 708d 8d3a
00000250: 5350 3cbc 7455 fa3b c4e6 083a 6799 923a
00000260: 1222 df3b 8361 603b 00f0 bc3b dab5 c33b
00000270: 2038 0a3b 6f3d 273b 5672 de3b dad3 1ebc
00000280: aa1b 5f3a d4ab a83a 57f8 bc3b e3cc c93b
00000290: 463d 57bc 8153 823b a1d3 833b 3ea4 a43b
000002a0: cf84 03bb 0d85 b93b d65b c43b 5f91 663b
000002b0: 0b6b 30bc 1c40 88bb 5b8b 1ebb 4c72 d83b
000002c0: 2e34 2b3b 466e 793b 72e0 993b d764 d23b
000002d0: 7db8 a23b f5a0 b5bb 7bff af3b 4471 513a
000002e0: 38fd acba 928d 023c f576 6dbb d3b8 5fbc
000002f0: b195 263c 1ce4 153c 9e08 8d3a dec1 003c
00000300: 99e1 173b 6de2 efba 1696 de3a 81b4 fbba
00000310: 38f6 bebb 88a6 d7bb b392 753c 7c65 f4ba
00000320: 4cb3 b53b 603e 273c 0405 a3bb d84c 25bc
00000330: 4454 243b 480e 3d3b d6b4 203a 434a f53b
00000340: 973d 443c e281 103c e491 a73b d629 c63b
00000350: ce7d 0e3c f555 3a3b bb80 313c 89f1 74ba
00000360: 4394 bb39 5c3c 8abb c280 0d3c f443 3dbc
00000370: ea5d fe3b ad57 c93a 97a3 653a 7f71 4bbb
00000380: 290d b13b 4e1f c03b fe59 e1ba 101c 513b
00000390: 055d f13b 2ae9 023b d7af 10bc 8c31 a9bb
000003a0: b508 a8bb 91b8 9c3b 1399 0ebb 7220 de3b
000003b0: b9b9 c1bb 315e 913b 3152 3d3b fbe6 83ba
000003c0: a8a4 163a 48d0 93bb 66a2 f23b 35e9 2ab9
000003d0: c650 4dba 8c3f 85bb ab18 8fbb 9478 91bb
000003e0: f686 463c d4b2 26bc 5254 233c b21e c1bb
000003f0: 88cf 1cbb aa2e fc3a 5aeb 9eba 17a6 4a3c

onnx::MatMul_508 f4 [64, 256]
-0.019613381 -0.009043449 -0.0024610343 0.03207768 -0.035479184 0.015530963 -0.008917357 -0.01273742
0.013835678 0.009573084 0.019777518 -0.018395312 -0.036488228 0.017315058 -0.02726515 -0.0024459737
0.0094312355 -0.018925698 -0.03746467 0.0025277266 0.041058403 0.01682137 -0.016731951 0.022903362
-0.033446692 0.014171521 0.017763758 -0.0029962999 0.028028263 0.0015379968 -0.0018766236 0.017239757
0.00024223987 -0.01630913 0.015895471 -0.0028033324 0.0025993462 -0.012482792 -0.0056875744 -0.017077154
0.0120995855 0.0125053935 -0.0274116 0.0059070312 0.03884477 -0.0007523969 0.011149922 -0.029670248
-0.011195157 0.002674074 0.006300775 -0.013478782 0.0010931467 -0.0289596 0.0014247034 1.3916841e-05
0.017421396 -0.0075106486 -0.018948069 0.00032101138 -0.02218905 -0.0028415348 -0.0011775809 -0.04731738
0.0023075368 -0.0410424 -0.02892131 0.032888453 0.043386307 0.0022403991 -0.018102994 -0.009089937
0.017562462 0.03586443 0.014655741 -0.023531687 0.0013179012 0.027562393 -0.00657689 0.02348161
-0.030836321 -0.0505967 -0.00921544 -0.0067002797 0.0033463878 -0.0019198712 -0.01323175 0.0056036743
-0.015107451 0.010344976 0.019635124 -0.00965288 0.020583685 -0.008525894 0.0061948216 0.004597193
-0.018763658 0.020151839 0.0017787007 0.029560728 0.012379132 -0.023957921 -0.0045821797 0.0022699798
-0.014517112 0.008830249 -0.0005626173 -0.012342036 -0.0032356961 0.0075754914 0.012903019 0.005418601
0.024593089 0.014919435 -0.020467462 -0.026881255 0.03623306 -0.0006675005 0.015094627 -0.00041252727
-0.0015678318 -0.027605623 0.0016716913 -0.04016337 0.0021683057 -0.024731047 -0.01636212 -0.0027927672
0.022193538 -0.011501326 0.0090940315 -0.038720153 0.005354273 0.0025784234 -0.010839541 -0.03594469
-0.02543772 0.028689668 -0.0005563275 0.0024710223 0.030162517 0.018970605 0.008879598 0.0018103189
0.0059160236 -0.018550538 0.0038978513 0.010158396 -0.016223522 -0.029046666 0.010012015 0.017196262
-0.011338804 0.020564992 -0.03760498 0.015533311 -0.010113839 0.029545775 -0.00075226737 -0.022574488
-0.02777195 0.03432881 0.014288465 -0.010103213 0.010971594 -0.020053672 0.031023657 -0.005023311
-0.035234075 0.004526117 -0.019142015 -0.014392595 -0.030311491 -0.0047920826 -0.0005302034 0.028061673
-0.030007081 0.021867542 0.0076478818 -0.03264779 0.009067117 0.021237513 0.014721044 -0.031509135
0.011335931 -0.020363495 -0.012964879 0.031698223 0.012010444 0.02822442 -0.010827525 0.02114974
-0.000659561 -0.0102681685 0.004819687 0.02466921 -0.0073770615 -0.022023115 0.024620103 -0.020113353
0.0078117168 -0.021801185 -0.026997779 -0.010427088 -0.025684852 0.015363674 -0.0028372644 -0.024655875
0.033851314 0.013357308 0.018896801 0.01956907 0.012641444 0.034802955 -0.0046439893 -0.0015557748
0.021894777 -0.027684662 0.023925692 -0.013522587 -0.021553919 0.027365519 0.027943479 -0.026951587
0.03193908 -0.03492299 -0.009300735 -0.0061848895 -0.04572216 -0.014668644 0.01865713 0.0010612687
0.010675333 0.042921185 -0.0033768688 0.007834617 -0.010098383 0.0037912272 -0.027486043 0.023402883
-0.027189506 0.0015123603 0.0038105468 -0.017792476 -0.022517728 -0.03260147 0.05059345 0.0042003943
0.006165563 0.009825766 -0.015765708 -0.04634777 -0.0060453145 -0.0066913273 0.006230105 -0.028567493
00000000: 3eac a0bc f92a 14bc 4e49 21bb e363 033d
00000010: 9f52 11bd 9575 7e3c 1b1a 12bc 9db0 50bc
00000020: 0aaf 623c 6dd8 1c3c 7604 a23c c4b1 96bc
00000030: ae74 15bd 4fd8 8d3c 2a5b dfbc a14c 20bb
00000040: 7885 1a3c 110a 9bbc 8e74 19bd 37a8 253b
00000050: db2c 283d f8cc 893c 7211 89bc d59f bb3c
00000060: 66ff 08bd ab2f 683c 4d85 913c 925d 44bb
00000070: 879b e53c 9c96 c93a 0af9 f5ba 643a 8d3c
00000080: c501 7e39 b99a 85bc 3837 823c 1db8 37bb
00000090: cb59 2a3b a084 4cbc d55e babb 63e5 8bbc
000000a0: 573d 463c 6ce3 4c3c 4b8e e0bc c58f c13b
000000b0: b21b 1f3d 803c 45ba 2aae 363c 050f f3bc
000000c0: e46b 37bc 843f 2f3b bb76 ce3b 1cd6 5cbc
000000d0: eb47 8f3a af3c edbc 1dbd ba3a 617c 6937
000000e0: 51b7 8e3c e31b f6bb fb38 9bbc 6b4d a839
000000f0: d0c5 b5bc 0b39 3abb 0f59 9aba decf 41bd
00000100: 0b3a 173b 131c 28bd 62ec ecbc 0bb6 063d
00000110: d7b5 313d a9d3 123b bb4c 94bc f6ed 14bc
00000120: 27df 8f3c 95e6 123d a21e 703c 86c5 c0bc
00000130: 6dbd ac3a 87ca e13c f482 d7bb 815c c03c
00000140: 749c fcbc 7c3e 4fbd 5bfc 16bc 058e dbbb
00000150: 124f 5b3b 30a4 fbba fbc9 58bc 079f b73b
00000160: 3e85 77bc f97d 293c d7d9 a03c 1d27 1ebc
00000170: 1e9f a83c 31b0 0bbc eefd ca3b 0da4 963b
00000180: 3eb6 99bc 7815 a53c 4b23 e93a 5729 f23c
00000190: d8d1 4a3c 6743 c4bc 1c26 96bb f1c3 143b
000001a0: 2ed9 6dbc c0ac 103c 9c7c 13ba 4036 4abc
000001b0: f90d 54bb d43b f83b 2f67 533c 858e b13b
000001c0: 7277 c93c a570 743c 61ab a7bc 1436 dcbc
000001d0: 1e69 143d 33fb 2eba 744f 773c 7948 d8b9
000001e0: b57f cdba 3025 e2bc a71c db3a 5982 24bd
000001f0: 221a 0e3b c498 cabc da09 86bc dc06 37bb
00000200: 39cf b53c 0f70 3cbc 22ff 143c 0699 1ebd
00000210: e672 af3b c4fa 283b 5598 31bc bd3a 13bd
00000220: c462 d0bc 9806 eb3c 82d6 11ba e0f0 213b
00000230: 6217 f73c 3e68 9b3c bc7b 113c 3948 ed3a
00000240: 34db c13b 4cf7 97bc 1873 7f3b 676f 263c
00000250: 31e7 84bc 46f3 edbc 6f09 243c 2ddf 8c3c
00000260: 64c6 39bc ea77 a83c ae07 1abd 6e7f 7e3c
00000270: 84b4 25bc fb09 f23c cf33 45ba 22ee b8bc
00000280: 0082 e3bc 5e9c 0c3d 2a1a 6a3c f287 25bc
00000290: 33c2 333c 9947 a4bc 5325 fe3c 969a a4bb
000002a0: 9b51 10bd d24f 943b b7cf 9cbc ebce 6bbc
000002b0: ce4f f8bc e706 9dbb 59fd 0aba 98e1 e53c
000002c0: 69d1 f5bc 8f23 b33c 159b fa3b b0b9 05bd
000002d0: 3f8e 143c 4bfa ad3c 8930 713c b90f 01bd
000002e0: 57ba 393c 58d1 a6bc a56a 54bc ffd5 013d
000002f0: 74c7 443c e636 e73c ee65 31bc 3842 ad3c
00000300: 64e6 2cba d23b 28bc 77ee 9d3b 1517 ca3c
00000310: 47bb f1bb d269 b4bc 19b0 c93c c2c4 a4bc
00000320: 6ef9 ff3b 6698 b2bc 722a ddbc 60d6 2abc
00000330: 0a69 d2bc ebb7 7b3c 66f1 39bb 1efb c9bc
00000340: ada7 0a3d 9cd8 5a3c 77cd 9a3c 504f a03c
00000350: 0f1e 4f3c 8b8d 0e3d 9b2c 98bb 24eb cbba
00000360: ad5c b33c f2ca e2bc d0ff c33c d78d 5dbc
00000370: d891 b0bc a72d e03c b9e9 e43c 93c9 dcbc
00000380: 8ed2 023d 690b 0fbd 1c62 18bc 9daa cabb
00000390: 2947 3bbd c154 70bc d6d6 983c 451a 8b3a
000003a0: 98e7 2e3c 20ce 2f3d 754e 5dbb c45c 003c
000003b0: b073 25bc 3d76 783b 692a e1bc 67b7 bf3c
000003c0: 87bc debc 643a c63a 5eba 793b 87c1 91bc
000003d0: 1977 b8bc 1e89 05bd 143b 4f3d 76a3 893b
000003e0: 7e08 ca3b 40fc 203c 1627 81bc 29d7 3dbd
000003f0: c617 c6bb ec42 dbbb e925 cc3b 6006 eabc

onnx::MatMul_509 f4 [256, 64]
0.0056221276 -0.005624028 0.0008367934 0.007673046 0.002641505 0.002211891 0.00038259212 0.0059635807
0.0044523943 0.00029926441 -0.0011570958 0.0021112084 0.010970181 -3.9427217e-05 -0.0050822934 -0.010249335
0.003698809 0.006683036 -0.007992173 0.0038662807 -0.003523361 -0.0059880293 -0.0010358577 0.008306693
0.0062233945 0.0045879856 -0.005327204 0.00027016853 -0.009669666 0.00017668019 0.003919922 0.009301979
-0.003899578 0.005542625 0.00036791075 0.0033697542 0.010672762 -0.001885861 0.0016362792 0.0014153076
-0.015190018 -0.023948945 0.012235742 0.00010169477 -0.008777173 -0.008726254 0.0010051585 0.0097057875
0.0054037846 -0.003499105 0.015720323 -0.00065743295 -0.00044919542 -0.009845121 0.0064883525 -0.0056615737
0.0019951505 -0.015040566 0.01096986 0.0039426205 0.006717622 -0.0026552423 -0.0100404825 -0.0014574879
-0.00036392937 0.0016400623 -0.0018507184 -0.005106581 -0.0011754292 0.0047518695 0.0062224856 -0.0005874436
0.00957392 -0.00027661212 -0.0018269516 0.009989476 -0.0029291036 0.010564016 -0.0040417416 -0.004186421
0.008843868 0.009412435 0.0108460765 -0.0077782236 0.0022240034 -0.004143201 0.0011822132 -0.00042960147
0.00044495927 -0.0021572525 0.0022781505 -0.0004346455 -0.0067927963 -0.0056514554 0.003545268 -0.0036925985
0.0026613206 0.009982201 0.011890639 0.002211289 -0.0023889828 -0.008149627 -0.0044025937 0.003617141
0.0026023218 -0.008017721 0.009052298 0.0009753515 0.009222638 0.007312015 0.0040605906 -0.013923231
-0.006414821 0.0025352077 -0.0008277314 0.00641366 -0.017991083 0.0029479712 0.0041647055 -0.007939164
0.005499426 0.00046156425 0.007684829 -0.0068957536 -0.0060225776 0.0015601951 -4.234276e-05 -0.005677639
0.0031201101 0.0020468645 -0.006598433 -0.00018817402 -0.0003204965 -0.006500677 -0.00452302 -0.009954622
-0.0024468773 0.01150384 -0.015016805 -0.00424404 -0.014154894 -0.0027543867 -0.0096448865 0.005375813
-0.0033352843 0.0057026255 0.009701468 -2.0586514e-05 0.0031652006 -0.013111016 0.007443687 0.0014952896
-0.006693038 -0.0002873846 0.009445494 0.0018136646 -0.0044337194 -0.0048482716 -0.010676956 -0.00027647702
-0.009562563 0.0036899094 -0.009797282 -0.007504794 0.001747191 -0.0018235807 -0.005475308 0.011923291
0.0023431242 -0.006398778 0.0010396346 0.007263024 0.009752694 -0.0019235776 0.0046049105 -0.0056695095
0.0027804119 0.00059216085 -0.0020920958 -0.0031543016 -0.0005200186 0.0023052366 0.0028640893 0.009459717
0.004008447 0.001356882 -3.5888617e-05 -0.007110465 0.0051522637 -0.011016988 -0.0026040643 -0.0063248267
0.0039076624 9.369072e-05 0.0017958999 0.008913614 0.003727138 0.010997228 -0.0041409307 -0.010137677
-0.0039239544 -0.0045515923 -0.009035597 -0.005721983 0.01039294 0.0025979101 0.001176856 -0.011246652
-0.0147027355 -0.0010280379 -0.0015058952 0.003973573 0.012033219 0.010936852 -0.0037360096 -0.0059095277
0.0006507413 -0.011017705 0.00035252064 0.0012485732 0.0075166416 -0.0030045945 0.009545004 -0.011810424
1.3350399e-05 -0.01072832 -0.001791014 -0.010876883 0.0044590933 0.010433941 0.00044996158 -0.0026002745
-0.0050555305 0.0027492275 -0.00063490996 0.0010268155 0.0068104067 -0.007205069 0.0030721077 0.0013212203
0.002435689 -0.004729145 0.002706952 0.0012970535 -0.0058197365 0.0004953368 0.00033863564 0.0067327567
0.0018862038 0.013165687 -0.0064243358 -0.003063117 0.0054696565 0.0019743328 0.0074770604 0.0071105775
00000000: d339 b83b c449 b8bb 415c 5b3a 2d6e fb3b
00000010: 1a1d 2d3b 60f5 103b a596 c839 246a c33b
00000020: 64e5 913b 97e6 9c39 b1a9 97ba 335c 0a3b
00000030: 46bc 333c a75e 25b8 5e89 a6bb d4ec 27bc
00000040: b867 723b 5ffd da3b 9af1 02bc 6d61 7d3b
00000050: 30e8 66bb 3b37 c4bb 9ec5 87ba cc18 083c
00000060: 9eed cb3b d056 963b d38f aebb 68a5 8d39
00000070: 856d 1ebc 3a43 3939 b072 803b 5467 183c
00000080: 1090 7fbb e99e b53b 25e4 c039 18d7 5c3b
00000090: cfdc 2e3c ff2e f7ba 6b78 d63a d881 b93a
000000a0: 8edf 78bc 9430 c4bc 6c78 483c f744 d538
000000b0: 22ce 0fbc 90f8 0ebc 86bf 833a 0605 1f3c
000000c0: 3b12 b13b 3e51 65bb e8c7 803c 9457 2cba
000000d0: fd81 ebb9 6e4d 21bc 3f9c d43b b984 b9bb
000000e0: 12c1 023b b56c 76bc edba 333c 1931 813b
000000f0: 7f1f dc3b 9303 2ebb d680 24bc 2e09 bfba
00000100: c6cd beb9 5cf7 d63a ce93 f2ba 1b55 a7bb
00000110: dc10 9aba 92b5 9b3b fee5 cb3b acfe 19ba
00000120: eedb 1c3c 4006 91b9 5376 efba e6aa 233c
00000130: 34f6 3fbb b214 2d3c 9670 84bb 3f2e 89bb
00000140: dfe5 103c 9d36 1a3c beb3 313c 78e0 febb
00000150: 96c0 113b b0c3 87bb 7ef4 9a3a 223c e1b9
00000160: 6c49 e939 b160 0dbb 064d 153b 22e1 e3b9
00000170: 1b96 debb d82f b9bb ba57 683b 86ff 71bb
00000180: 8d69 2e3b 638c 233c f4d0 423c 46eb 103b
00000190: 7b90 1cbb 0386 05bc a243 90bb 8e0d 6d3b
000001a0: b78b 2a3b c25c 03bc 1750 143c bbae 7f3a
000001b0: 8c1a 173c a199 ef3b b40e 853b 431e 64bc
000001c0: 6b33 d2bb ba25 263b 1dfc 58ba ae29 d23b
000001d0: 0962 93bc c032 413b 1578 883b 4413 02bc
000001e0: 8734 b43b 1bfe f139 05d1 fb3b c6f5 e1bb
000001f0: 0b59 c5bb 767f cc3a 3199 31b8 7d0b babb
00000200: c37a 4c3b b024 063b ab37 d8bb 9450 45b9
00000210: 5008 a8b9 a203 d5bb d735 94bb b618 23bc
00000220: ca5b 20bb 9a7a 3c3c 0c09 76bc 9711 8bbb
00000230: eee9 67bc f182 34bb 9605 1ebc 9727 b03b
00000240: c994 5abb 17dd ba3b e8f2 1e3c 34b1 acb7
00000250: 416f 4f3b 96cf 56bc 2cea f33b 98fd c33a
00000260: 4651 dbbb 1cac 96b9 46c1 1a3c 7cb8 ed3a
00000270: bc48 91bb 40de 9ebb 66ee 2ebc 1ef4 90b9
00000280: 4cac 1cbc 68d2 713b c784 20bc c6ea f5bb
00000290: 0002 e53a 3705 efba 366a b3bb e859 433c
000002a0: 1a8f 193b d7ac d1bb 5944 883a a9fe ed3b
000002b0: c3c9 1f3c 8e20 fcba cae4 963b 4bc7 b9bb
000002c0: 9237 363b 3e3b 1b3a 8b1b 09bb 66b8 4ebb
000002d0: dc51 08ba 7413 173b 72b3 3b3b eefc 1a3c
000002e0: 4a59 833b 68d9 b13a 1c87 16b8 e7fe e8bb
000002f0: 52d4 a83b 9980 34bc f3a8 2abb 7e40 cfbb
00000300: d90b 803b d37b c438 6764 eb3a 680a 123c
00000310: 0043 743b b82d 343c a5b0 87bb 8018 26bc
00000320: 8494 80bb 8625 95bb 0a0a 14bc 797f bbbb
00000330: 2647 2a3c b341 2a3b bc40 9a3a e143 38bc
00000340: bee3 70bc 3abf 86ba 7561 c5ba bf34 823b
00000350: fb26 453c 7b30 333c d7d7 74bb b6a4 c1bb
00000360: 8296 2a3a 9b83 34bc 85d2 b839 2aa7 a33a
00000370: 294e f63b bbe8 44bb a662 1c3c 8280 41bc
00000380: 87fb 5f37 d6c5 2fbc 75c0 eaba f434 32bc
00000390: 961d 923b 1ff3 2a3c d2e8 eb39 5e69 2abb
000003a0: dda8 a5bb 622c 343b 1670 26ba 3696 863a
000003b0: d529 df3b 8018 ecbb 6a55 493b cc2c ad3a
000003c0: 15a0 1f3b f2f6 9abb 1e67 313b e501 aa3a
000003d0: 7db3 bebb 7dd9 013a e88a b139 759e dc3b
000003e0: 7f3a f73a e5b4 573c 3c83 d2bb 93be 48bb
000003f0: ce3a b33b cf63 013b 2102 f53b d9ff e83b
