examples/onnx/nanoGPT/network.onnx (onnx, 899643 bytes, 21 tensors)

transformer.wte.weight f4 [65, 64]
00000000: ec06 78ba dd53 bebc c4f4 dc3b 85f2 bdbc
00000010: a1f5 e6bc 2683 a93b f33d 263c 5565 3f3c
00000020: 7c60 3a3b b9c1 22bd 7d98 0b3d fa4a 0cbc
00000030: b909 82bc 7b2f e8bc 17cd 953c 61e8 00bc
00000040: 67bc 013d bc51 793c 5350 013c 376f 53bc
00000050: 17bf 14bc a29d f43c 9c81 efba 7cf8 413c
00000060: e9d1 a93b 7bbd 863b 70f9 4f3b defc 213c
00000070: ed3c bc3a e644 03bd 7d13 5c3d 1f70 05bd
00000080: a54b 4eba 9818 8eba ce77 8f3b fc7f 67bc
00000090: 6ee8 203d fec4 2abc a2b0 603c a0b1 a6bc
000000a0: 4f31 62bc a912 c1bb 6257 48bb 2531 a1bb
000000b0: d9fd b63c 0e28 1e3d 18ae 0dbb 90af 59bd
000000c0: 4a3f 1c3c 9d8c 40bc 4037 3abd 35c7 bebb
000000d0: d216 25bc d3e6 4e3d d3b7 a63c 67e1 cb3b
000000e0: 3b52 a23c 5bdc f2bb 49c4 07bc e778 133d
000000f0: f08f b53c 81a3 d03c 8f6f 61bc be61 5abc
00000100: b416 43bc a9f8 913b 2b93 2a3d fb24 f5bc
00000110: 41c5 f6bc af26 27bb 2cf5 79bd 2fda 0fba
00000120: e1cb 60bc d30b 3ebc 7887 5bbc a728 11bc
00000130: 2e05 c73c 8f94 d6bc 5b34 b93b d7cc 8b3c
00000140: b85a cd3c 7b9b bbbb 9938 063d 8117 80bc
00000150: c27f 33bc 3da9 46bc bbdf a93c 7ddc df3c
00000160: eb43 203c 6945 dfbb 8000 ec3c fa76 8c3b
00000170: d0cb 14bc 69cb f03b 6978 8f3c 09ca 3bbc
00000180: ef8c 003c 09f8 35bc 91d0 8d3b cacc 91ba
00000190: 755d c3b9 691f 973c 12a0 a2ba c09b 40bc
000001a0: 8227 bd3c 9d76 963c cafe 6c3c e617 13bd
000001b0: af8f fcbc 3dc8 913c f76b 473b 7723 89bd
000001c0: 3d9d c8ba e42c c8b8 8cde eb3c edfc 1b3d
000001d0: bdd8 a23b 36d3 0f3c 5e67 e9bc cabd 103c
000001e0: b205 a13b 4af3 933c 38b4 733c b5a4 36bb
000001f0: 7e03 2cbc 9c2c 0abc 69c0 cfbb b0cf 26bc
00000200: 19e1 03bc 84e4 b13c 89a7 aebc 1dc9 c5bc
00000210: 70b2 be3b fbab 95bc 6f82 323d 7364 2a3c
00000220: 7834 c53b 2bbd c3bc b4ac 183d 0e10 f6ba
00000230: 17c6 b13c ec0c 9139 d821 513d 90fb 9eb8
00000240: 1b44 273d e51b 653b 86f0 73bc fdb5 3abc
00000250: d821 fcba 4297 50bc 149d d43b 42af e83c
00000260: 76ac 1a3d ddfa b73c 06e6 19bd d279 903b
00000270: 6a94 c13b 4c0a e2bb d665 a7bb 8ee6 173d
00000280: f295 2dbb c57a d5bc 20bd 353d 5bdf a33b
00000290: 0b56 133d 2720 b83b 5217 10bd 3282 f3bb
000002a0: 674a 5eba 85fc c6bc a714 2a3b e9a2 393c
000002b0: 94c3 a3bc 7c4f b43b 200a 35bc 2f59 cb3b
000002c0: 2642 053d 7d6e 93bc b7bd 9b3c ebcf 0c3a
000002d0: 6a4a 013c 42d0 e7bc 5955 843c 520e 1dbd
000002e0: 6057 343b 8723 f3bc 6c87 67ba b39b 703c
000002f0: 3e12 c0bc 5903 e83b 6576 3f3c 36ca 9a3c
00000300: f888 d43c a4fb 99bc 9704 4abb 0a1f 9b3c
00000310: ecbf 63bb ebde 063d 6b3b 7abc fa41 8fbb
00000320: b080 c7bc b00f 64bc 7978 b9bb 78d0 1ebc
00000330: 15dc ca3c cd1b bebc 9ac4 823c 1ce1 a53b
00000340: c9f1 d63c 7dc6 673b 2635 cebc 20a9 d53c
00000350: a66e 763b f6ce 913c 801a 9aba a144 453c
00000360: 6ad7 3ebb 6601 453c 2f73 70bc c7d7 903b
00000370: ef68 afbc bdda f0bb 49ea 3f3a ab38 a2bc
00000380: 9972 113c 4b80 9b3c b84c 02bd 3262 233d
00000390: 87a6 79bc df91 06bc 4662 d53a c144 61bc
000003a0: bca6 94bc d5b0 45bb f965 9d3b 375d 483b
000003b0: ad4e 0b3c ce3b fa3c 5a78 9fba 1c7b 4b3c
000003c0: 2742 483c 25d6 a53c 62ff 823a 211e 7bbc
000003d0: 6a53 ffbb 8d39 403a 2ad9 49bc 14c1 713c
000003e0: 24e4 0bbc c76b 13bd 1ac7 a33a 1cae 2f3b
000003f0: 2e0f 03bc 0bbf 3039 2152 a9bb 4fc6 d53c
-0.00094614807 -0.023233349 0.0067430455 -0.023186931 -0.028193297 0.005173105 0.010146606 0.011681874
0.0028438857 -0.03973553 0.03408097 -0.008562798 -0.015873777 -0.028342953 0.018286271 -0.007867903
0.031673815 0.015217241 0.007892686 -0.012904934 -0.0090787625 0.029860321 -0.001827288 0.011839028
0.005182494 0.0041119433 0.003173437 0.009886948 0.0014361419 -0.03204813 0.053729523 -0.03257763
-0.0007869548 -0.001084107 0.0043782955 -0.014129635 0.039284162 -0.010422943 0.013713988 -0.02034837
-0.013805701 -0.005892117 -0.0030569662 -0.0049191886 0.02233784 0.038612418 -0.002161866 -0.053145945
0.009536574 -0.011752275 -0.045462847 -0.005822087 -0.010076242 0.0505131 0.020351326 0.0062219384
0.019814601 -0.0074115223 -0.008286544 0.036003973 0.022163361 0.02546859 -0.013759508 -0.013328968
-0.011907268 0.0044546914 0.041644257 -0.02992486 -0.030123355 -0.0025505235 -0.06102483 -0.0005487529
-0.0137204835 -0.011599499 -0.0133989975 -0.00885979 0.024294462 -0.026193885 0.005651993 0.017065449
0.025067672 -0.005725322 0.03276882 -0.015636208 -0.010955753 -0.0121253105 0.020736566 0.027326817
0.009781818 -0.0068136943 0.028808832 0.004286644 -0.009081796 0.007348467 0.01751347 -0.011461743
0.007846101 -0.0111064995 0.0043278416 -0.0011123654 -0.0003726293 0.018447595 -0.0012407324 -0.011755884
0.023090128 0.018367106 0.014465043 -0.035911463 -0.030830232 0.017795676 0.0030429342 -0.066962175
-0.001530565 -9.545105e-05 0.028792642 0.038083006 0.004969685 0.008778384 -0.028491672 0.008834312
0.004914009 0.018060345 0.0148745105 -0.002786917 -0.0104988795 -0.008433487 -0.0063400757 -0.0101813525
-0.008049273 0.02171541 -0.021320121 -0.02414375 0.0058196113 -0.018270483 0.043581422 0.0103999255
0.0060182177 -0.023893913 0.037274078 -0.0018773095 0.021700902 0.00027666183 0.051057667 -7.580884e-05
0.040836435 0.0034959253 -0.014888888 -0.011395928 -0.001923616 -0.012731375 0.0064884517 0.028403882
0.037762128 0.022458488 -0.037572883 0.0044090534 0.005907585 -0.0068982 -0.0051085753 0.03708511
-0.002648708 -0.026059518 0.044369817 0.0050009913 0.03597073 0.0056190672 -0.03517849 -0.007431292
-0.0008479715 -0.024290333 0.002595225 0.011330345 -0.01999072 0.0055026393 -0.011049777 0.0062057
0.032533787 -0.01799702 0.019011362 0.00053715584 0.007891277 -0.028297547 0.016153978 -0.038343735
0.00275179 -0.029680027 -0.000883213 0.014685559 -0.023446199 0.007080477 0.011685942 0.01889525
0.025944218 -0.01879675 -0.003082549 0.018935699 -0.0034751846 0.032927435 -0.015272955 -0.0043718787
-0.024353355 -0.013919756 -0.0056601134 -0.0096932575 0.024763146 -0.023206616 0.015962888 0.0050622355
0.026238339 0.003536611 -0.025171828 0.026081622 0.0037602573 0.017798882 -0.0011757165 0.012040288
-0.0029120096 0.012024259 -0.014675899 0.004420254 -0.02141234 -0.0073502944 0.0007320983 -0.019802412
0.00887742 0.018982073 -0.031811446 0.03988857 -0.015237457 -0.008213489 0.0016279898 -0.013749302
-0.018145911 -0.0030165215 0.004803416 0.0030573139 0.0085026445 0.030546095 -0.0012166605 0.012419488
0.012222803 0.020243714 0.0009994323 -0.0153270075 -0.007791926 0.00073327945 -0.012319842 0.014755506
-0.00853828 -0.035991456 0.001249525 0.0026806658 -0.007999225 0.00016855837 -0.005167261 0.026095537

transformer.wpe.weight f4 [64, 64]
00000000: 8b57 78bc 004a f9bc 0b6f 41bc ae0c ab3c
00000010: 82c5 133d 5732 ea3b d24c a73c a4b2 babc
00000020: 1009 5abc e03a de3c cb37 2d3d 2706 f23b
00000030: 3e74 d23a 10b0 903c fd21 01bd 1abb 8cbc
00000040: 35bb 87bc dc55 98bc b5fa edbc 7457 38bc
00000050: 8c97 d0bc ce30 a4bc 0b7b 84bb db95 8cbb
00000060: ccd1 e93b 9025 7cbc 12da 78bc f361 e1bc
00000070: bd9a 7d3b b918 cd3b 4696 debc edf6 9abb
00000080: a42b 2d3a 16cb 1ebb 060d 63bc be2f ab3c
00000090: 5c30 46bd e280 6c3c b7ed 6ebc 6d28 34bc
000000a0: 0dc6 0a3a d8a9 bfbc 60ac fb3a fd37 f23b
000000b0: a50e 473c 3b68 9b3b c06d d73c fb81 e53c
000000c0: def7 003c d443 21bc 34d3 7fbc 1898 df3c
000000d0: 593d fdba aa92 413c fb0b 71bc 549b 8bbb
000000e0: 4349 8cbc 05d6 323d d198 223c c0e1 a5bc
000000f0: c732 8ab9 db84 babb f0fb 39bb ade0 393c
00000100: 7717 6dbb e6ea b63c 4f75 33bb 5005 a6bc
00000110: b986 2b3c 5e3e e13c 412b b7bc 84d0 883b
00000120: cbfe d03c a222 31bc 0eec 633c cbb2 38bc
00000130: e62c d9bc 98f6 adbc 5da2 8d3c 7b2f 7ebc
00000140: cd49 2d3c 872d 92bb 2a47 be3c 6dc1 183c
00000150: 2686 f53b d86f c0bb cbe8 95ba 6271 4ebc
00000160: 58fb a7bc 77da 09bd 9df8 9cbb d679 8e3c
00000170: 1bb0 7439 4a33 773b 5eb8 f1bb 30ac 893c
00000180: 7d17 ae3c 3df7 a73c 5048 0cbc 1bfa e13c
00000190: 742e 5f3b 8cf8 d5bc d4e0 e0bc 60f9 4a3c
000001a0: 554e 5a3c 529b 82bb c6a6 2dbd 1fc9 0a3c
000001b0: 0929 463b 9d2e ccba c92f 863c 82a8 7f39
000001c0: c0cd f03a e6d1 b5bc 9b46 993c 88ac 853c
000001d0: 10b6 c73c a5d0 83bc 5d3b 3dbc c967 23bc
000001e0: a05b af3b 3719 46bc 8ebe 163d 5099 9e3a
000001f0: 46f5 29bd 3598 b5bb ff65 9dbc fb79 55bc
00000200: 108e d63b 4686 bd3b 3682 2cbc 1205 0dbc
00000210: bd06 f6bb 6e07 49ba 6f39 aabc ee5b 73bb
00000220: 56dc 15bd 7aee 9d3c d027 cbbc c693 bcbc
00000230: dd76 7ebc 5507 203d 36c5 97bc eaf3 4f3d
00000240: abf9 823c 0bfa 0a3c 8ec0 e33c 14f6 943c
00000250: 698b 2f3d c182 cdbb c6df 1cbd 5bac 0f3c
00000260: fc4e b83c 16c5 a1bc 3736 2f3c f23f e13c
00000270: edb0 b23c abc2 843c 8e31 1e3c 1deb 35bc
00000280: ee89 193b bcae fdbc aebe 4c3c 0b12 52bc
00000290: 1d35 6a3d 85c1 413b 3ee4 c9bc 7f21 823c
000002a0: 9054 cd3c e137 b4bc e5a1 083c 648a 2cbd
000002b0: b86c 83bb d3bf e23c 45a0 6e3c 3668 063d
000002c0: 8156 94bc 6f61 163d b9af 66bd 9df0 c5bc
000002d0: e8b9 98bb 34f0 993c 6040 953c 5799 4fbb
000002e0: 67b9 92bc 01c5 eabc fb4f a43c 2998 6fbc
000002f0: 2507 fa3b 053d 63bb fad4 163d cd2c 123c
00000300: 36da 803a 1e85 50bc f092 40ba 8177 e9bc
00000310: c812 87bc 57ad 733c 92aa b13b 3cbd debc
00000320: 286c a1bc c645 813c a9a2 003c 7e83 9d3a
00000330: ae09 053c 4989 4bb7 4d64 16bc 7944 21bc
00000340: 40a1 dd3c c6a4 4cbb c274 953c 1944 09bd
00000350: 2257 993c 8129 3fba 8269 49bc e5c5 27bc
00000360: 981c 64bb 5896 79bb e476 0f3c 3342 683c
00000370: ca44 d23c 6ce8 103d a269 85bb ae42 33bd
00000380: 215d 90bc b74b 45bc c0d0 9a3a 99c8 f53b
00000390: ebca 623c 144c 8bba f427 82bc c64a 003b
000003a0: a5c2 963b a03f 6fbc eb51 f23c 473e babc
000003b0: 8e69 3a3d ac18 64bc 8b8a 19bc 900b 043d
000003c0: 9ed9 cdbb 8025 8fbb a1ef 07bd c506 253d
000003d0: ae96 62bc 9bf1 8ebb 32cf 4cbc 5e94 29ba
000003e0: b94a 5b3c 8b23 c73b 3c0a ddbb 0287 ce39
000003f0: 2faf d5ba b0c4 9bbc 5ca0 77bc c2db 2cbc
-0.015157591 -0.030430794 -0.01180626 0.02088007 0.03607703 0.0071471143 0.020422373 -0.02279026
-0.013307825 0.027127683 0.042289536 0.0073859873 0.0016056371 0.017662078 -0.031526554 -0.01717906
-0.01656876 -0.018595628 -0.02905021 -0.011251319 -0.025462888 -0.020042803 -0.004042988 -0.004290325
0.0071356054 -0.015389815 -0.015188711 -0.027512526 0.0038696968 0.0062590507 -0.027171265 -0.004729143
0.0006605929 -0.0024229935 -0.0138580855 0.020896789 -0.048385963 0.014435025 -0.014583043 -0.010995966
0.0005293794 -0.023396417 0.0019201152 0.007391928 0.012149488 0.00474265 0.02629745 0.028016081
0.007871596 -0.009842832 -0.01561432 0.027294204 -0.0019320651 0.011814753 -0.014712329 -0.00426046
-0.017124778 0.043661136 0.00992413 -0.020249248 -0.00026359243 -0.005692107 -0.0028378926 0.011345071
-0.0036177316 0.022328805 -0.0027383154 -0.020266205 0.010469132 0.02749556 -0.022359492 0.0041752476
0.02551212 -0.01081148 0.01391126 -0.011273096 -0.026510667 -0.02123575 0.017289335 -0.01551425
0.0105766775 -0.0044609937 0.023227293 0.00932346 0.0074927984 -0.005872708 -0.0011437176 -0.012600275
-0.020505592 -0.03365561 -0.004790379 0.01739208 0.00023335258 0.003771978 -0.0073767146 0.016805738
0.021251434 0.020503635 -0.0085621625 0.02758508 0.0034054788 -0.026119493 -0.027450956 0.012388557
0.01332434 -0.003985801 -0.042395376 0.008470803 0.0030236861 -0.0015577857 0.016380208 0.00024381469
0.0018371865 -0.022194814 0.018710425 0.01631762 0.024378806 -0.0160907 -0.011549798 -0.009973475
0.0053514987 -0.012090973 0.03680282 0.0012100134 -0.041493677 -0.005541826 -0.019213675 -0.013029571
0.006547697 0.005783829 -0.010529092 -0.008607166 -0.0075081275 -0.00076686486 -0.02077934 -0.0037133652
-0.03658708 0.019278754 -0.024799258 -0.023019683 -0.015531269 0.039069492 -0.018526655 0.050769724
0.015988192 0.008482466 0.027801778 0.018183745 0.04285756 -0.0062716906 -0.038299344 0.00876912
0.0224986 -0.019747298 0.010694078 0.027496312 0.02181288 0.016206106 0.009655369 -0.011103419
0.002342816 -0.030967109 0.012496633 -0.012821685 0.05717956 0.002956481 -0.024644967 0.015885113
0.025064737 -0.021999301 0.00833938 -0.042124167 -0.004010763 0.02767936 0.014564578 0.032814227
-0.018107655 0.036714014 -0.056319926 -0.024162585 -0.0046608336 0.018791296 0.018219173 -0.003167709
-0.017910672 -0.028658392 0.020057669 -0.01462368 0.007630246 -0.0034673822 0.036824204 0.008921814
0.0009830657 -0.01272705 -0.0007346114 -0.028499367 -0.016488448 0.01487287 0.005421945 -0.027189843
-0.019704893 0.01578034 0.007851281 0.0012017337 0.008119984 -1.2131707e-05 -0.009179187 -0.009842985
0.027054429 -0.0031226142 0.018244151 -0.03351221 0.018718306 -0.00072922563 -0.012293221 -0.010240053
-0.0034807082 -0.0038083997 0.008756373 0.014175939 0.025667567 0.035377905 -0.0040714303 -0.043764763
-0.017622532 -0.012041978 0.001181148 0.0075007197 0.013842325 -0.0010627531 -0.015888192 0.0019575818
0.00460084 -0.014602572 0.029580077 -0.022734774 0.04551082 -0.013921898 -0.00937141 0.03223759
-0.0062820455 -0.004368484 -0.033187512 0.04028966 -0.01382987 -0.0043622977 -0.012500571 -0.0006468947
0.0133845145 0.006077235 -0.006745605 0.0003939197 -0.0016302819 -0.019014686 -0.015113916 -0.010550441

transformer.h.0.ln_1.weight f4 [64]
00000000: 0000 803f 0000 803f 0000 803f 0000 803f
00000010: 0000 803f 0000 803f 0000 803f 0000 803f
00000020: 0000 803f 0000 803f 0000 803f 0000 803f
00000030: 0000 803f 0000 803f 0000 803f 0000 803f
00000040: 0000 803f 0000 803f 0000 803f 0000 803f
00000050: 0000 803f 0000 803f 0000 803f 0000 803f
00000060: 0000 803f 0000 803f 0000 803f 0000 803f
00000070: 0000 803f 0000 803f 0000 803f 0000 803f
00000080: 0000 803f 0000 803f 0000 803f 0000 803f
00000090: 0000 803f 0000 803f 0000 803f 0000 803f
000000a0: 0000 803f 0000 803f 0000 803f 0000 803f
000000b0: 0000 803f 0000 803f 0000 803f 0000 803f
000000c0: 0000 803f 0000 803f 0000 803f 0000 803f
000000d0: 0000 803f 0000 803f 0000 803f 0000 803f
000000e0: 0000 803f 0000 803f 0000 803f 0000 803f
000000f0: 0000 803f 0000 803f 0000 803f 0000 803f
1.0 1.0 1.0 1.0 1.0 1.0 1.0 1.0
1.0 1.0 1.0 1.0 1.0 1.0 1.0 1.0
1.0 1.0 1.0 1.0 1.0 1.0 1.0 1.0
1.0 1.0 1.0 1.0 1.0 1.0 1.0 1.0
1.0 1.0 1.0 1.0 1.0 1.0 1.0 1.0
1.0 1.0 1.0 1.0 1.0 1.0 1.0 1.0
1.0 1.0 1.0 1.0 1.0 1.0 1.0 1.0
1.0 1.0 1.0 1.0 1.0 1.0 1.0 1.0

transformer.h.0.attn.bias f4 [1, 1, 64, 64]
00000000: 0000 803f 0000 0000 0000 0000 0000 0000
00000010: 0000 0000 0000 0000 0000 0000 0000 0000
00000020: 0000 0000 0000 0000 0000 0000 0000 0000
00000030: 0000 0000 0000 0000 0000 0000 0000 0000
00000040: 0000 0000 0000 0000 0000 0000 0000 0000
00000050: 0000 0000 0000 0000 0000 0000 0000 0000
00000060: 0000 0000 0000 0000 0000 0000 0000 0000
00000070: 0000 0000 0000 0000 0000 0000 0000 0000
00000080: 0000 0000 0000 0000 0000 0000 0000 0000
00000090: 0000 0000 0000 0000 0000 0000 0000 0000
000000a0: 0000 0000 0000 0000 0000 0000 0000 0000
000000b0: 0000 0000 0000 0000 0000 0000 0000 0000
000000c0: 0000 0000 0000 0000 0000 0000 0000 0000
000000d0: 0000 0000 0000 0000 0000 0000 0000 0000
000000e0: 0000 0000 0000 0000 0000 0000 0000 0000
000000f0: 0000 0000 0000 0000 0000 0000 0000 0000
00000100: 0000 803f 0000 803f 0000 0000 0000 0000
00000110: 0000 0000 0000 0000 0000 0000 0000 0000
00000120: 0000 0000 0000 0000 0000 0000 0000 0000
00000130: 0000 0000 0000 0000 0000 0000 0000 0000
00000140: 0000 0000 0000 0000 0000 0000 0000 0000
00000150: 0000 0000 0000 0000 0000 0000 0000 0000
00000160: 0000 0000 0000 0000 0000 0000 0000 0000
00000170: 0000 0000 0000 0000 0000 0000 0000 0000
00000180: 0000 0000 0000 0000 0000 0000 0000 0000
00000190: 0000 0000 0000 0000 0000 0000 0000 0000
000001a0: 0000 0000 0000 0000 0000 0000 0000 0000
000001b0: 0000 0000 0000 0000 0000 0000 0000 0000
000001c0: 0000 0000 0000 0000 0000 0000 0000 0000
000001d0: 0000 0000 0000 0000 0000 0000 0000 0000
000001e0: 0000 0000 0000 0000 0000 0000 0000 0000
000001f0: 0000 0000 0000 0000 0000 0000 0000 0000
00000200: 0000 803f 0000 803f 0000 803f 0000 0000
00000210: 0000 0000 0000 0000 0000 0000 0000 0000
00000220: 0000 0000 0000 0000 0000 0000 0000 0000
00000230: 0000 0000 0000 0000 0000 0000 0000 0000
00000240: 0000 0000 0000 0000 0000 0000 0000 0000
00000250: 0000 0000 0000 0000 0000 0000 0000 0000
00000260: 0000 0000 0000 0000 0000 0000 0000 0000
00000270: 0000 0000 0000 0000 0000 0000 0000 0000
00000280: 0000 0000 0000 0000 0000 0000 0000 0000
00000290: 0000 0000 0000 0000 0000 0000 0000 0000
000002a0: 0000 0000 0000 0000 0000 0000 0000 0000
000002b0: 0000 0000 0000 0000 0000 0000 0000 0000
000002c0: 0000 0000 0000 0000 0000 0000 0000 0000
000002d0: 0000 0000 0000 0000 0000 0000 0000 0000
000002e0: 0000 0000 0000 0000 0000 0000 0000 0000
000002f0: 0000 0000 0000 0000 0000 0000 0000 0000
00000300: 0000 803f 0000 803f 0000 803f 0000 803f
00000310: 0000 0000 0000 0000 0000 0000 0000 0000
00000320: 0000 0000 0000 0000 0000 0000 0000 0000
00000330: 0000 0000 0000 0000 0000 0000 0000 0000
00000340: 0000 0000 0000 0000 0000 0000 0000 0000
00000350: 0000 0000 0000 0000 0000 0000 0000 0000
00000360: 0000 0000 0000 0000 0000 0000 0000 0000
00000370: 0000 0000 0000 0000 0000 0000 0000 0000
00000380: 0000 0000 0000 0000 0000 0000 0000 0000
00000390: 0000 0000 0000 0000 0000 0000 0000 0000
000003a0: 0000 0000 0000 0000 0000 0000 0000 0000
000003b0: 0000 0000 0000 0000 0000 0000 0000 0000
000003c0: 0000 0000 0000 0000 0000 0000 0000 0000
000003d0: 0000 0000 0000 0000 0000 0000 0000 0000
000003e0: 0000 0000 0000 0000 0000 0000 0000 0000
000003f0: 0000 0000 0000 0000 0000 0000 0000 0000
1.0 0.0 0.0 0.0 0.0 0.0 0.0 0.0
0.0 0.0 0.0 0.0 0.0 0.0 0.0 0.0
0.0 0.0 0.0 0.0 0.0 0.0 0.0 0.0
0.0 0.0 0.0 0.0 0.0 0.0 0.0 0.0
0.0 0.0 0.0 0.0 0.0 0.0 0.0 0.0
0.0 0.0 0.0 0.0 0.0 0.0 0.0 0.0
0.0 0.0 0.0 0.0 0.0 0.0 0.0 0.0
0.0 0.0 0.0 0.0 0.0 0.0 0.0 0.0
1.0 1.0 0.0 0.0 0.0 0.0 0.0 0.0
0.0 0.0 0.0 0.0 0.0 0.0 0.0 0.0
0.0 0.0 0.0 0.0 0.0 0.0 0.0 0.0
0.0 0.0 0.0 0.0 0.0 0.0 0.0 0.0
0.0 0.0 0.0 0.0 0.0 0.0 0.0 0.0
0.0 0.0 0.0 0.0 0.0 0.0 0.0 0.0
0.0 0.0 0.0 0.0 0.0 0.0 0.0 0.0
0.0 0.0 0.0 0.0 0.0 0.0 0.0 0.0
1.0 1.0 1.0 0.0 0.0 0.0 0.0 0.0
0.0 0.0 0.0 0.0 0.0 0.0 0.0 0.0
0.0 0.0 0.0 0.0 0.0 0.0 0.0 0.0
0.0 0.0 0.0 0.0 0.0 0.0 0.0 0.0
0.0 0.0 0.0 0.0 0.0 0.0 0.0 0.0
0.0 0.0 0.0 0.0 0.0 0.0 0.0 0.0
0.0 0.0 0.0 0.0 0.0 0.0 0.0 0.0
0.0 0.0 0.0 0.0 0.0 0.0 0.0 0.0
1.0 1.0 1.0 1.0 0.0 0.0 0.0 0.0
0.0 0.0 0.0 0.0 0.0 0.0 0.0 0.0
0.0 0.0 0.0 0.0 0.0 0.0 0.0 0.0
0.0 0.0 0.0 0.0 0.0 0.0 0.0 0.0
0.0 0.0 0.0 0.0 0.0 0.0 0.0 0.0
0.0 0.0 0.0 0.0 0.0 0.0 0.0 0.0
0.0 0.0 0.0 0.0 0.0 0.0 0.0 0.0
0.0 0.0 0.0 0.0 0.0 0.0 0.0 0.0

onnx::MatMul_499 f4 [64, 192]
00000000: 0afb a8bc e0a4 8b3c 203a 47bc 307e 3abb
00000010: c09c b63b 4539 6fbc 9459 cb3a 2bf3 6ebc
00000020: 4c3d f6bc d49d 51bd bd9a 92bb 783e 2e3c
00000030: 8615 d13b abec 7dbc f2c0 3e3b 6674 15bb
00000040: 8e2f e9bc db02 623b b26e c8bb 72e6 66bb
00000050: 52d2 a9bc 1dfc 0f3d a311 eebc ac2e 9fbc
00000060: 3323 923c 402c b33c 3e57 f53c dd1a 923c
00000070: af54 c0bc ad49 2d3b 8015 9e3b dbcd 4e3c
00000080: 80ae 263b b254 4cbc b434 d33c 9357 e73c
00000090: 017f 713c 549e f43c 7753 783b 3e08 33bc
000000a0: 125d e6bc a29d 44bc 9031 efbb 7905 283b
000000b0: 6ec9 6abb 8ced 0ebc d4cc 7e3c e286 303c
000000c0: cb05 f03c 3710 c13c 996c 893c d0e8 e63b
000000d0: fff9 023d 9854 233c 7ea9 d13c 4704 0fbb
000000e0: 4beb 6b3b 94ec 0938 a9a4 fdbc d71d 403c
000000f0: e7ba 0bbb c1fa d739 e417 cb3c d7bd 59bc
00000100: eb8a 153d fb40 c6bb 4b8d e9bb f74e bd3c
00000110: 9f6a 823a 4236 26bd d40d 25bd b3a8 c6b9
00000120: 7db9 f83a a751 543c 17d1 e4bb 2175 133b
00000130: cd38 423c 75ec ba3c 7520 c93c 9c46 643b
00000140: cc89 d63c ea69 d3bc 1379 f5bc dcfe afbc
00000150: 1b41 e3bb 752e 9ebc 7457 91bc c54b 6bbb
00000160: a69a a33b 4041 24bb ae5d 303d f37d a33c
00000170: 253e ddbc 2188 2ebc 1c19 a73b 0e0b 6b3b
00000180: 3265 b7bc a43c 81bb 34a6 4b3c dcad 8cbc
00000190: e168 c4bc 4787 2bbd e610 073b c069 c93b
000001a0: 55ae 92bc f7ff 3a3c 40b0 61bc 256a 883c
000001b0: 4918 2e3d 6d0a 28bc 9ee0 353c 451d ff3b
000001c0: 3d75 f9bc 0554 edba d81a dcbc 3d9f 3fbc
000001d0: dd1d dbbb 47f6 ea3a c551 e8bc d5c7 79bc
000001e0: 2f43 ccbc 8704 063d 289d a1bb 5049 92bc
000001f0: 4d75 b73a ab5b 5ebb 41e8 063d fdb7 a73c
00000200: 8b9c de3b 36e3 0a3d fbca 11bb 8a4e 9cbc
00000210: c7e8 45bc 9833 d9bc fd5e a1bc 18a5 63bb
00000220: b7bc b6bc 4081 033d 4f10 cabb d624 053d
00000230: 37dc 623c 1862 4a3d a042 a13c a529 bcbc
00000240: 328a d13c 3099 52bc 5996 cdbb 14b9 0cbb
00000250: 6d05 9fbc 89ad 85bc 67fc 08bc 6788 30bc
00000260: 29a0 db3c 239e 7d3c 7cd3 4cbc 6bc8 63bc
00000270: c2ae 45bb b235 2a3c 9ceb 6dbb dc02 353b
00000280: 5cd5 db3a 5d7a 9e3b cbd9 103c 1ce8 a2bc
00000290: 9be0 1fbd 121e 333d 6429 0ebc b0f2 d0ba
000002a0: 529f 17ba c19a d0bb 00a2 28bd 64e1 a5bc
000002b0: 7d6b 2ebd fefd d63a 0ace 073c 34af 0fbc
000002c0: d0e2 41b9 70ed 253c fbef 91bc 46b9 e2b9
000002d0: 1cfe 333a 5b71 d9bb ad39 9b3a 5e9e a33c
000002e0: 299f b93b 2280 833b 0274 36bb 82cb f73b
000002f0: 8363 9939 5652 263c c7f4 1abc c389 8a3c
00000300: 2add 883a e0e3 6b3c a014 f23b c9fe abbb
00000310: 00aa b03c 4950 48bc 25df cb3c ee39 24bc
00000320: a7eb 35ba e9e3 103d beeb 473b 4bca 7abc
00000330: 972c ea3c 9c0e 18bd 67c8 a7bb 474a abba
00000340: cafb c33b cad0 45bd c633 453b 1f31 11bc
00000350: 91fb 0b3d 86c5 7bbc 988c e5bb 5b28 08bc
00000360: 1ea6 263c 5265 1d3d f332 1d3d 6fa5 cd3a
00000370: 1d09 45bd fbb5 4ebc e0bd be3c 0b7f 46bb
00000380: 02b5 473c 693c a8bc 47f3 c83c 02d1 f4bc
00000390: 1d1d e83b a7b6 71bc 0f68 1eba ea66 6a3b
000003a0: d511 ccbb 8ebb d4bc ccea 54bc 5bb7 07bd
000003b0: a40d 8b3b ad1f 8ebb c267 603c c9dc 53bc
000003c0: 35fa 7a3b 6bec 47bc 4757 90bc 0f0d 0ebd
000003d0: 0df6 183d 19e2 81bc d8cb 63bc dde0 0e3c
000003e0: 0ccc e43c 0aa0 db3b bea3 fa3c 1043 813c
000003f0: 5e6e a9bc 47b4 6dbb ce26 473c 64ff aa3c
-0.020627517 0.017046392 -0.012159854 -0.0028456561 0.0055728853 -0.014601056 0.0015514367 -0.014584343
-0.030058526 -0.051175907 -0.0044740126 0.010635011 0.0063807396 -0.015498321 0.0029106704 -0.0022804975
-0.028465059 0.0034486565 -0.0061167115 -0.003523257 -0.020730171 0.035152543 -0.029061144 -0.019431435
0.01783905 0.021871686 0.029948827 0.017835075 -0.02347788 0.002644162 0.0048243403 0.012622322
0.00254336 -0.012471365 0.025781967 0.02824 0.014739753 0.029860653 0.0037891546 -0.010927258
-0.028120551 -0.012000473 -0.0072996095 0.0025638028 -0.0035825628 -0.008723628 0.0155517645 0.010774346
0.029299637 0.023567302 0.016775416 0.0070467964 0.031976696 0.009968899 0.025593515 -0.0021822618
0.00359984 3.2883676e-05 -0.030962305 0.011725864 -0.002132112 0.00041194822 0.024791665 -0.01328989
0.036509436 -0.0060502267 -0.007127439 0.023108942 0.0009949988 -0.040579088 -0.04029639 -0.00037891194
0.0018976178 0.012958921 -0.0069829333 0.0022500234 0.011854363 0.02281783 0.02455161 0.0034832126
0.026188754 -0.02580734 -0.02996496 -0.021483831 -0.0069352514 -0.019309262 -0.017741896 -0.0035903316
0.0049928008 -0.0025063306 0.04305809 0.019957518 -0.027007172 -0.010652573 0.005099429 0.0035864743
-0.02238712 -0.0039439965 0.012429763 -0.017172746 -0.023975791 -0.041877057 0.0020609437 0.0061466396
-0.017905394 0.011413566 -0.013774931 0.016652176 0.04250363 -0.010256392 0.011100916 0.0077854716
-0.030451411 -0.0018106705 -0.026868269 -0.01169568 -0.0066869096 0.001792618 -0.028359303 -0.015245398
-0.02493438 0.03271916 -0.0049320646 -0.017857224 0.001399675 -0.003392915 0.03293634 0.020473475
0.0067935637 0.03390809 -0.002224623 -0.01908042 -0.012079424 -0.02651386 -0.019698614 -0.0034735855
-0.022306783 0.032105684 -0.006166495 0.032505833 0.013846449 0.049409956 0.01968509 -0.022969076
0.025578592 -0.012853906 -0.0062740264 -0.002147262 -0.019411767 -0.0163181 -0.008360959 -0.010774708
0.026809769 0.015479597 -0.012501594 -0.013902764 -0.0030163978 0.0103887785 -0.0036303764 0.0027620113
0.001677196 0.004836364 0.008840988 -0.019886069 -0.03903256 0.04372985 -0.0086768605 -0.0015941467
-0.00057839334 -0.0063661044 -0.04117012 -0.020249076 -0.042582978 0.00164026 0.00828887 -0.008769799
-0.00018490409 0.01012741 -0.017814627 -0.0004324412 0.00068661734 -0.0066358275 0.001184275 0.019972976
0.0056647253 0.0040130774 -0.0027840142 0.007562102 0.00029256576 0.010151466 -0.0094577735 0.016911393
0.0010441889 0.014397591 0.0073877126 -0.0052488786 0.021565437 -0.012226173 0.024886677 -0.010023577
-0.0006939717 0.035373602 0.0030505504 -0.015307019 0.028585715 -0.037123308 -0.0051203254 -0.0013068401
0.0059809433 -0.04829482 0.0030090674 -0.008861809 0.03417546 -0.0153669175 -0.0070052855 -0.008310403
0.010171441 0.038426705 0.038378667 0.0015689562 -0.048104394 -0.01261663 0.023283899 -0.0030288126
0.012189152 -0.020536618 0.024530066 -0.029884819 0.0070835487 -0.01475302 -0.00060427276 0.0035766908
-0.0062277117 -0.02596834 -0.012995433 -0.033133846 0.0042435694 -0.004337272 0.013696613 -0.012931057
0.0038296108 -0.0122023625 -0.017619742 -0.034680422 0.037344027 -0.015854882 -0.013903581 0.008720604
0.027929328 0.0067024278 0.030595656 0.015779048 -0.02068251 -0.0036270784 0.012155248 0.020873733

onnx::MatMul_507 f4 [64, 64]
00000000: 6b09 433c 5cb4 083b dc8f 883a 47f6 dc3a
00000010: bb93 7eba f61e bb3b b71d e83b b594 d8bb
00000020: 8e6a c3bb e8d4 67bc ebd1 89bc 7b77 a73b
00000030: 25d1 ff3b df7a 54ba c90e 233c 3733 fa3b
00000040: d38b 603b a99a d13b fb80 b2bb 905f 0dbb
00000050: 9c16 813b 8261 1bbb 5a34 7abb c493 c0b8
00000060: 0167 c93b 78e5 d13b e18f 703c f472 15ba
00000070: 519c f13b 680c 3d3b 451d 0fbc 87ae 9dbb
00000080: f3fa f0bb e01a 713a 604f aa3b 34f0 0dbb
00000090: e658 c5bb 97b5 ddba f033 86bb f5e0 7839
000000a0: 87e0 213b ded4 46bb 7942 89bb 4c66 7c3c
000000b0: 03da 25bc 1b24 f5bb cf20 8dbb b9b9 6cbb
000000c0: c1ba 01bb 8771 753b 9789 13bc 3add 3cbc
000000d0: f31c d9ba 9342 033c 073a cd3b cb42 edb9
000000e0: c63b 0a3b d578 35bc 7e62 9a3b 23d0 40bc
000000f0: bb57 113b a01d 973c 7a0a 503b b5ca 7db9
00000100: c7d3 ecbb 27f3 493b cced 0b3c eaaa 873b
00000110: 4ff8 f6ba 039e 85bb b8fe 813b 7924 b3ba
00000120: f27d 4ebc 0615 23bb 0b1d 843a d1c6 c53b
00000130: 82b6 76bb 903c c23a 8a7d 2bbc cc79 0cbc
00000140: 4cc8 dc3a 4e95 b0bb d3ec ddbb 8c77 77bb
00000150: 6661 553b 0bd3 80bb c199 063b 2ae7 303b
00000160: ce3a b8bb 24fa d2bb b14e 053b a21e ac3b
00000170: eeda 5a3c 613e 01bc a9a6 feba 2183 7ebb
00000180: e86d 473b 0d5e d63b f867 57bb 5bde 00bc
00000190: 4a5c 2d3a abaf 10ba 5bf3 123a d78a d03b
000001a0: f683 eebb 7205 5fbb 5676 7e3b 16cc 84bb
000001b0: 6695 ec3b d3d0 323b 8f78 3dbc f9eb 0fbc
000001c0: 5038 55bb 4d94 8abb 1bba 103b 019c 94ba
000001d0: 8510 993c d1cf d7bb 9315 c6bb 9cd5 2f3b
000001e0: 33ae e8ba cc46 e1ba 5444 45bc 787f 32bc
000001f0: 022d fc3b e5a7 8d3b 9389 7c3b cba4 dfba
00000200: fbc2 f83b b93d ecbb 3a9e 4abc 0ac4 02bb
00000210: a027 983b efb9 23ba 166a 813b 8e14 15bc
00000220: 364a 043a c060 963b 9183 853a 9458 793c
00000230: 7239 013a c625 4ebc f527 6bbc 5122 113c
00000240: 6445 15bc ca56 703c 9f72 f23b 04c6 413b
00000250: 8aec 9fbb 8c12 b7ba c2a9 1f3c ccdc 93bb
00000260: 7744 16bc 36d6 e239 98f9 5dbc d55f f73b
00000270: d0b9 b03b 8013 213c 3470 caba 9148 1c3b
00000280: 4a2d b03a 9849 823c c280 543c 8ae6 b7bb
00000290: 2ca2 30bc 96e7 91ba 3934 0eba ef52 933b
000002a0: 5256 633a 62b9 fa3b 774b bf3b be88 253b
000002b0: b2e5 b3bb eb83 823b 10a6 e6b9 04e7 143a
000002c0: 82fd f6ba 0759 70bb a3ef 1c3c b316 a8bb
000002d0: e1f5 ba3b 710b 5bbb 7806 ec3b 6886 dbbb
000002e0: 4a6c 3cbc 4574 dabb 3d4e 61bc 747d e139
000002f0: 5c7f 5b3b fd13 2fb8 aa80 af3a 8b51 33bb
00000300: f6a7 09bc a162 353b 9aa2 11bc 6135 81bb
00000310: 36e6 b2bb d17b 063b 1ee7 a8bb 30cd 01bb
00000320: b349 ddba 1a37 68b9 3f99 ac3b ad28 0ebc
00000330: 3f95 02bc 430a f63b 9ea7 2a3b 3fc8 7aba
00000340: 8883 0abc c529 a4bb 930d ff3b 61ce 3f3c
00000350: 4673 b13b 593c 003b 408e 5f3a 7abb 48bc
00000360: 643c 68bb 08d4 d2ba d5b8 40bc 47d1 1cbc
00000370: e6ef cf3b 6d4d 043c 68bd 543b 28f0 893b
00000380: 8341 48bc 5b98 053b d9bc 22bc 9f34 863c
00000390: d59d 9fbb 0256 4c3b 92b6 ae3b ebb8 7e3c
000003a0: 63ca dc3b 7f1d 61bb 3573 2439 bb0d 883a
000003b0: 57cc a9bb cd40 0dbb 79b4 bbbb 673d 92bb
000003c0: 9578 373b 6969 babb d59a b53b 5523 0ab9
000003d0: cc50 0dbb 313b da3b df23 653b 72c4 143c
000003e0: 0089 1f3c 55c4 3abc dcc2 67bb 65b7 43bb
000003f0: 3119 00bc ad4c 073c 6fca 293c b1f6 163b
0.011904101 0.0020859456 0.001041885 0.0016858064 -0.00097113446 0.005710478 0.0070836204 -0.006609524
-0.00596363 -0.014149882 -0.01682373 0.0051106787 0.0078069144 -0.00081054674 0.0099522555 0.0076355
0.003426303 0.0063966108 -0.0054475046 -0.0021571852 0.003939463 -0.0023709242 -0.0038178177 -9.182797e-05
0.006146312 0.0064055286 0.014682741 -0.0005701028 0.0073733707 0.0028846506 -0.008735006 -0.004812065
-0.007354134 0.0009197425 0.0051974505 -0.0021658065 -0.0060225604 -0.001691508 -0.004095547 0.00023734926
0.002470048 -0.003033928 -0.0041888324 0.015405249 -0.010122779 -0.0074811107 -0.0043068896 -0.0036121442
-0.0019795152 0.00374517 -0.009004972 -0.011527354 -0.0016564414 0.008011478 0.006263021 -0.00045253927
0.0021092757 -0.011076172 0.004711448 -0.011768374 0.0022177536 0.018446743 0.0031744526 -0.00024203474
-0.0072273943 0.0030815096 0.008540582 0.0041402476 -0.0018842312 -0.0040776744 0.0039671324 -0.0013667486
-0.01260327 -0.0024884357 0.0010079456 0.0060356637 -0.0037645404 0.0014819074 -0.010466943 -0.0085739605
0.0016844361 -0.0053888923 -0.0067726164 -0.0037760464 0.0032559275 -0.0039314083 0.0020538422 0.0026993253
-0.0056222444 -0.0064385105 0.0020341093 0.005252675 0.013357861 -0.007888407 -0.0019428331 -0.0038835483
0.00304305 0.0065419734 -0.0032868367 -0.007865514 0.00066131784 -0.00055193406 0.0005605721 0.0063642072
-0.0072789146 -0.0034030345 0.0038827858 -0.0040526493 0.007219958 0.0027285113 -0.011564388 -0.008784288
-0.0032534786 -0.0042291046 0.0022083584 -0.0011337997 0.018684635 -0.006586053 -0.0060450523 0.0026830202
-0.0017752111 -0.0017187237 -0.0120402165 -0.010894649 0.007695795 0.004322993 0.003853415 -0.0017062662
0.007591603 -0.0072095064 -0.012366826 -0.0019953274 0.0046433955 -0.0006245663 0.003949414 -0.009099139
0.00050464587 0.00458917 0.0010186305 0.015218873 0.00049295195 -0.012582248 -0.014352788 0.008858279
-0.009110782 0.01466913 0.007398918 0.002956749 -0.0048804926 -0.0013967319 0.009745063 -0.004512405
-0.009171597 0.0004326568 -0.013548277 0.007549266 0.0053932443 0.009831309 -0.0015444816 0.0023846964
0.0013441232 0.015904233 0.012970151 -0.005612199 -0.010780852 -0.001113164 -0.0005424652 0.0044959704
0.00086722255 0.007651494 0.0058378535 0.0025258507 -0.0054900283 0.003983011 -0.00043992745 0.0005680176
-0.0018843862 -0.0036674158 0.009578618 -0.005129659 0.0057055806 -0.0033423568 0.0072029196 -0.006699372
-0.0115004275 -0.0066666924 -0.013751564 0.00043008814 0.003349266 -4.1741867e-05 0.0013389785 -0.0027361836
-0.008401861 0.0027677196 -0.008888865 -0.003943131 -0.005459572 0.0020520578 -0.0051545044 -0.001980614
-0.0016882926 -0.00022145771 0.005267292 -0.00867669 -0.007970153 0.0075085475 0.002603985 -0.0009566582
-0.008454211 -0.005009862 0.0077836006 0.011706919 0.005415353 0.001956722 0.0008527972 -0.012251729
-0.0035436386 -0.0016084919 -0.011762817 -0.00957138 0.006345737 0.0080751 0.0032461528 0.004209537
-0.01222265 0.0020385 -0.00993272 0.016382514 -0.00487111 0.0031179194 0.0053318227 0.015547018
0.0067379936 -0.0034349856 0.00015683177 0.0010380069 -0.00518183 -0.0021553517 -0.005728301 -0.004462886
0.0027995456 -0.0056888354 0.005542139 -0.00013173868 -0.0021563051 0.006659888 0.0034964008 0.009080039
0.009737253 -0.011399348 -0.0035363948 -0.002986395 -0.007818506 0.008258027 0.010363205 0.0023035223

onnx::MatMul_508 f4 [64, 256]
00000000: e448 8ebc 5037 16bc 075b 4cbd 243c 24bc
00000010: 74c1 cf3c 7323 7f3c 1c3e c23c 471d 08bb
00000020: 3091 023d ca8a de3b 3007 1a3c aa1b 94bb
00000030: d49b e03a e874 013d e969 a53c 26dd b23c
00000040: 4920 d13c d5b0 4e3b 3d1c d0bc cdcc c83b
00000050: 7470 7dbc a0b2 9c3c f9b2 76ba 3542 5c3c
00000060: abe3 4dbc e094 643b d246 963b 5b30 51bc
00000070: d25e 64bb ee4a adbc cba5 a93b 00c2 a63c
00000080: 90d6 a73c 5e33 533c d9f7 96bb a9b0 4cba
00000090: d609 1a3d 5d07 ea3c 809f 92bc 2313 ed3c
000000a0: 5ea3 1d3d a113 2cbc 41ec e03b 1d6f 02bc
000000b0: a17e 453d 7b4c d33b 09d7 283c e6d2 663d
000000c0: 1b9d a0ba afff 01bd f986 5c3c af0a e73b
000000d0: 4181 8cbc 8f38 84bc 179e 9bbc a132 7a3b
000000e0: 93c1 1cbc 4dff c5bc e096 2bbc 45c5 133d
000000f0: a744 a33c 7d55 9bbb e93c dab9 9950 dd3b
00000100: 9b12 683c 3ce8 34bb d07b 1bbd 6316 0dbd
00000110: 524d 00bc 7c33 193c 46b0 133d 29b4 74bc
00000120: a39f 743c 2d57 00bc 3ea3 873c 907a 60bb
00000130: b94f 1dbc c702 ba3c 9304 f4bb 6acd d7bc
00000140: 4930 2a3c f3f8 b5bb a668 403c 2b1d 713b
00000150: c516 51bb f56e 613a 390e a03c 390c a13c
00000160: c2c2 6fba cb93 623c 139e 8e3c 80ea b73c
00000170: d4f9 adbc 90c7 903c 4719 b6bb 9081 b0bc
00000180: b2dd 4e3c c9f0 76bb 8d4f 483b a0ad 29ba
00000190: 330f 54ba e0a3 41bc 24c2 d13c 9e5d a13c
000001a0: 8a5e 61bd 1ef1 b3bc 8a96 f2bc 6233 7d3c
000001b0: f304 c83c a52d be3c 036a 8c3c 3e56 853a
000001c0: 270e 803c b3eb 67bc 3e59 d23b 3941 a13c
000001d0: db4b 4a3c 84d4 8ebc a4eb dabb 868c cf3b
000001e0: 4632 91bb ee2c 013d 347c 1ebc 7b89 4bbb
000001f0: 3bf4 ddbb 5737 81bc ca41 0cbc e2d2 453b
00000200: 9dcd a73b d9f6 353c 729b 6bbc 0715 8abd
00000210: f51e 60bc 5d6d 45bb f7fb 82bb 441f 67bc
00000220: 1ff9 83bc 5b62 3cbc 435b 9d3a 229c 99bb
00000230: 6574 663c 3426 593c 5581 4dbc 2689 b2bc
00000240: 472d 723c aefc a9bc 558e 8bbc 072f 97bb
00000250: 3dd0 4f3b 9638 26bc 63af 16bd 0561 b93c
00000260: 06e8 9a3c cf15 31bc 6847 82bc 8de0 203d
00000270: 392b cf3c 84d4 613b 3db5 db3b 62de 94bc
00000280: 1078 34bc e1f0 afbc 8686 473c 3def 223c
00000290: c9ac dfbc 2e9c 863c 02ab e1ba 82a0 a53c
000002a0: ad06 b3bc 93bf 1ebd fbc0 b33b 90f1 1abd
000002b0: 29c0 293c bde7 2d3d d378 0e3d c62d efbc
000002c0: 9b44 f53c 068b 07bb 8d6f 003d a66e 7c3c
000002d0: f7a9 383b 0558 3f3d 996c e3bc 8644 4f3c
000002e0: 8e47 01bc 2ea9 02bc c9f7 463c 441b 8b3c
000002f0: 3872 e13c fd14 053d e05e 2ebb b36b 2dbd
00000300: ee5b eebc 3b33 cc3c 03a5 febb ed52 c5bb
00000310: c2c3 8fbc 9b0e ff3b 2454 3dbc b60d 03bd
00000320: e9d4 7f3c 54c2 da3b fe91 833b 23b1 f4bb
00000330: 5673 15bc d287 4c3a aef7 973c f505 4f3c
00000340: 35b8 c7bc 4ddd 34bd 9506 783c 1293 c13c
00000350: b8ca f93b efd3 1b3c 92b7 9d3c a0b8 d2bb
00000360: 46fa 6a3b dc6d 943c 17c5 d2bc 195e 293c
00000370: 9298 b73c 5575 40bc 07bc 383d 7897 653b
00000380: 2f55 2c3b 06fa 2fbc 2645 82bc 0703 1dbd
00000390: cee4 94bc c122 eabc 1852 e53c f4b6 383c
000003a0: fc88 2abc dc7f cc3c 8edd 41bd 8304 97bc
000003b0: fc4d 5fbc b3de 783c 7c5a aa3c ea4f 46bc
000003c0: 0672 8dbb c5af 7f3b 7dd1 3c3c 6b0d 683c
000003d0: f9f4 f73c 1ef5 bb3b c948 4fbb 92d5 563b
000003e0: 636a 9ebb a445 02bc edcd 053c 6214 39bd
000003f0: b68d 9c3c 8f45 df3c 8046 ed3c a2fa 013c
-0.017368741 -0.009168461 -0.049891498 -0.010024104 0.0253608 0.015572417 0.023711257 -0.0020769404
0.031876743 0.0067914473 0.009401128 -0.0045198994 0.0017136284 0.03160563 0.020192103 0.021833967
0.02552809 0.0031538506 -0.02540409 0.00612793 -0.015468705 0.019128144 -0.0009410824 0.013443519
-0.012566487 0.0034878775 0.004586079 -0.0127678765 -0.0034846556 -0.021153893 0.0051772348 0.020356178
0.020488054 0.012890665 -0.0046071825 -0.0007808307 0.037607037 0.028567964 -0.017898321 0.02893979
0.038485877 -0.010502727 0.006864101 -0.007961062 0.048216466 0.006448326 0.010305175 0.056353472
-0.0012253852 -0.03173798 0.013459914 0.007050834 -0.017151477 -0.01614025 -0.018996282 0.003817715
-0.009567636 -0.024169588 -0.010472983 0.036076803 0.019930197 -0.0047404156 -0.00041625582 0.0067539928
0.014164592 -0.0027604243 -0.037959874 -0.034445178 -0.007830935 0.009350654 0.03605678 -0.014935532
0.0149306385 -0.007833284 0.016557332 -0.003425274 -0.009601527 0.022706402 -0.0074468344 -0.026343066
0.010387489 -0.0055533587 0.0117437 0.0036791067 -0.003190444 0.0008599603 0.019538032 0.019659149
-0.00091461476 0.013829182 0.01740936 0.022450686 -0.021237291 0.017673284 -0.0055572125 -0.021546155
0.0126260985 -0.003768014 0.0030564994 -0.00064727105 -0.0008089423 -0.011818856 0.025605269 0.01969796
-0.0550218 -0.02196556 -0.029612798 0.015454145 0.024416422 0.023215124 0.017140394 0.0010172797
0.015631748 -0.014155316 0.00641933 0.01968442 0.012347187 -0.01743532 -0.0066809226 0.0063338904
-0.004431042 0.03153699 -0.009673167 -0.0031057287 -0.0067734993 -0.015773458 -0.008560607 0.003018551
0.0051209466 0.011106216 -0.014380323 -0.06742292 -0.013679256 -0.0030125 -0.0039973217 -0.014106575
-0.016110001 -0.011498059 0.0012005348 -0.004687802 0.014065837 0.013253737 -0.012543042 -0.021793913
0.014781303 -0.02075037 -0.017035643 -0.0046137604 0.0031709813 -0.010145327 -0.036788356 0.02262927
0.018909466 -0.010808422 -0.01590319 0.03927665 0.025289165 0.0034458945 0.006704955 -0.018172447
-0.011014953 -0.021477165 0.012178069 0.009944734 -0.02730407 0.016431894 -0.0017217102 0.020218138
-0.02185377 -0.03875692 0.0054856515 -0.03782803 0.010360756 0.04245733 0.034783196 -0.029196631
0.02993994 -0.002068223 0.031356383 0.01540724 0.0028177479 0.0467148 -0.027761744 0.012650615
-0.007890595 -0.007974906 0.0121440375 0.016980775 0.027520284 0.03249072 -0.0026606843 -0.042339038
-0.02909657 0.024926772 -0.007771136 -0.0060218484 -0.0175494 0.0077837235 -0.011555705 -0.031995498
0.015614727 0.0066759977 0.0040152064 -0.0074674054 -0.0091217365 0.0007802221 0.01855072 0.012635698
-0.024379829 -0.04415636 0.015138288 0.023629699 0.007623043 0.009510978 0.019252572 -0.0064307004
0.003585474 0.018118791 -0.025728745 0.010337376 0.022411618 -0.011746724 0.04510119 0.003503291
0.002629589 -0.010740763 -0.015902113 -0.038332965 -0.018175509 -0.028581025 0.027993247 0.011274088
-0.010408636 0.024963312 -0.04733043 -0.018434769 -0.013629433 0.015189814 0.0207951 -0.012104014
-0.004316571 0.003901468 0.011524555 0.014163355 0.03026818 0.0057360074 -0.0031629077 0.0032781106
-0.0048344596 -0.007951174 0.008166772 -0.045185454 0.019110542 0.027254848 0.028964281 0.007933291

onnx::MatMul_509 f4 [256, 64]
00000000: 8f8c 633b e762 fcbb 2f94 623b 62e9 243c
00000010: 9ae3 08bb 7522 9fbb 56e3 353b 309c 103b
00000020: 6313 5fbb 582a b73b c2a8 2e3c cdc9 363b
00000030: e9b7 9ebc c700 203c be77 303b 3466 bc3a
00000040: 088a f8ba 8a74 8d39 6883 cfbb b24d 2cbb
00000050: b666 9abb 45f8 bdbb 029e cebb feb3 1e3b
00000060: 035a 32bc 1f1a fd3b 177a 083c 2f36 eab9
00000070: 8f6d ea3b b6be 4abb 032b 93bc 1469 9ebb
00000080: 5239 f7bb c4fa f93b 80c0 033b 883a bdbb
00000090: fb2f a93b 6d64 fdba c65b 9c3b f31a d5bb
000000a0: 29c0 31bb 286e 213c b747 f23b 8131 3fbb
000000b0: 6c0c 473c a57d 1dbc 0927 03bb 53cb 143b
000000c0: 672d 0c3b 25e8 73bb b9db 8bbc 30e0 61bc
000000d0: b11b dd3a 5acd f4bb 8c86 c23b 98df 66bc
000000e0: 56de c7ba 54dc 23bb 748f cebb bd78 8aba
000000f0: 4216 e33b de00 393c e68c 993a 8dba 3fbb
00000100: e405 5d3a 7b08 10bb 31d2 b03a feb7 88ba
00000110: cbb4 60bb c807 0a3c f2fa f93b 462a d5bb
00000120: 1d87 58bb c008 1b3c 6d57 cdbb 3aa0 d03b
00000130: 063a 7a3b 24bd 1cbc f82d c1ba cbc5 6d3c
00000140: 950d a937 2a41 253c 72b2 bc3b 1327 f33b
00000150: b55c 4fbb 5cb6 06bb 00c6 573b a66f b0b9
00000160: 9700 9a3b b2e6 39bb f054 a43c 06cc 513b
00000170: f410 3c3c 1d62 5f3c a9e9 933c d3c6 5b3c
00000180: c996 743c 57e9 27bc d338 483c 5a67 16bb
00000190: 22b9 acb9 3508 503c bb84 9cbb 79a4 c73b
000001a0: c1ee cdb9 69ef 1b3c 46d6 b2bb 71ee 47bb
000001b0: 3751 1b3c c555 2fbb 4760 f0ba cd0e c03b
000001c0: 5f4e 473b af98 0ebc 3440 77bc e116 cc3b
000001d0: 5ab2 0b3c 4c55 5aba d1cb a43b 4eb1 f23b
000001e0: 7f33 9a3b 2b0c 43bc 3212 14bb d365 3bbc
000001f0: 45c0 9bbb 8d33 7fbb 2c69 053c f89f 153b
00000200: 38c4 133c 1324 ca3b 50dc cbb9 426d 823c
00000210: 08a9 41bc d65c d8bb 3fec 053b 7c90 d3bb
00000220: a4f1 033a bf6c eabb e948 1ebc c512 f73b
00000230: c29e 083c 162d 193b 372a b2bb 5756 e5bb
00000240: 3441 ae3b f31d 8a3b 7bce 48ba afa1 1bbb
00000250: 5497 42bc dde4 95b9 2085 dd3b 51fb d8bb
00000260: 067a 56bc dc09 233b f25a 993b 80d0 02bc
00000270: 4dfc 66ba a02c f439 d257 c9bb bdd6 983c
00000280: 161b eab9 ee7c aeb9 4986 a93b 661a b2bb
00000290: 4764 e53a d092 87ba 9258 a73b 06bc 7e3b
000002a0: 501c cf3b f587 233b 5a4f 3a3b 05f4 cdbb
000002b0: 7c69 b73b eaa7 c0bb f4ce 173c 2db5 233b
000002c0: a682 cbbc ad29 22b9 5401 943c e45f ec3a
000002d0: 1c6f 01bc 7925 0a3c 8304 a23b 2ffb 953b
000002e0: 6d18 12bc 8bac a03a 5cdc 763b fc97 bb3b
000002f0: bb21 40bb a7b7 0f3b 71df 34bc 6253 0dbc
00000300: b65e b7bb a09f 6f3b ceb7 583b f9c9 833c
00000310: 5b53 98bb 9334 41bb 43df 8f3b dfec 57bc
00000320: 735e 813b 3dca 223c 39fa 87bc db3d 6bbc
00000330: b289 6c3b 5a30 1f3b b256 a6bb b146 7e3b
00000340: e8a6 14bb d68a b8bb 5f7b 2f3a af21 e83a
00000350: f72b c83b 11af fbbb e8d7 aebb c9bd 98bb
00000360: 8b0e b23a 408b c73a b787 13bb 2a01 28bc
00000370: 097f 3f3c 9ce0 19ba 42c6 06bc 03dd f3bb
00000380: 49f4 9d3b c439 38ba 4ac1 08bb a471 753b
00000390: 6ea6 93bc 88d5 46bb dd4a e439 708b c1bb
000003a0: 4199 9fbb 6d4b c63a a92a 1b3a 00b9 cb3b
000003b0: f2ad 6a3c b708 e839 b2d4 d43b 072c bdbc
000003c0: 22ba fdbb ff7f 9c3b bade 8dbb a03d ce3b
000003d0: 21ed 8c3a 19f6 25ba a057 0e3b 8200 14bc
000003e0: 6d16 453b 7e70 a1bb f41a 88bb b9eb 90b9
000003f0: a3f6 ae3b e7a2 9238 3200 3fba df08 82bc
0.003472123 -0.0077022198 0.0034573188 0.010065408 -0.0020887614 -0.0048564025 0.002775391 0.0022065751
-0.0034038655 0.0055897646 0.010660352 0.0027891279 -0.019374805 0.00976581 0.002692684 0.0014373721
-0.0018962035 0.00026980444 -0.0063328035 -0.0026291427 -0.004711951 -0.0057974183 -0.006305457 0.002421617
-0.010885718 0.007724061 0.00832989 -0.00044672328 0.0071541737 -0.0030936426 -0.017964846 -0.0048343036
-0.007544675 0.0076287705 0.0020103753 -0.0057747997 0.0051631904 -0.0019332297 0.0047716824 -0.0065034567
-0.0027122593 0.009852923 0.007393803 -0.0029173794 0.012148958 -0.0096124755 -0.002001228 0.0022704198
0.0021389367 -0.0037217226 -0.017072545 -0.013786361 0.0016869215 -0.007470769 0.0059364494 -0.014091395
-0.0015248756 -0.0025003152 -0.006303722 -0.0010564547 0.0069301436 0.011291711 0.0011714965 -0.002925548
0.0008431359 -0.002197771 0.0013490376 -0.001043081 -0.0034287449 0.008424707 0.007628792 -0.0065052835
-0.0033039518 0.009462535 -0.0062665255 0.0063667567 0.0038181557 -0.009566579 -0.0014738431 0.01451249
2.0152695e-05 0.010086337 0.005758577 0.0074204295 -0.003164095 -0.0020555472 0.0032924414 -0.0003365252
0.0046997773 -0.0028366265 0.020060033 0.0032012477 0.011478651 0.013634232 0.018055754 0.013414103
0.014928528 -0.010248504 0.012220579 -0.0022949786 -0.0003294433 0.012697269 -0.004776565 0.0060926047
-0.00039278532 0.009517529 -0.0054576723 -0.0030507112 0.009479812 -0.0026754003 -0.001833924 0.0058611394
0.0030411703 -0.008703395 -0.015090991 0.0062283133 0.008526409 -0.000832875 0.0050291796 0.0074063903
0.004705846 -0.011904757 -0.0022593853 -0.011437851 -0.004753145 -0.0038940639 0.008142751 0.0022830945
0.00901895 0.006168851 -0.00038883323 0.015921239 -0.011820085 -0.006602864 0.0020435003 -0.006456433
0.00050332607 -0.007154077 -0.009660938 0.0075400793 0.008338632 0.002337282 -0.0054371613 -0.006998818
0.0053178314 0.004214996 -0.00076601625 -0.0023747494 -0.0118769 -0.0002859001 0.0067602545 -0.006621756
-0.013090616 0.0024877703 0.004680031 -0.007984281 -0.00088113995 0.00046572555 -0.006144502 0.018657083
-0.0004465214 -0.00033280946 0.0051734787 -0.005435276 0.0017501198 -0.0010343436 0.005106994 0.0038869395
0.006320514 0.0024952863 0.0028428645 -0.006285193 0.0055972915 -0.005879392 0.00926565 0.0024979815
-0.024842571 -0.0001546505 0.01806704 0.0018033949 -0.007900026 0.008431786 0.0049443855 0.0045770626
-0.008916956 0.0012258453 0.0037667966 0.005724905 -0.002931698 0.0021929534 -0.011039601 -0.008625837
-0.005596007 0.003656365 0.003306854 0.016087519 -0.0046486086 -0.00294808 0.0043906285 -0.013179033
0.003948027 0.009935913 -0.016598808 -0.014358009 0.0036092815 0.0024290294 -0.005076253 0.003879946
-0.0022682492 -0.005631785 0.0006694104 0.0017710234 0.0061087566 -0.0076807817 -0.0053357966 -0.004661296
0.0013584656 0.0015223995 -0.0022511312 -0.010254184 0.011688002 -0.0005869956 -0.008225979 -0.007442118
0.004820381 -0.0007027651 -0.0020867162 0.0037451768 -0.018023696 -0.0030339677 0.00043543326 -0.005906515
-0.004870564 0.001512868 0.00059191376 0.006217122 0.014323698 0.0004425698 0.006495082 -0.023092283
-0.007743136 0.0047760005 -0.0043295296 0.0062939674 0.0010751822 -0.0006330922 0.002171971 -0.009033324
0.0030073181 -0.00492674 -0.0041536037 -0.00027641447 0.00533946 6.9921654e-05 -0.0007286101 -0.01587337
