examples/onnx/1l_conv_transpose/network.onnx (onnx, 1326 bytes, 2 tensors)

convtranspose.weight f4 [3, 3, 5, 5]
000000 c7 da 9e bd 92 54 dd bd c0 b9 82 3d 34 fa 1f 3d
       -0.07756572 -0.10807146 0.06383085 0.03905697
000010 50 35 37 3d 6e 72 9f bd e4 3d 8b bc 20 e1 65 3b
       0.044728577 -0.077854976 -0.016997285 0.0035076812
000020 20 34 63 3c 96 d1 9d bd 66 f6 81 3d e8 3a 6b bc
       0.013867408 -0.07705991 0.06345825 -0.014357306
000030 50 08 da bd 96 53 c5 bd 30 4a dc 3c e0 72 e7 bd
       -0.10646117 -0.096350834 0.026890844 -0.113012075
000040 02 25 cc bd 9e 8b d2 bd 44 4d a5 3d 78 f2 aa bd
       -0.09967996 -0.10280536 0.08071378 -0.083470285
000050 ba 40 5e bd 70 60 ac 3c 55 a9 e2 bd 19 72 d4 bd
       -0.054260947 0.021042079 -0.11067454 -0.10373325
000060 c4 2b 1c 3d cf 07 66 bd 70 f9 c0 bb e2 af 72 bd
       0.038127676 -0.05615979 -0.0058891103 -0.059249766
000070 6a 63 2c bd 09 10 b4 bd 98 c2 c4 bd 6c 2c 9a bc
       -0.042086996 -0.08792121 -0.09607428 -0.01882001
000080 44 57 95 bd a8 d1 bb 3c 16 8b df 3d 98 92 c9 3c
       -0.07292035 0.02292712 0.109152004 0.024606034
000090 ac 50 e3 3d 40 03 2c 3c 33 6f cc bd 79 71 81 bd
       0.11099371 0.010498822 -0.09982147 -0.06320471
0000a0 54 bf b2 3d 50 77 df bb f0 68 d3 bb 4e 87 80 bd
       0.08727899 -0.006819643 -0.0064517185 -0.06275807
0000b0 c8 a9 e9 3c 94 62 88 3d c8 9a d0 3c c3 b2 e0 bd
       0.02852334 0.06659427 0.02546443 -0.10971596
0000c0 05 70 c0 bd f4 c5 b2 bc a0 5f 09 3d 46 f0 31 bd
       -0.09396366 -0.021822907 0.03353846 -0.043442033
0000d0 82 50 b8 bd 80 99 8b 3d 10 30 ba 3b 5a f3 84 bd
       -0.08999731 0.06816387 0.005681999 -0.06491728
0000e0 a0 81 8e 3c 70 13 ba bd 80 07 9e 3d 2a 26 99 3d
       0.017395794 -0.09085739 0.07716274 0.07477982
0000f0 3a 2f af 3d be 48 0d bd 86 2d 9c 3d 06 59 39 bd
       0.085539296 -0.0344932 0.076258704 -0.045250915
000100 50 38 81 3b da 62 c4 3d 2f e6 c4 bd e0 97 6a 3d
       0.0039434806 0.09589167 -0.096142165 0.057273746
000110 ca c6 58 bd 58 39 a4 3d 8a 99 88 3d 2c 6c 2b 3d
       -0.052923955 0.0801875 0.0666991 0.041851208
000120 ac 57 8c bd 52 37 ab bd 22 35 e3 3d 20 fa cb bd
       -0.068526596 -0.08360161 0.11094119 -0.09959817
000130 e8 01 02 3d 20 c5 04 3d 40 cc 4d 3d 14 38 f1 bc
       0.0317401 0.032414556 0.050243616 -0.029445685
000140 56 59 7d bd b0 6c ab 3c 63 4e b0 bd 48 b0 3e bd
       -0.061852776 0.02092585 -0.08608701 -0.046554834
000150 0c 3f 6a bd e4 d9 6f 3d 2e 83 d3 3d 54 64 5b 3d
       -0.057189032 0.058557406 0.10327755 0.053562477
000160 b0 05 50 bc d4 52 2b 3d 2c 59 80 bd 96 5c 37 bd
       -0.0126966685 0.041827038 -0.06267008 -0.04476603
000170 9c 37 a7 3d 00 12 9b 3c 50 68 55 3c 68 12 d9 3d
       0.081649035 0.018929482 0.013025358 0.10599214
000180 6c d5 8b 3d 36 de 94 bd c8 2c 10 bc dc 04 43 3d
       0.06827816 -0.07268946 -0.008799739 0.047612056
000190 a0 d2 5a 3c 48 30 c8 3d b0 4b 7a 3c 34 95 64 3d
       0.013355881 0.09774834 0.015276834 0.055806354
0001a0 24 e1 9a 3d 40 32 2b 3c b0 00 c4 3b b2 82 d0 bd
       0.075624734 0.010448992 0.0059815273 -0.10181178
0001b0 70 f6 25 3c 74 7d 17 bd 04 cf b2 bc 44 24 d5 3d
       0.010129556 -0.036984876 -0.021827228 0.10407308
0001c0 68 3c 87 3c da 63 a1 3d f0 4f 8d 3c 2c 6b d2 3d
       0.016508296 0.07880373 0.017250031 0.10274348
0001d0 b2 9c c3 3d c6 df 32 bd 70 f2 a4 bd c8 9b 00 3d
       0.09551372 -0.04367044 -0.08054054 0.031398565
0001e0 28 4c 40 bd a8 52 77 3d 48 e1 6e bc 7a f5 b1 3d
       -0.04694763 0.06038156 -0.014580078 0.08689399
0001f0 30 0b a5 3d ea 9e 2b bd c8 20 84 bd 00 00 b3 35
       0.080587745 -0.0418996 -0.06451565 1.3336539e-06
000200 f4 ef c9 3d b0 07 b4 3d 14 ff 19 3d 2c bb 72 3d
       0.098602206 0.08790529 0.037596777 0.059260532
000210 7e 94 96 bd 00 21 14 3b 04 fd bc bd 68 91 59 3d
       -0.073525414 0.0022602677 -0.092279464 0.053117186
000220 88 2d 0f bd aa c2 a3 3d 7a be 88 3d 50 4b 3c 3d
       -0.03495553 0.079961136 0.066769555 0.04597026
000230 ac ca d9 3d 4c 65 57 3d a4 3f 5a 3d b0 43 4d 3c
       0.1063436 0.05258684 0.05328335 0.012528345
000240 b8 2c db bd f4 d6 2c bd 8b 54 64 bd 4c 23 e1 bd
       -0.10701889 -0.042197183 -0.05574469 -0.109930605
000250 1b 4a 60 bd 00 4b a9 39 8c 91 62 bd e8 03 17 bd
       -0.054758172 0.0003229007 -0.055314586 -0.03686896
000260 68 07 3a 3d fc c8 65 3d be 26 a6 3d 82 44 9a 3d
       0.04541722 0.056099877 0.08112858 0.07532598
000270 7a a7 b3 bd ca 4a e3 bd 18 b2 e4 3d 5a 5f 8c 3d
       -0.08772178 -0.11098249 0.11166781 0.06854124
000280 30 57 cc 3d 07 df b2 bd a0 18 9b bd ae 8c 17 bd
       0.09977567 -0.08733945 -0.07573056 -0.036999397
000290 80 1b 70 3c c0 51 97 bc d8 90 ff 3c 06 39 bb 3d
       0.014654994 -0.018471599 0.031196997 0.09141736
0002a0 64 cc d0 3d d2 d8 e2 3d 50 a9 92 3b f0 32 41 3c
       0.101952344 0.110765114 0.00447575 0.01179193
0002b0 b1 9c ad bd 54 ed d6 bd 5a 92 c5 bd 92 79 ac 3d
       -0.08477152 -0.104944855 -0.09647055 0.08421625
0002c0 c4 3b 03 3d f6 91 de 3d e0 8d 84 bb 98 69 a1 3c
       0.03203942 0.108676836 -0.004045233 0.019703671
0002d0 48 f5 c2 3c 50 a5 83 bb 9f 2a 75 bd 77 56 e6 bd
       0.0237986 -0.0040175095 -0.0598551 -0.112469606
0002e0 88 85 54 3d 94 d8 a7 3d a0 15 2d 3c c0 5e 10 bb
       0.051885158 0.08195606 0.010564238 -0.0022029132
0002f0 1a 4c 8f 3d bd 59 5a bd c0 6d 60 3d 94 50 54 bd
       0.06996937 -0.053308237 0.054792166 -0.051834658
000300 95 23 a1 bd 78 9d 7d 3d 40 b4 c9 3a f8 8c 9c bd
       -0.07868115 0.061917752 0.0015388802 -0.07644075
000310 08 2d 1b bd da b8 9b 3d 58 82 b9 bd f0 65 f7 3b
       -0.037884742 0.07603617 -0.09058064 0.0075499937
000320 b8 41 cf 3d 84 3a 25 bd 24 34 a0 3d ea a0 c0 3d
       0.10119957 -0.040339008 0.07822445 0.09405692
000330 24 c1 3c 3d d0 84 7e bc 00 d0 e2 b7 56 d6 17 bd
       0.04608263 -0.015534595 -2.7038157e-05 -0.03706964
000340 a0 ae 08 3b 44 77 66 bd 80 35 3e bc 08 53 21 bd
       0.0020856038 -0.056266084 -0.011609435 -0.039385825
000350 f8 43 ab bd 80 b5 b6 3c 4e 76 6e bd 6c 7f ed bc
       -0.083625734 0.022303343 -0.058218293 -0.028991424
000360 94 57 e8 bc 37 0b 7e bd 58 c2 ff 3c d4 77 5e 3d
       -0.028362073 -0.062022414 0.0312206 0.054313496
000370 46 aa 9c 3d b0 7c 59 bd a1 f9 eb bd be a1 e4 3d
       0.076496646 -0.053097427 -0.11522222 0.111636624
000380 04 82 37 3d
       0.044801727

convtranspose.bias f4 [3]
000000 34 8f 46 3d fc 84 a3 3d 2f 87 b0 bd
       0.048476413 0.07984349 -0.08619534
