examples/onnx/1l_conv_transpose/network.onnx (onnx, 1326 bytes, 2 tensors)

convtranspose.weight f4 [3, 3, 5, 5]
00000000: 5053 d1bb 2069 df3b 8075 c6ba c817 443d
00000010: fc92 85bd 7095 d43c 4417 abbd 501c f2bb
00000020: 98e5 84bd daca 1abd 986d 703d e04b 75bb
00000030: c0fe 143c 0940 b9bd deac 5ebd 3436 c43d
00000040: 7094 fcbb da8b 92bd f23a d43d 80f9 853a
00000050: 943a a4bd 6c8f 5ebd b872 39bd b036 5f3d
00000060: 926b 07bd 261c 8c3d 1024 ed3b 6c9a 563d
00000070: 4e25 9e3d 3e3b b33d bc53 953d e829 0abc
00000080: 0d8e e3bd 8033 663c 0007 623b 5aa0 08bd
00000090: 7a8a e8bd c0a4 ed3c b84d 55bc 8a08 aa3d
000000a0: 28d3 88bd a0ef 533b e8e2 e7bd 54c5 b8bc
000000b0: 3304 9bbd 9ac3 8e3d 5c0f 1fbd 5a62 a03d
000000c0: b0b6 473d 3a49 cc3d 0021 833c a015 78bc
000000d0: 1e69 8f3d 1e63 e23d d079 583c 42d1 adbd
000000e0: 5084 a9bb 20d7 24bd 60ad babb 1017 dabc
000000f0: 4829 1abd 3e54 c63d 8061 b63b 30d4 753d
00000100: ea2e 9cbd 64a6 acbd f795 61bd 400a bd3c
00000110: 0056 d9ba 5e39 d7bd 8081 2f3c 8c6d 5a3d
00000120: 008f ad39 e60f 9abd 1093 413d 680b 703d
00000130: ab69 dfbd 9895 d8bc 040d 553d beea d53d
00000140: 68d7 7e3d 405a 91bc d91b 6ebd 78ff c0bc
00000150: 0ec1 8bbd b914 e4bd e000 70bc 2836 b0bd
00000160: e897 b93d 6090 e83b a4e3 a93d 98d4 07bc
00000170: 4c57 bdbc 9d66 85bd 3add 46bd c0dd 8cba
00000180: 60a6 7d3d d05f 25bd e024 dc3d b61f c63d
00000190: 40b2 743d 6012 d3bd 50b1 7cbc 5c8e 75bd
000001a0: c444 583d bcfa 023d a241 b33d e05c c13d
000001b0: 20ab 12bd 10cf 283d f0d6 dc3c a9e0 e6bd
000001c0: 9489 db3d cbe4 b7bd 7c83 0dbd 202a c63c
000001d0: 4e16 acbd 18a2 9ebc 00b0 8a37 449a 543d
000001e0: 2403 513d 868b bdbd a8df a73c 3876 36bc
000001f0: e219 813d cbcb 74bd da29 2cbd 10c5 093d
00000200: b2fa b83d 50f6 c23d ec29 683d b081 583c
00000210: 68d7 503d 6e10 da3d a0fe 09bc 7ebf 0dbd
00000220: b4e9 4c3d b0d5 03bc 400c bf3d 2268 e33d
00000230: 269e abbd d9e0 91bd 3c75 7d3d e86f c3bc
00000240: 55a9 8dbd de14 12bd d852 7e3d 6922 cfbd
00000250: 105b c13c 94cc 2d3d b426 d93d 705c 6e3c
00000260: d424 1dbd 5ac0 e83d 3c8e 36bd 3c6b 443d
00000270: 91a2 b9bd 0084 b4b9 40c8 3f3c 489c 953d
00000280: c08b 283d 80c4 d0bd 8025 02bb b836 9d3c
00000290: e0e4 f43c 921f 31bd 42ac 31bd e272 8d3d
000002a0: 7479 f8bc a985 cbbd d6db d13d c278 e1bd
000002b0: 8854 0c3c 000a 9d3d 88fc 003d 6e62 a23d
000002c0: ca1f 59bd 70f3 873d 9aa2 c3bd a82a c93d
000002d0: d4d4 6f3d 3852 423d fe37 843d 90b4 dfbc
000002e0: 60c9 ba3d 488a da3d 8077 50bd da7a 3cbd
000002f0: 3013 753c 2434 d7bc 284b ba3c 1c93 d6bd
00000300: 723e 64bd 506d 65bc 5001 873c 301e dc3b
00000310: e4f1 e4bd a501 cabd 19c8 64bd 0076 c83d
00000320: a431 8e3d c695 c33d a0b7 dbbc d744 ebbd
00000330: 4b04 6dbd 5685 b7bd 7052 dbbd 8803 953d
00000340: 68df 15bd ac29 733d 8a3f cb3d 2a60 86bd
00000350: 9819 423d eca6 7e3d ecc1 473d 60ae 5abc
00000360: 001f 40bd 2835 8abc f293 c83d 7c42 523d
00000370: b3ca 91bd fe21 86bd 101b f63c 3cbb 093d
00000380: e690 83bd
-0.0063881055 0.006817952 -0.0015141219 0.047874242 -0.06522176 0.025950164 -0.08354047 -0.007388629
-0.06489104 -0.03779111 0.058698267 -0.0037429258 0.00909394 -0.09045417 -0.054364078 0.09580651
-0.007708125 -0.07155581 0.103628054 0.0010221452 -0.080189854 -0.054335997 -0.04527542 0.054495513
-0.03306157 0.068413064 0.007236965 0.052393362 0.07721959 0.08751534 0.07291362 -0.008432843
-0.111110784 0.0140503645 0.0034489036 -0.03335605 -0.11354537 0.029009223 -0.013019018 0.0830241
-0.066809 0.0032338873 -0.11322576 -0.02255503 -0.0756916 0.06970902 -0.038833007 0.07831259
0.04875821 0.09974904 0.016006947 -0.015141875 0.070024714 0.11054061 0.013212636 -0.084871784
-0.0051732436 -0.04024422 -0.0056969374 -0.026622325 -0.037637025 0.09684037 0.005565822 0.06001681
-0.07626136 -0.08430174 -0.05507466 0.023076177 -0.0016581416 -0.10508989 0.010712028 0.05332713
0.00033103675 -0.07522564 0.04725939 0.058604628 -0.109088264 -0.02643852 0.052014366 0.10445164
0.062217146 -0.01774323 -0.058132026 -0.023559317 -0.06823932 -0.11136765 -0.014648646 -0.086040795
0.09062177 0.007097289 0.08295372 -0.008290432 -0.023112915 -0.065137126 -0.04855082 -0.0010747239
0.061926246 -0.040374577 0.10749221 0.09674017 0.059740305 -0.10306239 -0.015423134 -0.059950218
0.052799955 0.0319774 0.08752753 0.094415426 -0.03580773 0.041213095 0.026957959 -0.11273319
0.107196 -0.08979186 -0.03454922 0.024190009 -0.08402692 -0.019364402 1.6532838e-05 0.05190493
0.051028386 -0.092551276 0.02049239 -0.011136584 0.06303765 -0.059764665 -0.0420321 0.0336352
0.09032191 0.09519637 0.056680605 0.013214514 0.050986677 0.10647665 -0.008422524 -0.03460645
0.050027564 -0.008046553 0.093285084 0.11103846 -0.08379774 -0.071229644 0.06187938 -0.023857072
-0.06917063 -0.03566443 0.062090725 -0.10113985 0.023602992 0.04243143 0.10603085 0.014548406
-0.0383652 0.11364813 -0.04456924 0.04795383 -0.0906421 -0.00034430623 0.011705458 0.07305199
0.0411489 -0.101937294 -0.0019858778 0.019191131 0.029894292 -0.043243 -0.04337717 0.06906678
-0.03033135 -0.09937603 0.102470085 -0.11009361 0.008565076 0.07667923 0.031490833 0.0792893
-0.053008832 0.06638229 -0.09552498 0.09822589 0.058552578 0.04744169 0.06455992 -0.027307779
0.091204405 0.10670906 -0.050895214 -0.046015598 0.014958188 -0.02626998 0.022740915 -0.10477278
-0.055723615 -0.014003113 0.016480118 0.006717466 -0.111789495 -0.09863595 -0.05585489 0.09788132
0.06943062 0.095500514 -0.026820958 -0.114877395 -0.057865422 -0.08960979 -0.10709083 0.07276064
-0.03659001 0.059365913 0.099242285 -0.065613106 0.04738769 0.062170908 0.048768923 -0.013347238
-0.046904564 -0.01687105 0.09793843 0.051332936 -0.0711874 -0.06549452 0.030042201 0.033625826
-0.064241216

convtranspose.bias f4 [3]
00000000: 70f9 4a3c b511 adbd 2c06 9b3d
0.012388572 -0.08450643 0.075695366
