examples/onnx/4l_relu_conv_fc/network.onnx (onnx, 14453 bytes, 8 tensors)

conv1.weight f4 [2, 1, 5, 5]
0	0x3e1e505d	0.15460344
1	0x3e2f1617	0.1709827
2	0x3cd82d10	0.026388675
3	0x3d87cec6	0.06631236
4	0x3e013971	0.12619568
5	0x3dbf7842	0.09349109
6	0x3e186735	0.1488312
7	0x3d9fef7a	0.078093484
8	0xbbd9ba00	-0.0066444874
9	0x3db5737e	0.08859919
10	0x3cbb8518	0.022890612
11	0xbc7ff700	-0.015622854
12	0x3b12a200	0.0022374392
13	0x3d4c7620	0.04991734
14	0x3e19b0f9	0.15008916
15	0x3e14f403	0.14546208
16	0x3d6bc8a4	0.057564393
17	0x3e3faa09	0.18717207
18	0x3e1e143f	0.15437411
19	0xbe27bffd	-0.16381831
20	0x3e1ab639	0.15108575
21	0x3e3d9781	0.18514825
22	0x3d31b640	0.043386698
23	0xbdd4339d	-0.10361407
24	0xbe475237	-0.19464956
25	0xbe20433b	-0.15650646
26	0xbb5cc200	-0.003368497
27	0xbe116562	-0.1419883
28	0x3da42ed2	0.08016743
29	0x3cbf5630	0.023356527
30	0x3e48cb51	0.19608809
31	0xbdb63c60	-0.08898234
32	0x3d3502ec	0.04419224
33	0xbe1e5bad	-0.15464659
34	0x3da3d84e	0.08000241
35	0xbd55404c	-0.05206327
36	0x3da29002	0.079376236
37	0xbe2b3028	-0.16717589
38	0x3e02d589	0.1277677
39	0x3d904d1a	0.07045956
40	0xbdd23a47	-0.10265022
41	0xbe2e19d3	-0.17002039
42	0x3e305d51	0.17223097
43	0x3de27a7a	0.11058517
44	0xbe1679cb	-0.14694898
45	0xbc421800	-0.011846542
46	0x3db0e622	0.08637644
47	0xbe39f30f	-0.18159126
48	0x3de24982	0.11049177
49	0x3d45a048	0.04824856

conv1.bias f4 [2]
0	0x3da91502	0.0825596
1	0x3e11387d	0.14181705

conv2.weight f4 [3, 2, 5, 5]
0	0xbe08428a	-0.13306633
1	0xbca53278	-0.020165667
2	0x3d78ac7c	0.06071137
3	0xbcd5f984	-0.026119955
4	0xbdb8903e	-0.09011887
5	0xbc06bd50	-0.008223847
6	0x3ddd02c8	0.10791546
7	0xbda54038	-0.080688894
8	0xbdfdc256	-0.12390582
9	0x3d96d702	0.07365228
10	0xbd21619e	-0.039399736
11	0xbdd0fbbc	-0.102042645
12	0xbd17f662	-0.037100203
13	0x3daac3c4	0.083381206
14	0xbd2b1c98	-0.041775316
15	0xbe01f7a0	-0.12692118
16	0x3e0fb599	0.14034118
17	0xbdb2f6a0	-0.08738446
18	0x3dae4df6	0.085109636
19	0xbc46b3a0	-0.012127787
20	0xbda16dda	-0.07882281
21	0x3e0a9939	0.13535012
22	0x3a033e00	0.0005006492
23	0xbd996e2d	-0.074917175
24	0xbdf48dc0	-0.11941099
25	0x3ddce5b4	0.10786
26	0x3da2cc72	0.07949151
27	0x3dfe31b2	0.124118224
28	0xbe0b350a	-0.13594452
29	0x3dbef1fa	0.09323497
30	0xbc9a1260	-0.01880759
31	0x3d93a78e	0.07209693
32	0xbcb1ce60	-0.021704853
33	0x3e00b5e1	0.12569381
34	0xbdcc0487	-0.09961801
35	0x3db5ea76	0.088826105
36	0x3d5bae78	0.053633183
37	0x3d37dd70	0.044888914
38	0x3d986574	0.07441226
39	0x3dcf111c	0.10110685
40	0xbdba4ad8	-0.090963066
41	0xbd8a0306	-0.06738858
42	0xbd99cdc4	-0.0750995
43	0xbdfa3a12	-0.12218107
44	0x3d61e15c	0.05514656
45	0x3d500b94	0.05079229
46	0xbd218fee	-0.039443903
47	0x3cfc93e8	0.030832246
48	0xbd95cf4f	-0.073149316
49	0x3d1dee4c	0.038557336
50	0xba775e00	-0.00094363093
51	0xbc54fd00	-0.012999773
52	0xbcf7ade0	-0.030234277
53	0xbcc1146c	-0.023569308
54	0x3dbb55ba	0.091472104
55	0x3af14a80	0.0018409044
56	0xbdb7a074	-0.08966151
57	0xbbbfb1e0	-0.005850062
58	0x3d269e64	0.040678397
59	0xbd8a755d	-0.067606665
60	0x3da76a1e	0.08174537
61	0x3e05586f	0.13022016
62	0xbc021b00	-0.007941008
63	0x3d6df184	0.058091655
64	0xbe07567d	-0.13216586
65	0xbab56880	-0.0013840348
66	0x3da4bbd2	0.080436364
67	0x3cd63b70	0.026151389
68	0xbd3d3c4c	-0.04620008
69	0x3ddae062	0.10687329
70	0x3da064ea	0.07831748
71	0x3b1ec740	0.002422765
72	0xbb54d9c0	-0.0032478422
73	0xbb1cd0c0	-0.0023928136
74	0x3cdc8cd0	0.026922613
75	0x3dd65de8	0.1046713
76	0x3ded295a	0.11580153
77	0x3d13fa24	0.036127225
78	0x3d800304	0.06250575
79	0x3d0fe9b4	0.035134986
80	0xbcef3ecc	-0.029204749
81	0x3ddde61c	0.108349055
82	0xbe09b87d	-0.13449283
83	0x3e046ea5	0.12932833
84	0xbdc99ca3	-0.09844329
85	0xbda93cc3	-0.082635425
86	0x3ca62130	0.020279497
87	0xbdc9ba46	-0.09849982
88	0x3c4634a0	0.012097508
89	0x3a88db00	0.0010441244
90	0xbe03b3e6	-0.12861595
91	0xbd8088ad	-0.06276069
92	0xbe05795b	-0.13034575
93	0xbd49408c	-0.049133822
94	0x3dde2ada	0.10848017
95	0x3de277b2	0.11057986
96	0x3d97a37e	0.074042305
97	0xbdb22659	-0.086987205
98	0x3df8ed5a	0.12154646
99	0x3dadb510	0.084818006
100	0x3b167480	0.0022957623
101	0xbd554772	-0.05207009
102	0xbd154276	-0.036440335
103	0xbdbe6708	-0.092969954
104	0xbda6d569	-0.081461735
105	0x3bd8cb40	0.006616026
106	0xbcea0f2c	-0.028571688
107	0xbdfd3714	-0.12364021
108	0x3d9b633c	0.07587287
109	0x3d8a6218	0.06756991
110	0x3d90b2d6	0.0706536
111	0xbd911993	-0.07084956
112	0x3dce39e2	0.10069634
113	0xbdb23435	-0.08701364
114	0x3d9eb570	0.0774945
115	0xbd7307ec	-0.059333727
116	0x3c27c800	0.010240555
117	0x3cd66f70	0.026176184
118	0x3df45bc6	0.11931567
119	0xbb4f2980	-0.003161043
120	0xbde81042	-0.11331226
121	0xbd74f8ea	-0.059807695
122	0x3db20f8c	0.086943716
123	0xbdb9ecf6	-0.090784
124	0xbdaa1530	-0.083048224
125	0x3d2b67cc	0.041847035
126	0xb9408800	-0.00018361211
127	0x3dd9d8ae	0.106370315
128	0x3dd2857c	0.102793664
129	0x3dd5440e	0.10413371
130	0x3da60cda	0.0810792
131	0xbe0e1181	-0.13873865
132	0xbdf6fc58	-0.120598495
133	0x3db1eeb2	0.08688106
134	0x3d9e80ea	0.07739432
135	0xbd255d52	-0.0403722
136	0xbcbfe0b0	-0.023422569
137	0xbd1b5d2a	-0.037930645
138	0x3e103749	0.1408359
139	0x3dd33db4	0.10314503
140	0x3c4f3180	0.012646079
141	0x3e050593	0.12990408
142	0x3df6a0b6	0.12042372
143	0x3dca2cc4	0.098718196
144	0xbc7128b0	-0.014719173
145	0xbd9e872b	-0.07740625
146	0xbdbce9db	-0.09224292
147	0xbd818d2d	-0.06325755
148	0x3ce464a0	0.027880013
149	0x3d247a90	0.040155947

conv2.bias f4 [3]
0	0xbca66a70	-0.020314425
1	0xbe0b132b	-0.13581531
2	0x3ba134e0	0.0049196333

d1.bias f4 [48]
0	0x3dd5e8da	0.104448035
1	0xbd8ed46e	-0.069741115
2	0x3d891130	0.066927314
3	0x3e10f41a	0.14155617
4	0xbe0c11ab	-0.13678615
5	0xbdcbfa1c	-0.09959814
6	0x3c6b3130	0.014354989
7	0x3e01f78a	0.12692085
8	0xbd9490dc	-0.07254192
9	0xbca2c670	-0.019870013
10	0x3ca186b8	0.01971756
11	0x3ca6b720	0.020350993
12	0x3dca9b30	0.09892881
13	0x3d8fa392	0.070136204
14	0x3d9cbdec	0.07653412
15	0x3cd85bc0	0.026410937
16	0x3b6092c0	0.0034267157
17	0x3d715ae8	0.058924586
18	0xbc5b0a90	-0.0133692175
19	0x3ca0fe20	0.019652426
20	0x3d86e168	0.065859616
21	0xbd686ee0	-0.056746364
22	0xbdf08450	-0.117439866
23	0xbddc8548	-0.10767609
24	0xbd4ab8ca	-0.049492635
25	0xbd68c154	-0.056824997
26	0x3e0b4102	0.13599017
27	0xbdbc7a38	-0.09202999
28	0xbda15315	-0.07877175
29	0x3dd66c3e	0.10469864
30	0xbc2f6730	-0.010705754
31	0xbe1387ee	-0.14407322
32	0x3d8d3912	0.06895651
33	0x3dcc6daa	0.09981854
34	0x3e13aadc	0.14420646
35	0xbd676c7e	-0.05649995
36	0x3de6fa50	0.11278212
37	0xbdac4d2c	-0.08413157
38	0xbdafaa66	-0.08577423
39	0xbdd0ec8a	-0.10201366
40	0xbcfa1ef4	-0.030532338
41	0x3d112530	0.035435855
42	0x3d1c30fc	0.038132653
43	0xbe0f6bcf	-0.1400597
44	0x3e0cd832	0.13754347
45	0xbda1c21d	-0.07898352
46	0xbd574054	-0.052551582
47	0xbd3e4518	-0.04645261

d2.bias f4 [10]
0	0xbd98df8b	-0.074645124
1	0xbcbd02b8	-0.023072585
2	0xbc41ae20	-0.0118213
3	0x3e0b3bca	0.13597026
4	0xbe003eca	-0.12523952
5	0xbddd10c2	-0.10794212
6	0xbdca2b26	-0.09871511
7	0x3d4dc838	0.05023977
8	0x3cb8bce0	0.022551
9	0x3dbbeec8	0.09176403

onnx::MatMul_32 f4 [48, 48]
0	0x3d9f74ac	0.07785925
1	0x3dacf718	0.08445567
2	0xbd82cbd1	-0.06386531
3	0x3e0a4806	0.13504037
4	0x3da60846	0.08107047
5	0xbe03df40	-0.12878132
6	0xbcb80580	-0.02246356
7	0xbd888a31	-0.06666983
8	0xbd384656	-0.044988953
9	0xbd1de344	-0.038546816
10	0xbd52d3f8	-0.05147168
11	0x3db8d2c8	0.09024578
12	0x3e0192dc	0.12653679
13	0x3d713090	0.058884203
14	0xbe11c56d	-0.14235468
15	0x3e10a124	0.1412397
16	0xbd696784	-0.056983486
17	0xbcf63110	-0.030052692
18	0xbd7ea920	-0.06217301
19	0xbdde94aa	-0.10868199
20	0xbde2b730	-0.110700965
21	0xbbb0c1e0	-0.0053942055
22	0x3de6fc98	0.11278647
23	0x3d11df98	0.035613626
24	0x3dd907f0	0.10597217
25	0x3d74f744	0.059806123
26	0x3ba762e0	0.0051082224
27	0xbd689a36	-0.056787692
28	0x3cf60140	0.030029893
29	0x3cbdee58	0.02318494
30	0x3dd933d0	0.106055856
31	0x3dbd55ba	0.09244867
32	0xbdda9296	-0.1067249
33	0x3cc5bcf0	0.024137944
34	0xbd8ebfca	-0.069701746
35	0x3e0f1ddc	0.13976234
36	0x3e0e3c1a	0.13890114
37	0xbe0e9c6c	-0.13926858
38	0xbc9aa968	-0.018879607
39	0x3e04508a	0.12921348
40	0x3db38d96	0.0876724
41	0x3e057d46	0.1303607
42	0xbd48e6c2	-0.049048193
43	0xbe057577	-0.1303309
44	0xbd0630f4	-0.03276153
45	0x3b614dc0	0.0034378618
46	0xbcc65024	-0.024208136
47	0x3dc884d6	0.097909614
48	0x3de56834	0.11201516
49	0x3dfb74a4	0.12278107
50	0xbc653360	-0.0139893
51	0xbd9744d9	-0.073861785
52	0x3e026b34	0.12736207
53	0xbd6d3e00	-0.057920456
54	0xbca6b0c8	-0.020347968
55	0xbd9de10e	-0.077089414
56	0xbddc59c1	-0.10759307
57	0xbd96adef	-0.07357394
58	0x3d9f71aa	0.077853516
59	0xbd4db996	-0.050225817
60	0x3e0ad568	0.1355797
61	0xbe0e2f9c	-0.13885349
62	0xbe0140e3	-0.12622409
63	0xbdc59f00	-0.096494675
64	0x3e10895a	0.14114895
65	0xbc7440a0	-0.014907986
66	0x3dbdb454	0.092629105
67	0x3dbaed72	0.0912732
68	0x3d100e50	0.0351699
69	0x3dcdccdc	0.100488394
70	0x3d91ff34	0.07128754
71	0x3d8c24d0	0.06842959
72	0x3d858e06	0.065212294
73	0x3d6a879c	0.057258233
74	0x3b691540	0.0035565645
75	0xbdec80cd	-0.11548004
76	0x3d3dd14c	0.04634218
77	0x3dcbeeaa	0.09957631
78	0x3d91195c	0.07084915
79	0xbdddd756	-0.10832088
80	0xbd193da2	-0.037412293
81	0x3ddecc24	0.108787805
82	0x3b1f8d00	0.0024345517
83	0x3d937376	0.07199757
84	0xbddfc615	-0.10926453
85	0xba066800	-0.00051271915
86	0xbe120fb9	-0.1426381
87	0x3daf53be	0.085608944
88	0x3e009182	0.12555507
89	0x3d8e0aa4	0.06935623
90	0x3d9a6ad0	0.07539904
91	0xba16cf00	-0.00057528913
92	0xbddd53a4	-0.10806969
93	0x3d26d4c0	0.040730238
94	0xbdbe4692	-0.09290804
95	0x3c8161c0	0.015793681
96	0xbd5102ee	-0.051028185
97	0x3cb67458	0.022272274
98	0x3d7c412c	0.06158559
99	0x3dcdedb2	0.100551024
100	0xbdec1084	-0.115265876
101	0xbde43182	-0.11142255
102	0x3cdadbd8	0.026716158
103	0x3c525e50	0.012839869
104	0x3cbd8c90	0.023138314
105	0xbdc3c921	-0.09559847
106	0xbd553a28	-0.052057415
107	0x3e07d19e	0.13263556
108	0xbdfd58a9	-0.12370426
109	0xbdafb126	-0.0857871
110	0xbbc1b0a0	-0.005910948
111	0xbd3242a2	-0.043520577
112	0xbe091a15	-0.13388856
113	0xbdfa027a	-0.122075036
114	0xbde8464e	-0.113415346
115	0x3d88503c	0.066559285
116	0x3d00e050	0.03146392
117	0x3c81daf0	0.015851468
118	0xbd5ebbbe	-0.054378264
119	0xbb2e76c0	-0.0026621073
120	0x3db932f8	0.09042925
121	0xbddeecc8	-0.10885006
122	0x3db5c696	0.08875768
123	0xbc167d00	-0.009185076
124	0xbd812a97	-0.063069515
125	0xbbc019e0	-0.0058624595
126	0xbda8e91a	-0.082475856
127	0xbdb3a585	-0.08771805
128	0xbd5d1f6c	-0.053985044
129	0xbc3d2a10	-0.011545673
130	0x3d9c109c	0.076203555
131	0xbd93622f	-0.071964614
132	0x3ddb69ec	0.10713562
133	0xbd087aba	-0.033320166
134	0xbd96a95a	-0.0735652
135	0xbe10c49a	-0.14137498
136	0xbded1be4	-0.11577585
137	0x3da3f7f2	0.08006276
138	0x3d401794	0.046897486
139	0x3d89ff04	0.067380935
140	0x3c7e6640	0.015527308
141	0x3db7227e	0.08942126
142	0x3df1a400	0.11798859
143	0xbda40aff	-0.0800991
144	0x3db8d6fa	0.090253785
145	0xbb8e5e40	-0.0043447316
146	0x3cd00940	0.025395036
147	0x3da08776	0.07838337
148	0x3df8a894	0.12141529
149	0x3da20400	0.07910919
150	0xbd903a8f	-0.07042419
151	0x3db13ffa	0.08654781
152	0x3e0bf72c	0.13668507
153	0x3dd0865a	0.101818755
154	0xbda55c95	-0.08074299
155	0x3c341870	0.0109921545
156	0x3d9b79d8	0.07591599
157	0x3dddce90	0.10830414
158	0x3d9fa52c	0.07795176
159	0x3df029a0	0.11726689
160	0xbd3327c0	-0.04373908
161	0xbdb97044	-0.09054616
162	0xbde05e49	-0.109554835
163	0x3dd46a7a	0.10371871
164	0x3d90d154	0.07071176
165	0x3e1010ee	0.14068958
166	0xbe0ea87b	-0.13931458
167	0xbc356490	-0.011071339
168	0xbde317f4	-0.11088553
169	0x3cf1ead0	0.029530913
170	0xbbf3c660	-0.0074394196
171	0x3d285df4	0.041105226
172	0xbd3a1c22	-0.045436986
173	0xbd81e6be	-0.06342839
174	0xbd6a4732	-0.057196803
175	0x3d84e9e4	0.064899236
176	0x3dcd2ad8	0.100179374
177	0x3b8a4180	0.004219234
178	0x3cf62a00	0.030049324
179	0x3dc60c68	0.09670335
180	0xbd9c6fc9	-0.07638509
181	0xbdb042a4	-0.08606461
182	0xbd048548	-0.03235367
183	0x3c8bc0c0	0.017059684
184	0xbd6640e2	-0.05621422
185	0xbcc25b00	-0.023725033
186	0xbd300794	-0.042975977
187	0x3daf71be	0.085666165
188	0x3d681c04	0.056667343
189	0x3d2b7df4	0.041868165
190	0xbda76e24	-0.081753045
191	0xbcd05c04	-0.025434501
192	0x3d283090	0.041061938
193	0x3e0915d4	0.13387233
194	0x3db50652	0.08839096
195	0xbe1193b4	-0.142165
196	0x3d95d7de	0.07316564
197	0xbcac57e0	-0.021037996
198	0xbdef208a	-0.11676128
199	0x3c6094d0	0.013707355
200	0x3ccd4728	0.025058344
201	0x3cb24e50	0.021765858
202	0x3b88c540	0.0041739047
203	0xbd773d48	-0.060361177
204	0xbd97970c	-0.07401857
205	0x3e0f4572	0.13991335
206	0xbda2f9cd	-0.07957802
207	0x3dd134ec	0.10215172
208	0xbcb98c60	-0.022649944
209	0x3dd2c63e	0.10291718
210	0xbcd85cc0	-0.026411414
211	0xbb70ed00	-0.0036762357
212	0x3dec1660	0.11527705
213	0x3df63b54	0.12023035
214	0xbb4262c0	-0.002966091
215	0xbe0480ef	-0.1293981
216	0x3df579b0	0.11986101
217	0x3d5b671c	0.05356513
218	0xbd3c37d4	-0.04595168
219	0x3d0063d4	0.031345204
220	0xbda3e530	-0.080026984
221	0x3cabb3c8	0.02095975
222	0x3df7f96c	0.1210812
223	0x3e13ca6e	0.1443269
224	0x3ca3e048	0.020004407
225	0xbe07af55	-0.13250478
226	0xbcdd5c54	-0.027021565
227	0x3dcd722a	0.10031541
228	0xbe136d0f	-0.14397071
229	0x3c22e760	0.009942859
230	0xbddb1130	-0.10696638
231	0xbdfeaff0	-0.12435901
232	0x3d1f2cd8	0.038861126
233	0xbdf7c99a	-0.12098999
234	0x3dc7170c	0.09721193
235	0x3de778c8	0.11302334
236	0xbe0835ef	-0.13301824
237	0xbdcce91e	-0.10005401
238	0xbe0820b2	-0.13293722
239	0x3c0ff0c0	0.008785427
240	0xbde0719e	-0.10959171
241	0x3d9549f6	0.072894976
242	0x3d48c4a0	0.04901564
243	0x3d4a1258	0.0493339
244	0xbc945120	-0.01810509
245	0xbdc5f064	-0.096649915
246	0x3d9920ce	0.0747696
247	0x3dfa2b88	0.12215334
248	0xbdfa3ba3	-0.12218406
249	0xbdcbe36c	-0.09955487
250	0x3da11254	0.07864824
251	0xbdd4fd60	-0.1039989
252	0x3dffe940	0.12495661
253	0x3de34124	0.11096409
254	0x3d0d9630	0.034567058
255	0xbd6c3548	-0.057668

onnx::MatMul_33 f4 [48, 10]
0	0xbd9358d6	-0.071946785
1	0x3dba5f9c	0.09100267
2	0x3da366e2	0.07978608
3	0x3ddd52a4	0.10806778
4	0xbcfda270	-0.030961245
5	0xbd55f668	-0.052236944
6	0xbd4152a0	-0.047197938
7	0x3ce111e8	0.027474359
8	0xbdaaf84d	-0.08348141
9	0xbd9109b6	-0.0708193
10	0xbd24d078	-0.040237874
11	0xbd80c7fd	-0.06288145
12	0xbd7e6e66	-0.062117003
13	0xbdb27403	-0.08713534
14	0xbd94f844	-0.072739154
15	0xbd27508e	-0.040848307
16	0xbcc60a10	-0.02417472
17	0x3de320c4	0.11090234
18	0x3e0e37ee	0.13888523
19	0x3da1c096	0.07898061
20	0xbd3e347e	-0.04643678
21	0xbcdeac9c	-0.027181916
22	0x3de2c778	0.11073202
23	0xbe07b832	-0.13253859
24	0x3d20f084	0.039291874
25	0xbc1762c0	-0.009239852
26	0xbd1988b0	-0.03748387
27	0xbbacce40	-0.0052736104
28	0xbda1b600	-0.07896042
29	0xbd079df2	-0.033109613
30	0xbdece645	-0.11567358
31	0x3e03758c	0.1283781
32	0xbd144f7a	-0.036208607
33	0xbe102f80	-0.1408062
34	0x3c3e49b0	0.011614248
35	0xbdc27980	-0.094958305
36	0xbb383140	-0.0028105527
37	0x3d4e5d3c	0.050381884
38	0x39e9bc00	0.00044581294
39	0x3de17d3c	0.11010215
40	0x3bfefe60	0.0077817887
41	0x3dce82fa	0.100835755
42	0xbe0c16e8	-0.13680613
43	0x3dbde7e0	0.09272742
44	0x3d240b94	0.040050104
45	0x3e025560	0.1272788
46	0x3e0f6114	0.14001876
47	0x3d2e58c0	0.042565107
48	0x3b562200	0.0032674074
49	0xbdc926e6	-0.098218724
50	0x3d56f20c	0.052476928
51	0x3d2048f4	0.039132074
52	0xbe09fc74	-0.1347521
53	0xbc985e80	-0.018599749
54	0x3d829dd6	0.06377761
55	0x3ddc2d88	0.10750872
56	0x3d5a8184	0.053346172
57	0xbde5d4b4	-0.112222105
58	0xbdb7c02e	-0.08972202
59	0xbe113850	-0.14181638
60	0x3e03041a	0.12794533
61	0xbc7f9a10	-0.015600696
62	0x3d9a832c	0.0754455
63	0x3c97c928	0.018528536
64	0x3dc800e6	0.09765796
65	0xbe1283b1	-0.14308049
66	0x3d4b0688	0.049566776
67	0x3cde2f58	0.027122185
68	0x3d1e40ac	0.038635895
69	0x3d0b5628	0.034017712
70	0x3c86a900	0.016438007
71	0xbd20075a	-0.03906951
72	0x3d76fd6c	0.060300276
73	0xbdc0c098	-0.09411734
74	0x3d0b3e74	0.033995107
75	0xbd495c00	-0.049160004
76	0xbd67db12	-0.056605406
77	0xbd95026f	-0.07275855
78	0xbd869e58	-0.065731704
79	0x3de2a9b4	0.110675246
80	0x3c545b10	0.012961164
81	0x3dc755e0	0.09733176
82	0xbdde02b6	-0.10840361
83	0x3da2f036	0.07955973
84	0x3dfa0234	0.122074515
85	0x3e11f44e	0.14253351
86	0x3d4cbeb8	0.04998657
87	0xbdb29080	-0.087189674
88	0x3c749a30	0.014929339
89	0x3c9f1720	0.019420207
90	0xbc973950	-0.018459946
91	0x3c17faf0	0.009276137
92	0xbd82d7ec	-0.0638884
93	0xbdc6c3b8	-0.09705299
94	0xbd44ceda	-0.04804883
95	0xbd4c3de2	-0.049863704
96	0x3e06dc3c	0.1316995
97	0x3d00bc58	0.03142962
98	0xbd932f06	-0.071867034
99	0x3e13404e	0.14379999
100	0xbcfa818c	-0.03057935
101	0x3c6f4680	0.014604211
102	0xbcd89238	-0.02643691
103	0x3db91ade	0.09038328
104	0xbd915f7e	-0.07098292
105	0xbde1782e	-0.110092506
106	0xbc2047c0	-0.0097827315
107	0x3c94bba0	0.018155873
108	0xbd6e3950	-0.058160126
109	0xbd445694	-0.04793413
110	0xbc831970	-0.01600334
111	0xbda0aa6a	-0.07845004
112	0xbe090160	-0.13379431
113	0x3dc6d658	0.097088516
114	0x3d1a65e4	0.037694827
115	0x3de70924	0.1128104
116	0x3db4429a	0.08801766
117	0xbc5aace0	-0.013346881
118	0xbda47910	-0.08030903
119	0xbda1bf48	-0.07897812
120	0xbcd11174	-0.025521018
121	0x3d3a86c0	0.045538664
122	0x3e1215e6	0.14266166
123	0xbb714e80	-0.0036820471
124	0x3d4a3f58	0.049376816
125	0x3de4fe78	0.111813486
126	0x3cd3d2b8	0.025857314
127	0xbda2bbeb	-0.07945999
128	0xbdee30fe	-0.11630438
129	0xbd465114	-0.048417166
130	0xbd1952a2	-0.03743232
131	0x3c98c210	0.018647224
132	0x3d9c57e0	0.07633948
133	0xbdddbb11	-0.10826696
134	0xbd71b9ae	-0.05901497
135	0x3e0ee7c2	0.13955596
136	0xbe07d237	-0.13263784
137	0xbcdab100	-0.026695728
138	0xbde875cb	-0.11350592
139	0xbe006207	-0.12537394
140	0x3da32540	0.07966089
141	0x3d87143c	0.06595656
142	0xbd122c98	-0.03568706
143	0x3da28ef2	0.07937421
144	0xbdf69557	-0.12040203
145	0xbdc31c8e	-0.09526931
146	0x3c8a8250	0.016907841
147	0xbe103d0b	-0.14085786
148	0x3dd6a830	0.10481298
149	0xbd2ec88a	-0.042671718
150	0xbdfe842e	-0.12427555
151	0x3de09594	0.1096603
152	0x3e091ec2	0.1339064
153	0x3e1147f2	0.14187601
154	0xbdf35b93	-0.11882701
155	0x3c377000	0.0111961365
156	0xbe0f4c28	-0.13993895
157	0x3cfa9f08	0.03059341
158	0x3b231a80	0.0024887621
159	0xbd1d27aa	-0.038367905
160	0x3ddaa5c0	0.106761456
161	0x3d7b8ff8	0.061416596
162	0x3de0fb54	0.10985437
163	0x3e12b43c	0.14326566
164	0xbded5840	-0.11589098
165	0x3d581414	0.052753523
166	0x3daaa44c	0.083321184
167	0xbe0ea020	-0.1392827
168	0x3dff9c5c	0.12480995
169	0x3c0521f0	0.008125767
170	0xbd77e874	-0.06052442
171	0xbccf77ac	-0.025325619
172	0xbde03a8e	-0.109486684
173	0x3d2c1864	0.04201545
174	0xbdab16b4	-0.0835394
175	0xbda57f02	-0.080808654
176	0x3cf03208	0.029320732
177	0x3be837e0	0.007086739
178	0x3d1beec4	0.0380695
179	0x3db21e82	0.08697225
180	0xbd832761	-0.06403995
181	0x3d4a2774	0.04935403
182	0x3c6251f0	0.013813481
183	0xbd3a830c	-0.045535132
184	0x3db1aca8	0.0867551
185	0xbc412ea0	-0.011790901
186	0x3d3b3b6c	0.045710966
187	0x3ddcea4c	0.10786876
188	0x3d2985ec	0.041387483
189	0x3d1f057c	0.03882359
190	0xbd8fff64	-0.07031134
191	0x3dcadf2a	0.099058464
192	0xbc923e58	-0.017851993
193	0x3db45470	0.08805168
194	0x3e0ff45c	0.1405806
195	0xbe0c1e62	-0.13683465
196	0x3d6de16c	0.058076307
197	0x3ded85b4	0.115977675
198	0xbdb2ff5e	-0.08740114
199	0xbdb2283e	-0.08699082
200	0xbdc545b6	-0.09632437
201	0xbdcbe7a2	-0.0995629
202	0x3d93c742	0.0721574
203	0xbb7a7e40	-0.0038222224
204	0xbca6c808	-0.020359054
205	0x3d26d03c	0.04072593
206	0x3dc4e17c	0.0961332
207	0x3deaf65c	0.114727706
208	0x3db2ef0a	0.08736999
209	0xbdb1162f	-0.08646809
210	0xbd664666	-0.05621948
211	0xbd3747d4	-0.044746235
212	0xbdf4b5da	-0.11948748
213	0xbd7a1552	-0.06105549
214	0x3e0a31de	0.13495585
215	0x3c6cbbe0	0.01444909
216	0xbe0e9393	-0.13923483
217	0xbd5a31f4	-0.053270295
218	0xbe00cd8c	-0.1257841
219	0xbc759860	-0.014989942
220	0xbd1e682a	-0.038673557
221	0x3d9d53b8	0.07681984
222	0x3dc825bc	0.09772822
223	0xbdd349c1	-0.10316802
224	0xbd54d72e	-0.051963024
225	0x3deaa9c8	0.114581645
226	0xbd60e100	-0.054902077
227	0x3d373a7c	0.04473351
228	0xbc221240	-0.009892046
229	0xbde83ccc	-0.11339721
230	0x3cf04a70	0.02933237
231	0xbde1ea57	-0.11031025
232	0x3d804aa2	0.06264235
233	0xbc9b7330	-0.018975824
234	0xbe030613	-0.12795286
235	0xbdf6bbe8	-0.12047559
236	0xbdcd096e	-0.10011564
237	0xbd5a8902	-0.053353317
238	0xbde249e2	-0.11049248
239	0xbda80760	-0.08204532
240	0x3bd60340	0.006531149
241	0xbde16b96	-0.110068485
242	0x3cad6118	0.021164462
243	0x3d883dfe	0.06652449
244	0x3d9ad3bc	0.075599164
245	0x3c8b2278	0.01698421
246	0x3da16826	0.07881193
247	0xbd385254	-0.04500039
248	0x3dcc2752	0.09968437
249	0xbdbac138	-0.09118885
250	0x3de79750	0.113081574
251	0x3e02b7f4	0.12765485
252	0xbe1150a7	-0.14190923
253	0x3dc99cec	0.098443836
254	0xbbb32fc0	-0.0054683387
255	0xbdf4ff8b	-0.119628035
