examples/onnx/variable_cnn/network.onnx (onnx, 628396 bytes, 4 tensors)

convs.0.weight f4 [2, 1, 3, 3]
00000000: 32b3 453e aa3c 2b3e f6ad f6bd a281 033e
00000010: f005 913d 1879 6a3d 6b18 a8be 406c 1ebd
00000020: 598d a63e 7d80 833e 10c6 1f3e 33ee 71be
00000030: 109e 0b3e ae3a 673e d371 1ebe f0c0 80bd
00000040: a67d 2f3e 836b 2bbe
0.19306639 0.1672236 -0.12044899 0.1284242 0.070812106 0.05724439 -0.3283113 -0.038677454
0.32529715 0.25683966 0.15602899 -0.23626022 0.13634515 0.22580978 -0.15473108 -0.062868
0.17137775 -0.16740231

convs.0.bias f4 [2]
00000000: 93d1 1cbe fcb9 803d
-0.15314321 0.06285474

fc.weight f4 [100, 1568]
00000000: 22eb ad3c 02a2 9f3c a844 3a3c 8c9b 8abb
00000010: c4dc 733c 9a51 c83c f0f3 c93b 1e80 08bc
00000020: ecfd b83b 402e ebb9 4825 803c 3134 2dbc
00000030: 3811 b2bc d48c a6bb 38e3 9c3c 9e26 923c
00000040: 08ed 163b 98d0 383c 307c beba 0002 45b9
00000050: 008d 1aba e09e 633a e4f8 af3c d488 9c3b
00000060: 90b2 823a ec48 8c3c 4429 353c a81e 1fbb
00000070: d6e3 963c c8de 3b3b 9a32 cebc a052 b1ba
00000080: 755f 36bc 0cd0 6ebc 146f 263c 36f5 913c
00000090: e17d 5ebc f23f 98bc e058 253b a681 b63c
000000a0: 3478 aabb 2823 8f3b d6ba 983c 2bf3 78bc
000000b0: 4cf2 2c3c 80a6 8cbc f858 423c 99a2 c9bc
000000c0: acfb 453c 60c0 d2bb e0c9 123c 22cd 85bc
000000d0: 8416 5c3c aaa3 8b3c 3888 e13b 805c 5f39
000000e0: 2028 6fbb c653 9ebc 5abf 6abc 882c ad3c
000000f0: 68fc 18bc d228 adbc 7856 9d3b e83c 53bb
00000100: ea1a 8ebc 519f 4dbc cc02 a53c f856 aa3c
00000110: a589 2abc 6464 213c c671 a73c c8e3 7cbb
00000120: 89b8 a1bc 0038 f0b9 2003 c4ba 90bc fc3b
00000130: 64d2 503c 275a 5bbc 9499 403c 70f5 93bb
00000140: 8a4e bb3c 7090 713b 3827 48bb 9c1e 0fbc
00000150: c72c 7dbc 08fa e7bb f456 1abc 1067 d03b
00000160: c4d8 123c 041b b8bb 5074 ef3b 1c1d 943c
00000170: fec1 b13c 6859 053b e83a a43c 2871 413c
00000180: a049 1cbb db93 c7bc 5ac2 ab3c d0aa 2f3c
00000190: 405e fd3b a06a 723b 3098 173b 78a3 b4bb
000001a0: 9846 0a3c c8ec b5bc b04d fb3b 948a b53c
000001b0: fb96 cdbc 9a02 b7bc fdc0 2fbc aa4e bc3c
000001c0: 063f 81bc b891 4d3c c64b bf3c b396 90bc
000001d0: 4ae7 4cbc 2319 93bc 34a2 593c 2a41 863c
000001e0: 420e c33c 7ca6 3cbc 4091 c23c 2eff af3c
000001f0: 60c9 fc3b 640c 783c 403f 493c 8891 cfbb
00000200: b09b 443c 84be 0e3c 081f 88bb e805 c33b
00000210: c8b8 cebb 7bcb bfbc 086d a43b 60eb 9c3b
00000220: 1815 733b 306f be3c c62b 8e3c c07b 143b
00000230: a0f3 643b 89c9 adbc 3063 53bb 4030 383a
00000240: 5085 29bb 2c61 a93b ac1a bfbb 6629 cb3c
00000250: fe24 acbc 5acb 07bc baf0 aa3c 889d 4fbb
00000260: a831 b4bb d079 c1ba 1042 aa3b 908f f03b
00000270: db31 83bc 2537 9fbc 6078 1bba 68fc 4c3c
00000280: 30c2 5a3c 007c 92b9 c0af b33a 5ee9 b73c
00000290: 8637 ca3c ec45 af3b 4498 81bc 7ff9 8dbc
000002a0: 80d0 9f39 74e0 87bb 8d69 ccbc 38fe 413c
000002b0: 9ef2 92bc f8ac 75bc a08f 9c3b f500 b4bc
000002c0: 780f 2ebc b051 76bc 608f 533b 307b 783c
000002d0: c05f adb9 38bf e6bb 9465 833c d0be 6a3c
000002e0: ac2b 83bc 2de1 c7bc 567b 18bc b022 a93a
000002f0: 7040 c6bb 1cf5 443c a027 863b 5a7f 9b3c
00000300: 105c fbbb 30f0 a3bc b022 593b 64d5 5bbc
00000310: afce cbbc 6911 a1bc 488f 223c 4986 a7bc
00000320: 9c69 c33b 04ff 763c 5891 babc 1bab 66bc
00000330: 24e9 263c f4fc f6bb 88f9 b6bc 89fb 97bc
00000340: 107f 67bb c461 143c 1f1c 81bc a89f a2bc
00000350: d8c8 0b3b 915b 79bc 60ee 643b 97a4 aabc
00000360: 42bf 31bc 108c 83ba 2896 353c 86c0 b5bc
00000370: 726b b83c 8683 ad3c dca0 953c aa2a c73c
00000380: 886b b7bc 1084 ff3b 4ced 993b cad8 c6bc
00000390: a87c 9ebc 715f 38bc f074 143c e468 183c
000003a0: 8019 2d3c f8dc 2f3b 68f6 143b f4e6 bdbc
000003b0: 4463 cebc 2210 9d3c 6848 143b 94a4 efbb
000003c0: 5f4c 92bc 3455 e7bb 3670 87bc 0e43 ab3c
000003d0: 4045 343c 48d0 a4bb 00a4 9138 5062 923c
000003e0: e05a 333a 10c0 51bb f807 afbc ae26 52bc
000003f0: 8ef6 cdbc a838 6c3c c84a 913b f60e cd3c
0.021230284 0.019486431 0.011368908 -0.0042299684 0.014884178 0.024452973 0.006163113 -0.008331327
0.005645504 -0.00044857152 0.015642777 -0.010571525 -0.021736726 -0.005082706 0.019151315 0.01784068
0.0023029465 0.011280201 -0.001453286 -0.00018788129 -0.00058956444 0.0008683037 0.021480985 0.0047770534
0.0009971429 0.017124616 0.011057202 -0.0024279747 0.018419188 0.0028666724 -0.025170613 -0.0013528652
-0.011131157 -0.014575969 0.010158319 0.017817121 -0.013579817 -0.018585179 0.0025229976 0.022278618
-0.0052023176 0.0043682046 0.018643778 -0.0151946945 0.010555815 -0.017169237 0.011862032 -0.024613665
0.012083929 -0.0064316243 0.008959264 -0.016333167 0.0134331025 0.017045815 0.0068826936 0.00021301396
-0.0036492422 -0.019327056 -0.014327848 0.021139398 -0.009337522 -0.021137629 0.0048015676 -0.0032232348
-0.017346818 -0.012550191 0.020142935 0.020793423 -0.010408794 0.009850595 0.020439994 -0.0038587917
-0.019741314 -0.0004581809 -0.0014954545 0.007712908 0.0127454735 -0.013388193 0.011755366 -0.0045153424
0.022864599 0.0036859773 -0.0030540954 -0.008735325 -0.01545257 -0.0070793666 -0.009420145 0.0063599423
0.008962814 -0.005618455 0.0073075667 0.018080287 0.021698948 0.002034748 0.02004762 0.011806764
-0.0023847595 -0.024362495 0.020966697 0.010721877 0.0077321827 0.0036989823 0.0023131482 -0.005512651
0.008439682 -0.022207633 0.007669173 0.022160806 -0.025096407 -0.022340108 -0.010727164 0.022986729
-0.015777122 0.012546949 0.023351561 -0.017649984 -0.0125063155 -0.017956322 0.013283301 0.016388495
0.02381051 -0.011514302 0.023750901 0.021483984 0.0077144355 0.015139673 0.012283146 -0.0063344873
0.012000009 0.008712415 -0.00415409 0.005951632 -0.0063086487 -0.023412457 0.0050178804 0.004788801
0.003709143 0.023246378 0.017354857 0.0022656769 0.003493525 -0.021214264 -0.0032255165 0.0007026233
-0.0025866814 0.0051690545 -0.005832037 0.024800014 -0.021013733 -0.008288229 0.02086674 -0.003167959
-0.0054990835 -0.0014761034 0.0051958635 0.0073413327 -0.016014984 -0.019435475 -0.0005930718 0.01251135
0.013351962 -0.00027939677 0.0013708994 0.022450145 0.024684679 0.0053489115 -0.015819676 -0.017330883
0.00030482188 -0.00414663 -0.024952674 0.011840396 -0.017937955 -0.014994852 0.0047778636 -0.021973113
-0.010623805 -0.015034124 0.0032281503 0.015166089 -0.0003306847 -0.007041838 0.016039647 0.01432772
-0.016012035 -0.024399364 -0.009306749 0.0012904014 -0.006050162 0.012021329 0.004094079 0.018981624
-0.007670887 -0.020011991 0.0033132248 -0.0134175755 -0.024878828 -0.019661622 0.009921856 -0.020449774
0.0059635174 0.015075449 -0.022774383 -0.014078881 0.010187421 -0.0075374786 -0.022335783 -0.018552558
-0.0035323538 0.009056512 -0.01576048 -0.01985152 0.002132943 -0.015219585 0.0034932122 -0.020830436
-0.010848822 -0.0010036249 0.011083163 -0.022186529 0.022512171 0.02118088 0.01826518 0.024312336
-0.022390142 0.0077977255 0.0046974774 -0.024273295 -0.01934655 -0.011253224 0.009061083 0.009302352
0.010565162 0.0026834588 0.0022729877 -0.023181416 -0.025193818 0.019172732 0.0022626165 -0.0073133204
-0.017858682 -0.0070597176 -0.016532999 0.020905998 0.011002839 -0.005029712 6.944686e-05 0.017869145
0.00068418495 -0.0032005347 -0.021366104 -0.012826605 -0.02514198 0.014417805 0.0044339634 0.025031548

fc.bias f4 [100]
00000000: b0fb 333b bcd1 623c e09f 8a3b ccf7 c53c
00000010: e6d4 90bc 5e50 ce3c 2e41 993c 3b6f 59bc
00000020: f455 9b3c 5641 bd3c baa4 b93c ef14 61bc
00000030: 0c0a 8bbc 0127 5fbc d00f 05bc 6a68 b13c
00000040: 144f 953c 906b c13c 1047 aa3b a576 8dbc
00000050: da94 cb3c 284e 583c a834 213b 60a0 5d3a
00000060: 9048 ba3c c82e 5bbc 04f9 603c 48fc b13c
00000070: 00f4 163c ac8e 503c 7802 7bbb 88ff 8dbb
00000080: d397 9ebc 007a 323b 1803 95bc c0cc 8dba
00000090: e80b 443b e8e1 86bc ac13 1e3c 4851 52bc
000000a0: a999 bfbc 4031 613c cb91 59bc dc82 293c
000000b0: 6e00 a13c 1062 373c 6ca0 b93c 58c4 c7bb
000000c0: bcfb 8c3b c0cf ac39 d848 50bb 8051 ea3b
000000d0: a017 df3b d0e4 f4bb 9ce0 c9bc 6088 4d3b
000000e0: a875 aa3b bcd7 023c d476 a43c fc8b b33b
000000f0: af9e b2bc 96e6 bebc 020c c03c debe 19bc
00000100: 5cdf 6e3c f4ea 723c 9cb3 81bb 60ab 4c3c
00000110: 0804 a5bb 2ce6 7e3c 1054 c93c 9d3d 2cbc
00000120: 7496 9fbc d0d1 f9bb 0816 8c3c 4443 4a3c
00000130: 0446 efbb bafd 53bc fc52 8cbc a1ed 5ebc
00000140: e835 0a3b c8a6 89bc b682 a83c c03c e3ba
00000150: c873 363c 30db ac3c dc31 74bc e027 25bb
00000160: b853 92bc 3c0e 96bc f688 b23c df4d 29bc
00000170: de26 88bc 9073 c73a 68c0 973c 5087 2b3c
00000180: 5cd7 4abc 64cd ad3c 207d 7aba 0ccf 9f3c
0.002746325 0.01384395 0.0042304844 0.02416601 -0.017679643 0.025184806 0.018707838 -0.013271148
0.018961884 0.023102444 0.022661556 -0.013737901 -0.016972564 -0.013620139 -0.008121446 0.021656234
0.018226184 0.02361086 0.0051964596 -0.017268488 0.024851251 0.013202228 0.0024598036 0.00084543787
0.022739679 -0.013377853 0.013731245 0.021726742 0.009213448 0.012729328 -0.0038301032 -0.00433344
-0.019359505 0.0027233362 -0.018189952 -0.0010818467 0.0029914323 -0.016465142 0.009648245 -0.012836762
-0.0233887 0.013744652 -0.013279389 0.010346141 0.019653525 0.0111928135 0.022659503 -0.006096404
0.00430247 0.00032961182 -0.00317817 0.007150829 0.0068082362 -0.0074735656 -0.024643235 0.0031361803
0.005202014 0.007986005 0.020076193 0.005479334 -0.021804182 -0.023303311 0.023443226 -0.009383885
0.01457962 0.014826525 -0.0039581787 0.012492031 -0.005035881 0.015557807 0.024576217 -0.010512737
-0.019480921 -0.0076238886 0.017100349 0.012345139 -0.0073020477 -0.012938911 -0.017129414 -0.01360646
0.002108926 -0.01680316 0.02057014 -0.001733683 0.011136003 0.02110061 -0.0149044655 -0.002520077
-0.017862186 -0.018317334 0.021793824 -0.010333507 -0.016620096 0.0015216935 0.018524364 0.010469273
-0.012380447 0.021216102 -0.0009555388 0.019507907
