examples/onnx/prelu_gmm/network.onnx (onnx, 42877 bytes, 5 tensors)

linear_layer_stack.0.weight f4 [82, 41]
0.014118236 0.10037383 0.064529695 -0.034116514 0.046755306 -0.0164677 0.013719984 -0.038981196
-0.118619636 -0.020228554 -0.028046047 -0.015078199 0.0072162338 -0.053802077 -0.04205797 -0.025768485
0.015049588 0.028946007 -0.025119353 -0.026854057 -0.021671692 0.03149659 0.0044130953 -0.013944918
-0.015169358 -0.0017560174 0.04110095 0.014280027 0.007067723 0.040300388 0.00069407106 -0.022115028
0.0062567675 -0.015182268 -0.013507148 0.0026221774 -0.029237181 0.015654327 -0.0115743065 -0.03384895
0.014983354 -0.025429728 -0.041372713 -0.016557371 0.0151102245 0.019588627 0.014985623 -0.014319443
0.0025526325 0.0020321275 -0.0125992745 0.005829585 0.000524042 0.0076330616 0.0029565687 0.0021732976
-0.025207728 -0.01428979 -0.008505247 -0.002091921 0.0009848609 0.013306818 0.0052456325 -0.00027451184
0.020450342 -0.008698843 -0.035305135 0.044603784 -0.006729053 -0.0037504665 0.02592373 0.023120465
0.00854319 0.004033911 0.01671959 -0.0036711348 0.013901056 -0.009253149 -0.009661704 -0.027724858
-0.03060925 -0.002333506 0.026227076 0.097115904 0.043783735 -0.04369178 0.013468928 -0.10503724
-0.009020087 0.024964593 0.06800548 0.0522436 0.006168406 0.01068952 -0.04270188 -0.03688562
-0.05876243 0.025405554 0.021304542 0.012997957 0.0053011146 0.017226208 -0.03677263 0.0124466885
-0.0043295906 -0.042376768 0.0007812802 0.029975493 -0.0044351895 0.04801284 0.0069914307 0.07294608
-0.008992986 0.02612422 -0.012672622 -0.0073043895 -0.02881193 0.030057352 0.035104778 -0.0013625186
-0.027486721 -0.055854753 -0.02276198 0.0052549154 0.0590866 -0.0077105626 -0.027234029 -0.05155719
-0.0045598173 0.032400444 -0.024396682 -0.005405371 -0.010055649 -0.036687456 0.0145243 0.009738653
-0.010581135 0.005836607 0.023489162 -0.034932584 -0.004918132 0.029216101 0.023393044 0.048668917
0.01930284 -0.011471839 -0.018981984 -0.0045324247 -0.0056328336 -0.016218204 0.024098212 -0.0032164692
0.05935008 0.007960602 0.045815244 -0.03403655 -0.0118527785 -0.011529427 0.0058714855 0.04113967
-0.0007174243 0.02159193 -0.07600442 -0.014895304 -0.03682093 0.059787434 0.042163465 0.13172688
0.035501115 0.062418167 -0.07082727 -0.008276206 0.065979265 0.02726481 -0.036049828 -0.0853738
0.01898353 -0.012317311 -0.0031711112 0.032528028 -0.013593009 -0.016595367 -0.0030825895 0.008127878
0.04286049 -0.0036189763 -0.01634924 -0.014312962 -0.0056368215 -0.03375224 -0.01453842 -0.021772658
0.06396492 -0.019101448 -0.06555932 -0.0246883 -0.03358059 -0.07323296 -0.005115029 0.018271474
0.088844664 0.01663611 0.020396814 0.04518157 0.0029931383 -0.010361317 0.022651331 0.020507595
0.06406395 0.009725824 0.031565912 -0.084143005 0.024348112 0.02056928 -0.04993177 -0.07039019
0.0046326974 0.03201416 0.011693224 -0.041677866 0.034978617 -0.0073085427 0.042265285 0.001534197
0.0055121635 -0.0030905916 -0.037786208 0.0021664451 -0.039350726 0.031143611 0.021956844 -0.0046281014
0.002198767 0.06832591 -0.03651475 -0.078139246 -0.021742418 0.027726209 -0.037495267 -0.007847938
0.037591092 -0.04351819 0.01986243 -0.053658172 -0.04639517 -0.0019436573 0.022854954 -0.02972405
0.0028099536 -0.0046627796 0.008193737 -0.012593194 0.0144151505 -0.0039543435 -0.008151214 0.011503574
00000000: 2c50 673c cb90 cd3d 2528 843d c2bd 0bbd
00000010: 7e82 3f3d 45e7 86bc c9c9 603c bfaa 1fbd
00000020: daee f2bd 5ab6 a5bc d3c0 e5bc 8d0a 77bc
00000030: 2876 ec3b 915f 5cbd fa44 2cbd 6e18 d3bc
00000040: 8c92 763c 2d20 ed3c 1ac7 cdbc 0afd dbbc
00000050: d588 b1bc 9102 013d ba9b 903b 3a79 64bc
00000060: e688 78bc 2b2a e6ba 7859 283d c6f6 693c
00000070: 5c98 e73b 0512 253d 52f2 353a 932a b5bc
00000080: 9205 cd3b 0cbf 78bc 164d 5dbc d6d8 2b3b
00000090: d082 efbc 813d 803c 29a2 3dbc 32a5 0abd
000000a0: be7c 753c 0152 d0bc 6f76 29bd 53a3 87bc
000000b0: e090 773c 5478 a03c 4286 753c 199c 6abc
000000c0: 114a 273b 712d 053b 306d 4ebc 1a06 bf3b
000000d0: dd5f 093a c31e fa3b fec2 413b e26d 0e3b
000000e0: 7080 cebc b91f 6abc 9759 0bbc 9c18 09bb
000000f0: 7316 813a d704 5a3c 8ee3 ab3b 5bec 8fb9
00000100: 7a87 a73c 9885 0ebc 1e9c 10bd 75b2 363d
00000110: 637f dcbb 63ca 75bb 015e d43c 2167 bd3c
00000120: bcf8 0b3c e62e 843b 86f7 883c 6c97 70bb
00000130: 41c1 633c 859a 17bc 204c 1ebc 3e1f e3bc
00000140: 40c0 fabc bced 18bb 2ada d63c b4e4 c63d
00000150: 9356 333d 27f6 32bd c7ac 5c3c c41d d7bd
00000160: fdc8 13bc 8c82 cc3c 7546 8b3d 63fd 553d
00000170: 5720 ca3b 1923 2f3c 2be8 2ebd 6015 17bd
00000180: e0b0 70bd 4f1f d03c dd86 ae3c 62f5 543c
00000190: f9b4 ad3b fa1d 8d3c e69e 16bd 32ed 4b3c
000001a0: 3ddf 8dbb 4393 2dbd d4ce 4c3a 2a8f f53c
000001b0: 1155 91bb 1da9 443d 5f18 e53b c164 953d
000001c0: 5157 13bc 7602 d63c d4a0 4fbc a959 efbb
000001d0: ff06 ecbc d63a f63c 07ca 0f3d 8a96 b2ba
000001e0: d52b e1bc f4c7 64bd 5577 babc 6d31 ac3b
000001f0: ca04 723d e3a8 fcbb e619 dfbc a22d 53bd
00000200: 856a 95bb 54b6 043d 8ddb c7bc 8a1f b1bb
00000210: 73c0 24bc 9645 16bd 54f7 6d3c df8e 1f3c
00000220: 7f5c 2dbc 0241 bf3b 586c c03c 7815 0fbd
00000230: 4828 a1bb 9b56 ef3c c5a2 bf3c 0f59 473d
00000240: fd20 9e3c 61f4 3bbc 1b80 9bbc bc84 94bb
00000250: a293 b8bb 0adc 84bc 9d69 c53c 66cb 52bb
00000260: 1219 733d 2f6d 023c c4a8 3b3d e969 0bbd
00000270: 2832 42bc ece5 3cbc 9765 c03b 1282 283d
00000280: 8811 3cba 8fe1 b03c 35a8 9bbd 6f0b 74bc
00000290: 8bd1 16bd abe3 743d 99b3 2c3d 69e3 063e
000002a0: 9e69 113d 31aa 7f3d e30d 91bd ed98 07bc
000002b0: 2320 873d 735a df3c fca8 13bd 75d8 aebd
000002c0: 5983 9b3c 8cce 49bc 6bd2 4fbb 1c3c 053d
000002d0: 36b5 5ebc 02f3 87bc 4505 4abb cb2a 053c
000002e0: 7b8e 2f3d 592c 6dbb d7ee 85bc ea80 6abc
000002f0: 16b5 b8bb ca3f 0abd 8e32 6ebc 935c b2bc
00000300: 0a00 833d a47a 9cbc f743 86bd 1e3f cabc
00000310: cd8b 09bd 2afb 95bd f99b a7bb 0fae 953c
00000320: 31f4 b53d 7448 883c 3817 a73c 4f10 393d
00000330: 8728 443b 83c2 29bc 498f b93c 8bff a73c
00000340: f633 833d 1059 1f3c 424b 013d 2b53 acbd
00000350: b175 c73c e880 a83c 4185 4cbd bb28 90bd
00000360: e2cd 973b 4821 033d f094 3f3c 69b6 2abd
00000370: bd45 0f3d 807c efbb 5d1e 2d3d 1c17 c93a
00000380: 619f b43b 868b 4abb b6c5 1abd ebfa 0d3b
00000390: 3a2e 21bd e320 ff3c d7de b33c 54a7 97bb
000003a0: 3019 103b 74ee 8b3d 7e90 15bd 7807 a0bd
000003b0: 281d b2bc 1322 e33c a394 19bd a394 00bc
000003c0: 1ef9 193d 2140 32bd 89b6 a23c acc8 5bbd
000003d0: dd08 3ebd 51c2 feba 503a bb3c da7f f3bc
000003e0: 3327 383b 3bca 98bb 063f 063c af53 4ebc
000003f0: 862d 6c3c 7093 81bb ab8c 05bc 7d79 3c3c

linear_layer_stack.0.bias f4 [82]
-0.036572028 -0.005687329 0.06377229 0.02173392 0.09783341 0.01590397 0.020197203 0.013258777
-0.002153 0.0068263854 -0.0132072205 -0.010140115 -0.0010696846 0.0020051077 0.034519132 -0.0038361973
0.07659861 0.023627834 -0.046336 0.09773007 0.0143897 -0.03825353 0.022911571 -0.018487148
0.044643857 -0.0015566658 0.0063099023 -0.0035309703 0.005334105 0.0032178026 0.05024403 0.011874505
0.024402013 0.01445014 -0.025350207 0.027015211 -0.0027484535 0.04439687 0.10440249 -0.029974362
0.0008712129 0.07598304 -0.0339381 -0.00061081 0.011336426 -0.048392057 0.081745625 0.0502841
0.013029321 0.017098047 0.015516137 0.07243195 -0.020205462 -0.05378767 0.032487456 0.0062706782
0.015808383 0.05477019 -0.018176131 0.015946776 -0.009748273 0.01890264 0.038362265 0.07633411
0.00044738254 0.056260254 0.049752433 -0.00813428 0.014845151 0.0049356795 -0.00048623735 -0.023530796
-6.847017e-05 0.016273953 0.043751556 0.030174263 0.03255858 0.01001032 -0.013481105 0.02574653
0.006815118 -0.016476851
00000000: 8dcc 15bd c65c babb 0c9b 823d 550b b23c
00000010: e25c c83d 0b49 823c 9b74 a53c 573b 593c
00000020: 5919 0dbb dfaf df3b 1963 58bc ba22 26bc
00000030: a934 8cba 2068 033b ef63 0d3d b668 7bbb
00000040: bbdf 9c3d 298f c13c d1ca 3dbd b426 c83d
00000050: c7c2 6b3c bcaf 1cbd 0cb1 bb3c 5c72 97bc
00000060: 7adc 363d 0909 ccba 4cc3 ce3b da67 67bb
00000070: b7c9 ae3b c5e1 523b afcc 4d3d 498d 423c
00000080: bbe6 c73c 48c0 6c3c 3dab cfbc 014f dd3c
00000090: 661f 34bb 7ed9 353d f9d0 d53d cb8c f5bc
000000a0: 1c62 643a ff9c 9b3d ad02 0bbd c41e 20ba
000000b0: 6bbc 393c c036 46bd 406a a73d b3f6 4d3d
000000c0: ef78 553c 3411 8c3c 6537 7e3c 3457 943d
000000d0: ed85 a5bc 7650 5cbd 9111 053d 437a cd3b
000000e0: 9580 813c b556 603d 1ce6 94bc d0a2 823c
000000f0: 38b7 1fbc b6d9 9a3c c021 1d3d 0f55 9c3d
00000100: ab8e ea39 2771 663d 35c9 4b3d a545 05bc
00000110: 1439 733c 7bbb a13b aced feb9 a8c3 c0bc
00000120: a597 8fb8 f450 853c d534 333d 0430 f73c
00000130: 255c 053d 5302 243c dadf 5cbc 63ea d23c
00000140: 5a51 df3b 76fa 86bc

linear_layer_stack.3.weight f4 [82, 82]
-0.012894657 0.010808159 -0.015898116 -0.0070474106 0.030802963 0.023111448 -0.0040245233 -0.00922162
-0.016785784 0.025204653 0.026276901 0.0032501318 0.023241311 -0.00964047 -0.009997165 0.016645448
-0.013529004 -0.0052433074 -0.02006874 -0.010064036 0.027808363 0.03511253 -0.003428923 -0.013223766
-0.018866507 0.026096152 0.022748003 0.027909284 -0.0022741253 0.023839695 0.030787457 -0.012696221
-0.013396882 -0.014232199 0.021808922 -0.014524951 -0.014444832 -0.010963968 -0.022587558 0.025627118
-0.017258173 -0.021798696 0.026619498 0.023570208 -0.008193615 0.029811675 -0.012500677 -0.010765898
-0.0062990985 0.019358113 -0.024530219 -0.020888649 0.028793175 0.031030139 -0.0067262934 -0.015687302
-0.012640658 0.029819215 0.021644479 -0.01222331 0.023284217 -0.0071223453 -0.0075112735 -0.014143687
0.024438536 -0.015342673 -0.010935037 0.026422078 0.0152441915 0.031243492 0.011939187 0.025036866
-0.00028569857 -0.008654713 0.025498465 0.032938868 0.029773442 0.02022754 -0.012278168 -0.011618653
0.0062114173 -0.015482734 0.03881398 -0.009674964 0.044554934 0.032132525 -0.027351689 -0.018877365
0.010015703 0.038951203 0.046882823 -0.023927689 -0.0312205 -0.00419945 -0.025207825 0.03549955
0.021822978 -0.01771855 0.03337677 0.013994037 0.06668445 0.04534069 -0.032482162 -0.042705476
0.015798664 0.03178371 0.04178944 -0.019073207 -0.024358233 -0.026932549 0.035087403 -0.028177354
-0.028471619 0.03710584 0.037583176 0.058516998 -0.019454882 0.039345562 0.031496916 0.030086957
0.05614968 -0.03184842 0.051094167 0.04982741 -0.028206777 -0.022576451 0.035818953 -0.042143546
0.036590222 0.023253532 0.024229024 -0.019476999 0.058410022 0.055276174 -0.032851942 -0.042728927
0.019323772 0.033931166 0.028166253 -0.025364961 -0.026015392 0.02179475 -0.028664686 0.014876394
0.032616705 0.04940077 -0.026602471 0.04882454 0.03956683 -0.031903196 -0.015659017 -0.022762196
-0.010520133 -0.03266322 0.0014540908 0.03289845 -0.030425241 -0.033277653 -0.028403629 -0.021584919
0.027859448 0.027715782 -0.0065048197 0.03594039 0.03594358 -0.008080622 0.03908196 0.028141927
-0.02261985 -0.015887056 0.008569434 0.034101248 0.041164402 -0.020017866 -0.027027009 -0.0036529414
-0.021742634 0.031094175 0.020657092 -0.014688348 0.029057592 0.012292849 0.05832072 0.0391521
-0.027695369 -0.035509035 0.0140292505 0.027244722 0.036537923 -0.016959796 -0.021039054 -0.02487578
0.026749063 -0.024526678 -0.023342542 0.03155083 0.03369344 0.05015021 -0.016463589 0.0352326
0.027601 0.026166772 0.04967718 -0.026234055 0.04417397 0.044054884 -0.022112342 -0.018257106
0.030497162 -0.036139492 0.032334313 0.020298926 0.020706015 -0.016422598 0.051078346 0.04837653
-0.027988259 -0.037525762 0.019008517 0.03039871 0.023936281 -0.02154293 -0.021659367 0.01898215
-0.024051843 0.013000692 0.026577836 0.043283924 -0.022644894 0.043355074 0.035663232 -0.026307352
-0.014127693 -0.019519096 -0.008628312 -0.027519075 0.0012661768 0.028153863 -0.02596816 -0.027810246
-0.02442279 -0.018568309 0.02416283 0.02368659 -0.005348125 0.031077746 0.046525672 -0.010916954
0.050894123 0.037008762 -0.030676479 -0.02171732 0.011302213 0.04484883 0.053943884 -0.026961623
00000000: 1d44 53bc b414 313c c43c 82bc f7ed e6bb
00000010: 7f56 fc3c 3854 bd3c 26e0 83bb 4716 17bc
00000020: 5782 89bc fd79 ce3c a842 d73c 2a00 553b
00000030: 9064 be3c 10f3 1dbc 26cb 23bc 095c 883c
00000040: c1a8 5dbc 0dd0 abbb 3367 a4bc a0e3 24bc
00000050: 5dce e33c 28d2 0f3d c8b7 60bb 7fa8 58bc
00000060: ef8d 9abc 99c7 d53c 055a ba3c 03a2 e43c
00000070: 7e09 15bb 774b c33c fa35 fc3c cf03 50bc
00000080: 997e 5bbc 2b2e 69bc a0a8 b23c 0ffa 6dbc
00000090: 04aa 6cbc 37a2 33bc 8b09 b9bc f6ef d13c
000000a0: 0361 8dbc 2e93 b2bc 2211 da3c 4f16 c13c
000000b0: 833e 06bc 9d37 f43c a4cf 4cbc 7363 30bc
000000c0: ab68 cebb e894 9e3c 99f3 c8bc ac1e abbc
000000d0: aadf eb3c eb32 fe3c 3d68 dcbb a882 80bc
000000e0: c31a 4fbc 6d47 f43c c34f b13c 4744 48bc
000000f0: 8bbe be3c 9062 e9bb 2121 f6bb ecba 67bc
00000100: 5333 c83c d65f 7bbc df28 33bc 1d73 d83c
00000110: c6c2 793c 5af2 ff3c 949c 433c 1d1a cd3c
00000120: d0c9 95b9 7fcc 0dbc 28e2 d03c e8ea 063d
00000130: 6fe7 f33c 3ab4 a53c 5f2a 49bc 2a5c 3ebc
00000140: 2589 cb3b 4bab 7dbc 68fb 1e3d bd83 1ebc
00000150: 3c7f 363d 659d 033d a610 e0bc b4a4 9abc
00000160: e718 243c 4c8b 1f3d 3408 403d 0004 c4bc
00000170: 22c2 ffbc 8a9b 89bb a480 cebc fa67 113d
00000180: 1ac6 b23c 7e26 91bc 14b6 083d 3f47 653c
00000190: db91 883d 29b7 393d 040c 05bd f0eb 2ebd
000001a0: 336c 813c a32f 023d 672b 2b3d 6a3f 9cbc
000001b0: eb8a c7bc a6a1 dcbc cfb7 0f3d 32d4 e6bc
000001c0: 503d e9bc 4bfc 173d d1f0 193d 85af 6f3d
000001d0: d85f 9fbc d028 213d e902 013d ec78 f63c
000001e0: 35fd 653d 7d73 02bd 1e48 513d d417 4c3d
000001f0: e611 e7bc 40f2 b8bc e5b6 123d b69e 2cbd
00000200: a1df 153d 317e be3c f27b c63c 3a8e 9fbc
00000210: 593f 6f3d 4569 623d c28f 06bd 8704 2fbd
00000220: e34c 9e3c 68fb 0a3d eabc e63c 2eca cfbc
00000230: 3b1e d5bc e78a b23c 34d2 eabc 1ebc 733c
00000240: 1899 053d 7658 4a3d 6ded d9bc 3efc 473d
00000250: d410 223d edac 02bd 5747 80bc c977 babc
00000260: a35c 2cbc dec9 05bd 3197 be3a 86c0 063d
00000270: 5b3e f9bc 264e 08bd baae e8bc dbd2 b0bc
00000280: 7f39 e43c 350c e33c 6226 d5bb 3b36 133d
00000290: 9339 133d 9664 04bc 6814 203d e689 e63c
000002a0: 434d b9bc 9225 82bc d066 0c3c c0ad 0b3d
000002b0: 019c 283d 82fc a3bc bf67 ddbc 3066 6fbb
000002c0: 9c1d b2bc 36b9 fe3c 1039 a93c 66a7 70bc
000002d0: 300a ee3c f267 493c b5e1 6e3d f45d 203d
000002e0: 66e1 e2bc ec71 11bd f1da 653c 5330 df3c
000002f0: caa8 153d 45ef 8abc 185a acbc 4bc8 cbbc
00000300: da20 db3c 2cec c8bc dc38 bfbc 713b 013d
00000310: 2202 0a3d 4e6a 4d3d a6de 86bc 0f50 103d
00000320: 7e1b e23c b35b d63c 4c7a 4b3d cde8 d6bc
00000330: c4ef 343d e572 343d f124 b5bc ed8f 95bc
00000340: 2fd5 f93c 0107 14bd fc70 043d ef49 a63c
00000350: a99f a93c af88 86bc 8737 513d 7826 463d
00000360: a247 e5bc 9db4 19bd c0b7 9b3c b706 f93c
00000370: 0516 c43c cc7a b0bc fc6e b1bc 7480 9b3c
00000380: 5f08 c5bc db00 553c c3b9 d93c 7c4a 313d
00000390: c981 b9bc 1795 313d 9c13 123d 8482 d7bc
000003a0: d777 67bc 83e6 9fbc c35d 0dbc af6f e1bc
000003b0: d8f5 a53a eea2 e63c 2ebb d4bc 50d2 e3bc
000003c0: 4e12 c8bc 911c 98bc 21f1 c53c 610a c23c
000003d0: 533f afbb c296 fe3c b491 3e3d 06dd 32bc
000003e0: 5b76 503d 8096 173d 3d4d fbbc 85e8 b1bc
000003f0: eb2c 393c 68b3 373d 43f4 5c3d 9fde dcbc

linear_layer_stack.3.bias f4 [82]
0.022641558 0.089920536 0.071009815 0.10201036 0.0576675 0.04956869 0.049060754 0.030044544
0.037057843 0.031541996 0.051140916 0.03158067 0.019379849 0.09139603 0.060082506 0.06254177
0.0016472159 0.035355084 0.042933825 0.028513521 0.05884064 0.10512968 0.0026752541 0.0056507867
0.076423705 0.042931873 0.019760748 0.034235112 0.081156395 0.02373579 0.033991452 0.033428114
0.06192542 0.068358265 0.040853556 0.068968885 0.07621574 0.08313456 0.028955016 0.052916806
0.0657818 0.078517474 0.033865616 0.021068774 0.063061126 0.027760467 0.028998785 0.043836012
0.01226487 0.045445982 0.040819395 0.030283105 0.050767396 0.047168773 0.012782759 0.0243287
0.029926118 0.056274757 0.034569666 0.039012205 0.026185142 0.020389257 0.053073235 0.09171183
0.039987776 0.050949667 0.08950619 0.02480096 0.034282997 0.07811672 0.07973171 0.006466374
0.030146092 0.07347338 0.05847874 0.029075036 0.056832854 0.11553661 0.06819176 0.034596745
0.003762138 0.037725925
00000000: ca7a b93c 4228 b83d 986d 913d cfea d03d
00000010: c234 6c3d 8a08 4b3d eef3 483d fa1f f63c
00000020: f7c9 173d 2e32 013d 2379 513d bc5a 013d
00000030: 7dc2 9e3c d72d bb3d 1319 763d e615 803d
00000040: 65e7 d73a 7ed0 103d 61db 2f3d 3095 e93c
00000050: e202 713d 3b4e d73d 5153 2f3b 3c2a b93b
00000060: 0884 9c3d 55d9 2f3d 4be1 a13c 1e3a 0c3d
00000070: 5335 a63d 8f71 c23c 9f3a 0b3d ebeb 083d
00000080: 82a5 7d3d 6bff 8b3d 0f56 273d 8f3f 8d3d
00000090: ff16 9c3d 7442 aa3d 1233 ed3c 4bbf 583d
000000a0: 9cb8 863d c5cd a03d acb6 0a3d 6c98 ac3c
000000b0: 3126 813d eb69 e33c dc8e ed3c 648d 333d
000000c0: 98f2 483c 9125 3a3d 3d32 273d 4614 f83c
000000d0: 79f1 4f3d 0b34 413d c76e 513c fb4c c73c
000000e0: 9e27 f53c 5c80 663d ec98 0d3d 43cb 1f3d
000000f0: 3982 d63c 5f07 a73c 5263 593d 69d3 bb3d
00000100: 39ca 233d 99b0 503d 054f b73d 622b cb3c
00000110: 546c 0c3d a9fb 9f3d 614a a33d e0e3 d33b
00000120: f0f4 f63c 3679 963d 6787 6f3d c52e ee3c
00000130: 91c9 683d 759e ec3d 1fa8 8b3d 51b5 0d3d
00000140: 348e 763b 8086 1a3d

linear_layer_stack.6.weight f4 [1, 82]
0.16680261 -0.28562307 -0.25018936 -0.32850903 0.42563626 -0.15965325 -0.17385407 0.22554198
0.25937948 0.23499393 -0.17287634 0.21699958 0.13706776 -0.31303334 -0.20470873 -0.21090452
0.012703826 0.26173198 -0.1550494 0.20581833 -0.19103652 -0.36156058 0.020183874 0.043638136
-0.23553458 0.3131007 -0.06629032 0.24821067 -0.25948712 0.16824925 0.2568754 0.25460657
-0.20584367 -0.2104081 0.29777578 -0.23395558 -0.24734728 -0.27782226 0.2093759 -0.1736659
-0.20836169 -0.2708525 0.24870263 0.15016037 -0.20315328 0.2041601 0.20689172 -0.14464
0.091809906 -0.15094498 0.2931049 0.22139245 -0.16848944 -0.15172079 0.095640086 0.17816524
0.2153305 -0.18953808 0.24599239 0.27333823 0.18746091 0.15186308 -0.1742354 -0.33216038
0.30035508 -0.17897002 -0.2671745 0.1890417 0.24016246 -0.27538177 -0.26925832 0.050342567
0.2147193 -0.24456032 -0.19530395 -0.097825244 -0.18382569 -0.3982547 -0.23418514 0.25071684
-0.01327734 0.26999927
00000000: 4ece 2a3e 303d 92be d218 80be 5632 a8be
00000010: ffec d93e 247c 23be cd06 32be 7af4 663e
00000020: 63cd 843e 40a2 703e 7f06 31be 2335 5e3e
00000030: 7e5b 0c3e e845 a0be 2a9f 51be 5bf7 57be
00000040: b523 503c bc01 863e 45c5 1ebe 0ac2 523e
00000050: 149f 43be 781e b9be a758 a53c e7bd 323d
00000060: fa2f 71be bc4e a03e 38c3 87bd f02a 7e3e
00000070: 7fdb 84be 8849 2c3e 2c85 833e cb5b 823e
00000080: afc8 52be 3975 57be 1176 983e 0d92 6fbe
00000090: 9b48 7dbe b83e 8ebe a366 563e 79d5 31be
000000a0: c45c 55be 2ead 8abe e7ab 7e3e a4c3 193e
000000b0: 6a07 50be 580f 513e 6cdb 533e 821c 14be
000000c0: d506 bc3d 5291 1abe d811 963e b4b4 623e
000000d0: 7f88 2cbe b25c 1bbe f3de c33d f370 363e
000000e0: 997f 5c3e 4516 42be 6ee5 7b3e fdf2 8b3e
000000f0: c1f5 3f3e ff81 1b3e c46a 32be ed10 aabe
00000100: 24c8 993e eb43 37be 19cb 88be 2694 413e
00000110: 26ed 753e d7fe 8cbe 3adc 89be 0234 4e3d
00000120: 60df 5b3e 056e 7abe c2fd 47be 9a58 c8bd
00000130: cd3c 3cbe 0ae8 cbbe 3bce 6fbe f55d 803e
00000140: 3389 59bc 583d 8a3e
