examples/onnx/quantize_dequantize/network.onnx (onnx, 441 bytes, 1 tensors)

layer_1.weight f4 [1, 41]
0.1030114 0.033088133 -0.103254765 -0.112854734 0.12175116 0.09372033 -0.13708384 0.031484067
0.016443029 0.007133603 -0.0038718134 -0.070745036 -0.08892567 -0.08584027 -0.021900654 -0.035205826
-0.07499915 -0.10069425 0.016070187 0.05879715 0.0877195 -0.14558868 -0.03195419 0.11177817
0.0073019713 0.052368373 0.055390492 0.04905875 -0.14960974 0.12433332 0.13475725 0.10273799
-0.017526627 0.0051219165 0.099016815 -0.011752456 -0.14685352 -0.01711373 -0.051286757 -0.13701905
-0.0033877343
00000000: a4f7 d23d 6c87 073d 3c77 d3bd 6220 e7bd
00000010: ac58 f93d 72f0 bf3d b55f 0cbe 70f5 003d
00000020: 88b3 863c 00c1 e93b 40be 7dbb c6e2 90bd
00000030: a91e b6bd 06cd afbd 0069 b3bc fc33 10bd
00000040: 2899 99bd c938 cebd a0a5 833c 48d5 703d
00000050: 48a6 b33d 3315 15be 66e2 02bd f4eb e43d
00000060: 6045 ef3b 3880 563d 24e1 623d d4f1 483d
00000070: 4c33 19be 78a2 fe3d cefd 093e 4c68 d23d
00000080: 0094 8fbc c0d5 a73b 54c9 ca3d 608d 40bc
00000090: c560 16be 1832 8cbc 1012 52bd b94e 0cbe
000000a0: c004 5ebb
