examples/onnx/20240613_164935/model.onnx (onnx, 834286 bytes, 3 tensors)

model_1/conv2d_transpose/conv2d_transpose/ReadVariableOp:0 f4 [64, 128, 5, 5]
0.02013835 0.03249903 -0.02048089 0.011205934 0.022748267 -0.03214426 0.034064643 0.00015757431
2.8300681e-05 -0.033285152 -0.016801436 0.030353792 0.022432268 -0.027040761 0.011706975 -0.026700687
0.02873451 -0.014247081 0.018041825 0.01973619 0.003008781 -0.0029315408 -0.012181504 -0.0059779603
-0.030414743 0.022392383 0.0076856674 0.013423866 0.010872581 0.012748873 -0.028165048 0.021302823
-0.022482624 0.0076801116 -0.027188292 0.02052731 0.010549693 -0.027461922 0.029386211 0.008269442
-0.031566475 0.009452383 -0.02336385 0.02317084 -0.01330862 0.027886717 0.016756436 -0.016904347
0.028314216 0.027386893 -0.02154561 0.005650132 0.021434769 -0.018646311 0.0024199444 -0.033025656
-0.00062896986 0.00987564 0.021142837 0.028758094 -0.009235036 0.006460876 -0.014766095 0.032488164
0.027073925 0.0071746404 0.01712866 -0.023135396 -0.008388449 -0.025593076 -0.0052258326 0.01798197
-0.016111013 -0.015432678 0.01028669 0.029751588 1.8138671e-06 -0.021870732 0.017613882 -0.03023042
-0.020175224 0.0075186607 -0.031129448 -0.028627355 0.03613623 0.010171373 -0.015224636 -0.018486902
-0.01817775 0.024119083 -0.0234989 -0.010544102 -0.03154205 0.033891823 -0.0020018637 0.024632003
-0.033618357 0.012112542 -0.023086311 -0.024205174 -0.011195238 -0.0048580505 -0.008077396 0.023393853
-0.030706083 -0.020288218 -0.036255613 0.0051290514 -0.00504231 -0.011721152 0.035903115 0.02368711
0.00027146965 0.022513293 0.0007137301 -0.0038376036 0.0048203394 0.026819324 -0.0047262437 -0.007259048
0.017729415 0.035115775 0.03020322 0.0040063784 -0.02216354 -0.031981256 -0.0072602797 -0.0230245
-0.008303451 -0.0131093 -0.020484257 0.020502489 -0.016247006 0.022238063 0.033948172 0.011655569
-0.008154287 -0.025832815 0.010084395 -0.01442415 -0.003304943 -0.023174526 0.009937525 0.009226905
0.021447193 -0.017201843 0.03455174 -0.03284712 -0.031223806 -0.025668696 -0.015019073 -0.010865219
-0.027820183 0.00041474658 0.016682673 0.014935695 -0.019792603 -0.013787293 0.0036816236 0.02206372
0.01040195 0.0066249035 0.012485295 0.01641634 -0.02488439 0.022917874 0.0020257256 -0.03367301
0.014977549 0.018572472 -0.026764307 0.016514216 -0.029419662 -0.0326645 -0.036490418 0.008377706
-0.022437051 0.020086622 -0.019806866 0.030189196 -0.028873697 -0.002360158 -0.021246044 -0.0006944976
-0.036125474 0.022401521 -0.016647382 0.011309181 0.009318188 0.019367682 -0.028641686 -0.009772736
0.02278013 -0.014850136 -0.018346723 0.029630322 0.015494477 -0.003633432 -0.00959283 -0.0006407418
0.0001573831 -0.023706485 -0.021115875 -0.01665675 -0.0056143007 -0.017947288 0.02484582 -0.009421316
-0.032638114 0.015248312 0.0007470373 -0.0014722692 0.029388757 -0.024028426 0.0053847637 -0.00757551
0.004189987 -0.032475427 0.016677337 -0.009906838 0.026472144 0.0014473645 -0.03376786 -0.028232748
-0.02763546 0.023622004 0.0042882357 -0.011534076 0.012424076 -0.015972663 0.025076369 0.0022394657
-0.025029285 0.03613287 0.03022072 -0.03522789 0.0017458496 0.0059840716 -0.03623366 0.031588223
0.015790544 0.010530316 0.029290156 0.009882865 -0.016053928 0.025863528 0.003410417 -0.017488975
0.027959105 -0.021713234 -0.01560247 0.021577545 -0.0036801633 0.022542277 -0.007662368 -0.028228605
00000000: 2ef9 a43c b41d 053d 8ac7 a7bc 1899 373c
00000010: 935a ba3c b3a9 03bd 5e87 0b3d 883a 2539
00000020: 4067 ed37 0356 08bd 2aa3 89bc 84a8 f83c
00000030: e0c3 b73c 9684 ddbc 9dce 3f3c 66bb dabc
00000040: a364 eb3c 976c 69bc 73cc 933c caad a13c
00000050: f82e 453b 181f 40bb ee94 47bc c4e2 c3bb
00000060: 5728 f9bc 3b70 b73c 0dd8 fb3b c6ef 5b3c
00000070: e922 323c a6e0 503c 63ba e6bc 4283 ae3c
00000080: 7b2d b8bc 72a9 fb3b fbb9 debc e428 a83c
00000090: 9fd8 2c3c d3f7 e0bc 5abb f03c 8e7c 073c
000000a0: d94b 01bd 2bde 1a3c 8b65 bfbc c6d0 bd3c
000000b0: 660c 5abc af72 e43c cb44 893c fc7a 8abc
000000c0: 37f3 e73c 7a5a e03c 6b80 b0bc be24 b93b
000000d0: f897 af3c 26c0 98bc ee97 1e3b e945 07bd
000000e0: 74e1 24ba 70cd 213c be33 ad3c 1896 eb3c
000000f0: 8c4e 17bc c2b5 d33b 7eed 71bc 4f12 053d
00000100: 23ca dd3c 3f19 eb3b 6751 8c3c 7186 bdbc
00000110: b56f 09bc 92a8 d1bc 763d abbb ed4e 933c
00000120: 3efb 83bc 58d9 7cbc 8189 283c 9ab9 f33c
00000130: 0074 f335 402a b3bc fd4a 903c c9a5 f7bc
00000140: 8346 a5bc 195f f63b 2f03 ffbc ea83 eabc
00000150: 9503 143d d5a5 263c c070 79bc d871 97bc
00000160: 81e9 94bc 6295 c53c c480 c0bc 2bc1 2cbc
00000170: 3d32 01bd 27d2 0a3d b331 03bb 0ec9 c93c
00000180: 67b3 09bd af73 463c 811f bdbc ee49 c6bc
00000190: 3b6c 37bc 4830 9fbb 0e57 04bc 77a4 bf3c
000001a0: 538b fbbc 7a33 a6bc c480 14bd 9a11 a83b
000001b0: f639 a5bb 130a 40bc 250f 133d 780b c23c
000001c0: 0a54 8e39 cc6d b83c 9e19 3b3a 4e80 7bbb
000001d0: f0f3 9d3b 33b4 db3c 9bde 9abb 4fdd edbb
000001e0: 473d 913c 8fd5 0f3d be6c f73c f047 833b
000001f0: 5090 b5bc c7fe 02bd a4e7 edbb e09d bcbc
00000200: 330b 08bc 64c8 56bc 9ace a7bc d6f4 a73c
00000210: 7118 85bc 992c b63c 3d0d 0b3d 00f7 3e3c
00000220: 8f99 05bc 579f d3bc 0539 253c 4553 6cbc
00000230: be97 58bb 81d8 bdbc 00d1 223c 722c 173c
00000240: 06b2 af3c e1ea 8cbc 2086 0d3d b48a 06bd
00000250: 11c9 ffbc 2847 d2bc 8f12 76bc 0804 32bc
00000260: 27e7 e3bc 5872 d939 1aaa 883c d8b4 743c
00000270: 1924 a2bc 19e4 61bc 6547 713b f9be b43c
00000280: f16c 2a3c b815 d93b 1f8f 4c3c 8f7b 863c
00000290: 59da cbbc 44be bb3c 09c2 043b b6ec 09bd
000002a0: 6564 753c 4c25 983c d240 dbbc d248 873c
000002b0: 8101 f1bc 36cb 05bd fa76 15bd a542 093c
000002c0: e8cd b7bc b38c a43c 0242 a2bc 554f f73c
000002d0: 8888 ecbc e1ac 1abb 2f0c aebc f20e 36ba
000002e0: 4ef8 13bd 6583 b73c 1760 88bc 254a 393c
000002f0: 50ab 183c f9a8 9e3c f8a1 eabc d31d 20bc
00000300: 659d ba3c fc4d 73bc de4b 96bc 4abb f23c
00000310: 8cdc 7d3c e01e 6ebb 3f2b 1dbc 74f7 27ba
00000320: 3407 2539 1a34 c2bc 33fb acbc bd73 88bc
00000330: 2bf8 b7bb 3106 93bc 7689 cb3c dd5b 1abc
00000340: 8baf 05bd 0ed4 793c d3d4 433a 28f9 c0ba
00000350: b1c0 f03c 43d7 c4bc ac72 b03b fc3b f8bb
00000360: 294c 893b f404 05bd e99e 883c 4a50 22bc
00000370: 1cdc d83c 7eb5 bd3a 2b50 0abd 5d48 e7bc
00000380: c363 e2bc ef82 c13c 5484 8c3b 6cf9 3cbc
00000390: 5a8e 4b3c 1ad9 82bc f56c cd3c 00c4 123b
000003a0: 370a cdbc 0f00 143d 7291 f73c 1f4b 10bd
000003b0: fed4 e43a 0816 c43b bf69 14bd a762 013d
000003c0: 2c5b 813c 5987 2c3c e9f1 ef3c bdeb 213c
000003d0: 8783 83bc c0df d33c 4d81 5f3b 0a45 8fbc
000003e0: 7e0a e53c f4df b1bc 81a1 7fbc 64c3 b03c
000003f0: e52e 71bb 95aa b83c 9a14 fbbb ad3f e7bc

model_1/conv2d_transpose/BiasAdd/ReadVariableOp:0 f4 [128]
1.2675074e-06 1.2500279e-06 -2.5125344e-05 -1.1023952e-06 1.5413236e-06 -5.424754e-06 8.175034e-07 1.1176903e-06
7.6087315e-07 1.9470874e-05 3.619524e-07 4.2565415e-07 -3.1352606e-06 -1.5345955e-05 -4.4024814e-06 -3.6744171e-07
-1.4532482e-06 3.3666205e-05 -2.4285373e-06 5.546934e-06 8.916013e-06 -1.1375896e-06 1.9396696e-06 -7.003794e-06
-5.0334967e-07 -3.3795664e-06 2.3794719e-06 6.7100386e-06 -1.1449703e-05 3.9585373e-07 -1.3244011e-06 1.8871047e-05
-6.6163615e-05 -1.0752808e-06 -4.35928e-06 -6.986013e-07 -4.386259e-06 1.0665444e-06 -8.780587e-06 7.8094655e-07
2.0792668e-05 -1.4386162e-05 2.8435854e-06 -1.5697974e-06 -3.7049879e-06 -1.9515178e-06 1.8755447e-06 -3.45213e-06
-3.1836098e-06 -1.7846585e-06 9.881967e-06 1.6596887e-06 2.7839367e-06 -2.3128941e-06 1.903167e-06 4.608969e-06
-1.1649867e-05 -1.3208867e-05 2.2219232e-05 -6.15932e-06 -8.532611e-06 -1.4204805e-05 -1.7873554e-05 3.239499e-06
-1.9614295e-06 -4.4773533e-06 -2.0811535e-07 -1.2195421e-06 6.09174e-06 5.276554e-07 -8.964327e-06 4.9270125e-06
1.6201752e-06 -5.7852867e-07 4.1732451e-07 -1.2214185e-05 1.6327859e-06 -1.5675489e-05 3.490107e-07 -5.705527e-07
-3.7856082e-06 -4.62314e-06 -1.1450033e-05 1.7257207e-07 -8.799932e-06 4.4260128e-07 2.0068808e-06 -2.3315495e-05
7.5912276e-06 -3.1690035e-06 6.7845343e-07 1.3565752e-06 4.088821e-06 2.7831347e-06 -7.895682e-06 -1.1833886e-07
-8.404426e-06 -2.7464814e-06 3.2958787e-06 -1.4352653e-06 -1.2428491e-05 -7.703282e-06 -7.2753137e-06 -1.141173e-05
-4.4787057e-06 -3.2784433e-06 -1.8082864e-06 2.3413577e-06 2.2082727e-06 3.1572226e-06 2.6660632e-06 4.0726745e-06
-2.2376472e-07 -4.9820915e-06 -1.2400844e-06 7.112441e-07 -1.1942278e-05 6.7105498e-06 -2.5247732e-06 -2.1051193e-05
9.581893e-07 7.5624126e-07 -1.7395641e-05 4.1963885e-06 -5.321376e-06 9.88205e-07 -1.9786887e-06 1.0699248e-05
00000000: 391f aa35 a2c6 a735 44c4 d2b7 03f6 93b5
00000010: 7adf ce35 4806 b6b6 6872 5b35 8c03 9635
00000020: ce3e 4c35 6255 a337 5c52 c234 7685 e434
00000030: 5e67 52b6 30bb 80b7 07b9 93b6 ce44 c5b4
00000040: 3a0d c3b5 d034 0d38 f4f9 22b6 cd1f ba36
00000050: fc95 1537 48af 98b5 452b 0236 2202 ebb6
00000060: ed1d 07b5 82cc 62b6 04af 1f36 cb26 e136
00000070: 1a18 40b7 b985 d434 13c2 b1b5 444d 9e37
00000080: 52c1 8ab8 5e52 90b5 ee45 92b6 8487 3bb5
00000090: ae2d 93b6 3026 8f35 5650 13b7 3da2 5135
000000a0: ea6b ae37 185c 71b7 6dd4 3e36 d4b1 d2b5
000000b0: 35a3 78b6 d2f6 02b6 3abb fb35 24ab 67b6
000000c0: 00a6 55b6 6688 efb5 baca 2537 78c2 de35
000000d0: abd3 3a36 3837 1bb6 5270 ff35 bea6 9a36
000000e0: cc73 43b7 a79b 5db7 7063 ba37 28ac ceb6
000000f0: 4927 0fb7 2c51 6eb7 2aef 95b7 2b66 5936
00000100: 1aa1 03b6 2c3c 96b6 5076 5fb4 26af a3b5
00000110: a667 cc36 34a4 0d35 7e65 16b7 b752 a536
00000120: cc74 d935 304c 1bb5 a50c e034 86eb 4cb7
00000130: 1926 db35 db7e 83b7 aa5f bb34 1528 19b5
00000140: 410c 7eb6 7820 9bb6 8419 40b7 404c 3934
00000150: 6ca3 13b7 a89e ed34 f3ad 0636 a595 c3b7
00000160: 26b8 fe36 11ab 54b6 f71e 3635 9213 b635
00000170: b432 8936 e4c5 3a36 b277 04b7 7a21 feb3
00000180: bc00 0db7 3150 38b6 c42e 5d36 57a3 c0b5
00000190: f683 50b7 583d 01b7 781e f4b6 0275 3fb7
000001a0: ca47 96b6 3a03 5cb6 3fb4 f2b5 3820 1d36
000001b0: d631 1436 ace0 5336 9eea 3236 02a8 8836
000001c0: fa43 70b4 d72b a7b6 fa70 a6b5 53ec 3e35
000001d0: b25b 48b7 2f2b e136 466f 29b6 1897 b0b7
000001e0: 229b 8035 8100 4b35 dbec 91b7 b4ce 8c36
000001f0: 468e b2b6 77a2 8435 9dc9 04b6 ec80 3337

model_1/batch_normalization_3/batchnorm/sub:0 f4 [3136]
-0.0011507514 -0.0011982792 0.0013113134 -0.0011506195 0.0014688966 0.0011996519 0.0009827774 0.0013847228
0.0015732785 0.0013810921 -0.0011029075 0.00032242524 0.001569076 0.001235302 -0.0013011182 -0.0011080824
-0.0015692456 -0.0009401497 -4.876427e-05 -0.0015847144 0.0015878382 -0.0014703472 0.0008544483 -0.0014362956
-0.0013520386 -0.0015068975 -0.0011574717 0.0005076318 -0.0016239835 -0.0012644688 0.0013577458 0.0008457039
-0.0009084722 0.0018573721 -0.0013780367 0.001262863 -0.0017406578 0.0011314764 -0.0017535539 0.0013125555
-0.0013824039 0.0012468934 0.001597817 0.0017068136 0.0010889095 0.0014433877 0.0011703338 -0.0009723516
-0.0015420534 0.0014797234 0.0007485736 -0.0013162069 0.0009976996 -0.00054099836 -0.0012344162 -0.00069330947
-0.001111613 -0.00072407274 0.001337623 0.0017383101 0.0011264426 -0.0013309375 -0.000695767 0.001441906
-0.0016973766 0.0012432189 -0.001560352 0.0012536641 0.0013917472 0.0014484175 -0.0014272887 -0.00073430734
0.0014638368 0.0006066691 -0.0013805559 -0.001226139 -0.0003283585 -0.0015474666 0.0013449489 -0.0012999688
0.001026868 0.0016119925 -0.001146707 -0.0010651342 0.0008202058 -0.00055995485 -0.0016066936 0.0013301553
0.0012475866 -0.001307749 0.00076171535 0.0011299064 -0.0017302094 0.001476846 0.0011895163 0.0012977149
0.0015441142 0.0010004693 -0.0015379438 0.00090591365 -0.0013443881 -0.0011244206 0.0012950648 -0.0009404613
0.0008648676 0.0018040042 -0.00047773978 -0.0013132463 -0.0015057602 -0.0013219025 -0.0014645811 -0.001415471
0.001375629 -0.0014742522 0.001346166 0.0015297733 -0.0009815873 0.0014441689 0.0007320002 -0.0015487851
-0.0009664531 0.00088420283 0.0015252688 -0.0009873138 0.0014172988 0.0011961351 -0.0012305434 -0.0014015739
0.0012607853 0.0009730095 -0.0009468468 0.0009078337 -0.0014367464 0.0016505519 -0.0015183322 0.0014586771
-0.0015576591 -0.0009876905 0.0013575288 0.0017703208 0.0015124684 -0.0012579486 -0.0010249503 -0.0011934793
0.0010342341 0.0015757598 -0.0013682676 -0.0012474463 -0.001585085 0.0013843788 0.0014717828 -0.0013808205
-0.0015280427 0.0015789754 -0.0011954831 -0.0010606251 -0.0015498076 0.0015853746 0.0014188398 0.0009801378
-0.0017076953 -0.0012151451 -0.001586983 0.001408244 0.0011484851 0.0009596967 -0.0010620194 0.0014512747
0.0015558689 -0.0012248908 0.001096114 -0.00125987 0.0010407431 -0.0014093838 0.0014891892 -0.0014209143
-0.0010752267 0.001323851 -0.00080880336 -0.00094413065 -0.0012642224 -0.0016584578 0.0014718676 -0.0014100601
0.0008497436 0.001118662 0.0010404275 -0.0012833735 -0.0015479497 -0.0017171156 -0.0014732063 0.0011735491
-0.0011277408 0.0014109027 0.0015823297 0.0008481054 0.0012379611 0.0010976207 -0.0019323251 -0.0012322019
-0.0014291798 0.0011154872 -0.0010674645 -0.001380313 0.0012610423 0.0018973903 -0.0013653357 -0.0015380341
0.0014284528 -0.0017042034 0.0015001708 -0.0013559926 0.0014675962 -0.0013365537 0.0012914067 0.0015459979
0.0015130521 -0.0015559858 -0.00088373385 0.0010785803 0.0013116277 -0.001259017 -0.0012397327 -0.0011883563
-0.001882829 0.0011386758 -0.0012428319 -0.0013414945 0.0009245272 0.0011677654 0.0017327559 0.0008772666
0.0014857542 0.00087047816 -0.0012109015 0.0014365301 -0.0017606571 0.0005169299 0.0013491408 0.0015251276
-0.0017677192 -0.0015162979 0.0011796994 0.0009745963 -0.0016861643 0.0014631047 0.001166232 0.001549574
-5.2307092e-05 -0.0013808156 0.0014359768 0.00046478532 0.0013473983 0.0017265616 0.0015287218 0.0008870024
00000000: cfd4 96ba 940f 9dba 60e0 ab3a 62d0 96ba
00000010: fe87 c03a a33d 9d3a 8ad0 803a 967f b53a
00000020: 7736 ce3a c305 b53a 6f8f 90ba 2f0b a939
00000030: 74a9 cd3a dbe9 a13a 488a aaba 133d 91ba
00000040: 25af cdba 6174 76ba 3c88 4cb8 31b6 cfba
00000050: 021f d03a aab8 c0ba 0efd 5f3a 1542 bcba
00000060: e336 b1ba 1783 c5ba 4eb6 97ba 9812 053a
00000070: d8db d4ba 88bc a5ba 64f6 b13a 3ab2 5d3a
00000080: 8a26 6eba 1173 f33a 3d9f b4ba a786 a53a
00000090: c926 e4ba 0c4e 943a 81d7 e5ba 0e0a ac3a
000000a0: c731 b5ba cd6e a33a d86d d13a 29b7 df3a
000000b0: bdb9 8e3a 0e30 bd3a e365 993a 69e5 7eba
000000c0: ba1e caba 47f3 c13a ed3b 443a 9384 acba
000000d0: 3ec5 823a c9d1 0dba 22cc a1ba 36bf 35ba
000000e0: 8bb3 91ba b3cf 3dba 2e53 af3a 02d8 e33a
000000f0: 24a5 933a da72 aeba 2264 36ba 56fe bc3a
00000100: 827a deba 81f3 a23a ba84 ccba fd51 a43a
00000110: 496b b63a d4d8 bd3a dd13 bbba 887e 40ba
00000120: 36de bf3a e008 1f3a c5f3 b4ba 66b6 a0ba
00000130: 8827 acb9 5dd4 caba ff48 b03a b763 aaba
00000140: f997 863a 7e49 d33a 1a4d 96ba f99b 8bba
00000150: 1403 573a efc9 12ba b197 d2ba 9b58 ae3a
00000160: 0f86 a33a c668 abba daad 473a 5e19 943a
00000170: 32c8 e2ba bb92 c13a 8be9 9b3a 1618 aa3a
00000180: e063 ca3a 2e22 833a d594 c9ba d67a 6d3a
00000190: 2e36 b0ba 4b61 93ba 2abf a93a 4a89 76ba
000001a0: 48b8 623a 5674 ec3a 2679 fab9 3c21 acba
000001b0: ee5c c5ba b043 adba 30f7 bfba 5387 b9ba
000001c0: 734e b43a b23b c1ba d671 b03a ad82 c83a
000001d0: 9ba8 80ba 444a bd3a b4e3 3f3a 9b00 cbba
000001e0: 9259 7dba d9c9 673a 87eb c73a c168 81ba
000001f0: a8c4 b93a a2c7 9c3a 2f4a a1ba 04b5 b7ba
00000200: ef40 a53a 9011 7f3a d035 78ba b0fb 6d3a
00000210: 3651 bcba 5557 d83a c602 c7ba 1531 bf3a
00000220: 5e2a ccba 6575 81ba 1cef b13a 1c0a e83a
00000230: 053e c63a c0e1 a4ba a057 86ba 856e 9cba
00000240: 238f 873a ba89 ce3a 7157 b3ba 5a81 a3ba
00000250: a0c2 cfba 0b74 b53a d6e8 c03a a6fc b4ba
00000260: 9b48 c8ba 9ff5 ce3a c2b1 9cba ac04 8bba
00000270: ea22 cbba 58cc cf3a 5df8 b93a f877 803a
00000280: bfd4 dfba 8145 9fba 5002 d0ba d494 b83a
00000290: c488 963a 2894 7b3a 7533 8bba b338 be3a
000002a0: 4cee cb3a 848c a0ba 7cab 8f3a 3922 a5ba
000002b0: 8b69 883a 13bb b8ba e630 c33a f93d baba
000002c0: 9fee 8cba 1185 ad3a e005 54ba 897f 77ba
000002d0: 44b4 a5ba 9c60 d9ba aeeb c03a c4d1 b8ba
000002e0: 54c1 5e3a 11a0 923a f45e 883a de36 a8ba
000002f0: 93e4 caba d710 e1ba 9a18 c1ba c6d1 993a
00000300: b4d0 93ba 0aee b83a 2d66 cf3a 6453 5e3a
00000310: 1543 a23a 0ade 8f3a 1246 fdba d681 a1ba
00000320: 5153 bbba 8a35 923a 2aea 8bba 9eeb b4ba
00000330: 8f49 a53a dbb1 f83a 10f5 b2ba dc97 c9ba
00000340: ec3a bb3a 945f dfba 61a1 c43a 90bb b1ba
00000350: 5b5c c03a 4d2f afba 6b44 a93a 15a3 ca3a
00000360: 9b51 c63a 38f2 cbba 60aa 67ba 265f 8d3a
00000370: ecea ab3a 9a05 a5ba 877e a2ba 9fc2 9bba
00000380: 42c9 f6ba 9f3f 953a 85e6 a2ba 16d5 afba
00000390: f85b 723a b40f 993a a41d e33a 5df8 653a
000003a0: a3bd c23a cd30 643a 1db7 9eba f449 bc3a
000003b0: d9c5 e6ba 9482 073a a7d5 b03a cae6 c73a
000003c0: d0b2 e7ba 84be c6ba 25a0 9a3a 0d7c 7f3a
000003d0: 4902 ddba a6c5 bf3a 41dc 983a 131b cb3a
000003e0: 5064 5bb8 7cfc b4ba 6337 bc3a 6eae f339
000003f0: 2f9b b03a cb4d e23a 645f c83a b985 683a
