examples/onnx/1l_matmul/network.onnx (onnx, 892 bytes, 2 tensors)

layer.weight f4 [10, 10]
-0.03806472 -0.06557223 0.2261279 -0.11269167 0.1839169 -0.26178715 0.16095203 0.03808993
0.04180199 -0.10558279 0.0846428 -0.009426475 -0.21765566 -0.16133334 -0.23416454 -0.25911468
-0.015493184 0.24762103 0.24459258 0.1476444 -0.21132526 0.22849515 -0.26562497 -0.18788795
0.09224033 0.073905826 0.103643715 -0.23991436 0.2710347 0.093426734 0.0855034 0.00073090196
-0.16467461 0.24687538 -0.01611641 -0.2491793 -0.095758155 0.17603177 0.30794445 0.016405016
-0.09474471 -0.00081691146 0.031588078 0.18430647 -0.0001949668 -0.01951763 -0.042130083 0.12776098
0.034157187 0.29104415 0.17699444 -0.26403058 0.13449106 -0.20579001 -0.10128096 0.31382295
0.101356834 -0.2219229 -0.21744207 -0.1408339 0.23177776 -0.31400827 0.1677779 0.04499027
0.26564184 0.15535724 -0.22754753 0.14561245 0.048214674 0.18195507 0.02436915 -0.13530868
0.2976515 0.30588314 0.042891234 0.31134734 0.30892357 0.31048635 -0.26484692 0.20464823
0.27632174 -0.06408793 0.14019501 0.11323893 -0.2233876 -0.132815 0.26750556 -0.12022966
0.15570283 0.25369975 -0.050854206 -0.19227728 -0.29820824 0.1247139 -0.29067126 0.04308623
0.19219181 0.20176646 -0.17837994 0.09807119
00000000: c0e9 1bbd bc4a 86bd 128e 673e e4ca e6bd
00000010: b654 3c3e f708 86be 9cd0 243e 3004 1c3d
00000020: 9038 2b3d ca3b d8bd 3459 ad3d 8071 1abc
00000030: 20e1 5ebe 9134 25be d4c8 6fbe aeaa 84be
00000040: 20d7 7dbc 5e90 7d3e 7a76 7a3e 1830 173e
00000050: a665 58be a2fa 693e ffff 87be b365 40be
00000060: 80e8 bc3d f05b 973d 2843 d43d 1cac 75be
00000070: 0fc5 8a3e 8456 bf3d 681c af3d 009a 3f3a
00000080: 76a0 28be e6cc 7c3e 9006 84bc dc28 7fbe
00000090: da1c c4bd ac41 343e e5aa 9d3e d063 863c
000000a0: 8409 c2bd 0026 56ba 8062 013d d6ba 3c3e
000000b0: 0070 4cb9 70e3 9fbc 9890 2cbd c6d3 023e
000000c0: 68e8 0b3d bd03 953e 083e 353e 042f 87be
000000d0: 06b8 093e 9eba 52be 646c cfbd 67ad a03e
000000e0: 2c94 cf3d c23f 63be 22a9 5ebe c336 10be
000000f0: 2657 6d3e b1c5 a0be f8cd 2b3e b847 383d
00000100: 3502 883e f815 1f3e 3802 69be 6e1b 153e
00000110: c07c 453d 6e52 3a3e d0a1 c73c 5c8e 0abe
00000120: c765 983e b79c 9c3e b8ae 2f3d eb68 9f3e
00000130: 3b2b 9e3e 11f8 9e3e 049a 87be 4e8f 513e
00000140: 0b7a 8d3e 8840 83bd 488f 0f3e d0e9 e73d
00000150: b8bf 64be a800 08be 7df6 883e f83a f6bd
00000160: 9070 1f3e efe4 813e 804c 50bd 56e4 44be
00000170: c0ae 98be 006a ff3d ddd2 94be 307b 303d
00000180: eecd 443e de9b 4e3e 3ba9 36be 8cd9 c83d

layer.bias f4 [10]
0.19588354 0.08948162 -0.00066539645 0.108730555 -0.16249053 -0.29939246 0.15820152 0.057256103
-0.21001309 -0.007863194
00000000: b295 483e 2442 b73d 006e 2eba 20ae de3d
00000010: eb63 26be f849 99be 94ff 213e 6085 6a3d
00000020: ac0d 57be a0d4 00bc
