examples/onnx/tiny_conv/network.onnx (onnx, 199775 bytes, 36 tensors)

feature_extractor.conv_layers.0.conv.weight f4 [32, 1, 8]
00000000: ef9b 703f 1194 34bd d0f2 09bf f404 00be
00000010: 508a 9e3e de54 273d 37c8 4dbe 01eb bcbe
00000020: c2d6 febf d0c3 50be dcbd d23c bc2c 783e
00000030: 5278 b13e bb3f 1dbf 14d8 663d 0ed2 16bf
00000040: 65bd 9e3e 58c4 b23d 7684 013f 9b2d 2f3f
00000050: 989b c53e 8638 4fbd 4867 093f 2c7e f43e
00000060: 9948 0e3f 2253 a83e d23e 80be e73d d3be
00000070: 16f7 513d 806b 3a3e 1d71 8e3e c517 74be
00000080: d674 94be e258 7a3f 6bf4 0dbf 2e48 d6bf
00000090: cedb de3e 5cfa f83e 826d 943e 9f6b c4ba
000000a0: 8761 08bf b809 543e 5d2a 31be 6d40 b93e
000000b0: 3940 a6be 1f9a 88bc 93c0 803f f237 f13e
000000c0: 3959 ab3e c486 26be 29e5 793e 9a01 583e
000000d0: b69c 033e 0263 b9bd 7d48 37bf fd2d 87bf
000000e0: 8d19 41be f853 f5bd abd2 023f 726b af3d
000000f0: 902b 153f 7da2 683e 6aaf f2be aa12 943d
00000100: a318 eabd 90c3 a1bd 502b ff3d 80cc e6be
00000110: 8f69 ae3e b1b6 0d3f 2963 c7bd f7f2 d43e
00000120: a690 7a3e e4a7 8d3f 2c9a 033f 3e4e 8bbe
00000130: e5c5 893f 2a2a bf3e 1023 473d 68ce d1bd
00000140: 0d8e cabd d206 353f 52c8 cebe b276 abbe
00000150: ffbe ef3e 333b 6d3e a5c7 42be b9a1 6b3e
00000160: b78b e4be e8ce 413e e326 9c3e 8b33 353d
00000170: 3db0 f7be f45b 453f 9359 80bd 5eb0 033f
00000180: 8d97 843f 7ac1 5e3d a12c 0bbf c9e0 ea3e
00000190: daf4 74bf 6898 0e3e e9c4 2f3f 8ced 8fbe
000001a0: 3008 723e 0021 6bbd 4974 26be e265 29bf
000001b0: 4273 e53d f4cc f4be d75c 643f d795 b7be
000001c0: 0931 91bc d2ee 653f 0c49 ed3c da5a 973f
000001d0: 0a16 55bf 4477 d7be c7ed c73e 6573 4fbe
000001e0: a07d a53e 181c 303f ed82 083f e559 ab3e
000001f0: d9fd ffbe 0643 9a3e e58c 07be 7e18 4c3e
00000200: b737 0a3f 3c93 d7be db87 723f 9bf2 9d3e
00000210: 16d1 22bf c4e4 603f d0bb 123f c487 84bd
00000220: e052 c03e 55e0 11bf ea5a bb3e 4e3d 1a3e
00000230: 025a 363e 8859 073f 3643 1cbf 03a7 923d
00000240: 3007 4b3f a9a1 373e 92e1 fabd f4e4 0d3f
00000250: 7128 003e 4fca 603e 1c73 043f a105 c03e
00000260: 6944 59be 82ac b0be b0ca 053f 43e1 c2be
00000270: bdff a5be 9960 9fbe 8551 533e 752a 55be
00000280: 43e8 09be cd54 19bf 88b7 aabe 4dac 6b3f
00000290: e7e8 813e 34df 8ebe c799 54be 8456 43bf
000002a0: b59a cf3c d401 2f3f 2ad1 20be f802 093e
000002b0: 1b8a 32bf 8fe1 cebe f3b4 21be 9251 093f
000002c0: 0def ba3e 58cc d0be 42da 0abe 2185 c3bb
000002d0: 611d 38bf 03fb e93d af7b 553d 581c ce3d
000002e0: 4d07 303d 2ad4 933e 685b 033f 734b 17be
000002f0: 6b69 1d3e 6710 05bf 0762 023f a897 f2be
00000300: 4201 373f a49a d3be bc6a 083f db0a ad3e
00000310: 8827 6dbf bb40 973e 3f4c 5cbf 1485 47bf
00000320: c988 76be d64f 7ebd e72f 7ebd ce5e 3a3c
00000330: 15e6 c1be ae27 f93c f179 52be 0a2b fa3e
00000340: 047e 30bd f54e 91be 2144 94bf ed99 663c
00000350: c704 cd3d 8fda 87bd da39 493f 0290 193f
00000360: 9f20 44be 344d 9e3e 1c8b aa3e ac62 fabe
00000370: 3e81 4d3e 4ef0 813e de21 f73b 7dd5 803f
00000380: 9095 63be a6ca 473e dc5e c93e 31e8 18bd
00000390: 4fe1 7ebf ab86 3b3f 009a c5bd 1f2d 47bf
000003a0: 8262 4ebe c0f6 27bf 6ea0 d73d b63e 493e
000003b0: 9f7a 823d a67f 7bbf 3956 f13d 40a8 373e
000003c0: 42d3 393f 7fce 973e 65ff 91bc e254 85be
000003d0: 94f5 a7be 64c0 1bbf 1d8c 59bf 7176 f63e
000003e0: 9631 84be 486f 56bf bb27 80be 50c5 ec3e
000003f0: 5658 1b3f 2ab3 193f 4fd0 60be bf5c e8be
0.93987936 -0.04408652 -0.5388613 -0.1250189 0.309649 0.04085242 -0.20095907 -0.36898044
-1.9909289 -0.20387197 0.025725298 0.24235815 0.3466211 -0.6142537 0.056358412 -0.5891427
0.31003872 0.08728856 0.50592744 0.68428963 0.3859527 -0.050591014 0.5367322 0.47752512
0.55579525 0.32875925 -0.25047928 -0.41258165 0.05126103 0.1820507 0.27820674 -0.23837192
-0.2899539 0.97791874 -0.5545108 -1.6740777 0.43527073 0.4862851 0.28989798 -0.0014985687
-0.53273815 0.20706832 -0.17301317 0.36181965 -0.32470873 -0.016675053 1.0058769 0.47112995
0.3346651 -0.16262347 0.24403824 0.21094361 0.12852749 -0.09052087 -0.71594983 -1.056091
-0.18857403 -0.119789064 0.51102704 0.085654154 0.58269596 0.22718234 -0.47399455 0.072301224
-0.1143048 -0.07898629 0.12459433 -0.45077896 0.3406491 0.5535689 -0.0973571 0.41591617
0.24469241 1.1066861 0.5140712 -0.27208132 1.0763518 0.37336856 0.048617423 -0.10244447
-0.09890375 0.7071353 -0.40387207 -0.33488995 0.46825406 0.23167114 -0.19021471 0.23010911
-0.44637844 0.18926585 0.30498418 0.04423861 -0.48376647 0.77093434 -0.06267085 0.5144099
1.035875 0.054383732 -0.54364973 0.45874622 -0.95686114 0.13925326 0.68659836 -0.2811092
0.23635936 -0.057404518 -0.16255297 -0.66171086 0.11203624 -0.47812617 0.8920416 -0.35856506
-0.017723577 0.89817536 0.028965496 1.1824601 -0.83236754 -0.4208318 0.39048597 -0.20258863
0.32322407 0.6879287 0.53324777 0.33467022 -0.49998358 0.3012926 -0.13237341 0.19931218
0.53991264 -0.42104518 0.9473855 0.30849156 -0.6360029 0.8784907 0.5731783 -0.06471208
0.3756323 -0.5698293 0.365928 0.15062448 0.17807773 0.5287099 -0.61040056 0.07160761
0.7930784 0.17932762 -0.122500554 0.5542748 0.12515427 0.21952175 0.5173814 0.37504295
-0.21217503 -0.34506613 0.522624 -0.38062486 -0.32421675 -0.31128386 0.20636566 -0.20816977
-0.13467507 -0.5989502 -0.33343148 0.92059785 0.25373003 -0.27904665 -0.20761786 -0.7630389
0.025342325 0.68362164 -0.1570479 0.13380039 -0.6974198 -0.40406463 -0.15791683 0.5364009
0.36510506 -0.40780902 -0.13559821 -0.005966798 -0.7191983 0.1142483 0.052119907 0.10064
0.042975713 0.28872806 0.5131135 -0.14774875 0.15372245 -0.51978153 0.5093083 -0.4738133
0.71486294 -0.4132892 0.53287864 0.33797345 -0.92638445 0.29541573 -0.8605384 -0.77937436
-0.24075617 -0.062087856 -0.062057402 0.011375142 -0.3787085 0.030414429 -0.2055433 0.4886096
-0.043088928 -0.28380552 -1.1583291 0.014074785 0.10010677 -0.066334836 0.786039 0.59985363
-0.19153069 0.30918276 0.33309257 -0.48903406 0.20068833 0.2537865 0.007541879 1.0065151
-0.22225022 0.19510898 0.39330184 -0.03733081 -0.99562544 0.7325236 -0.09648514 -0.77803224
-0.20154765 -0.65610886 0.105286464 0.19652829 0.06371044 -0.9824165 0.11784024 0.17935276
0.7258798 0.29649732 -0.017821977 -0.26041323 -0.3280455 -0.6084044 -0.8497942 0.4813724
-0.2581908 -0.8376355 -0.25030312 0.46244287 0.60681665 0.6003901 -0.21954463 -0.4538326

feature_extractor.conv_layers.1.conv.weight f4 [32, 32, 8]
00000000: d4fd 8e3c e3de 8f3c dee1 7c3d e67b 0a3e
00000010: 572c a3bc 8bea b63c 56a6 0cbd bdf3 543d
00000020: 63ff 703d 65b5 02be 0ddf a83d 4d2f 6a3d
00000030: f16c 283d 0039 99bc a6e9 a73b 6371 493d
00000040: 68b9 0bbd 7037 e1bb 495b 9bbd f3c4 9e3d
00000050: 5348 dcbd 1d5e a0bb 88c3 f3bd bec9 fd3c
00000060: fc96 663d c743 06be 1570 f73c d038 0cbc
00000070: a9cf 1fbd ec91 a13d d175 60bd d150 fbbd
00000080: 48ce 0dbb 6fde 5fbd 3034 debc b7a2 1ebd
00000090: a407 5c3e 9456 0f3e 2315 63bc ed1c 023e
000000a0: 26af 073e e797 c1bd d991 833d a56c a63c
000000b0: f159 12bd 99a3 d33c a3e6 37bd 2550 febd
000000c0: 9348 e13b 00aa a43d cec3 2e3e d270 1a3e
000000d0: b2a0 18be ed90 453c bb65 103e c484 163e
000000e0: 103f ab3c dc5a 53bd 37e1 f93b 1dd3 003d
000000f0: 1064 ac3c 4f26 593d 799e 8a3d fcca b5bd
00000100: 11e4 c33b 0dfb 893d dc04 5c3e e69f 5bbe
00000110: d432 b1bc 0043 9dbd 4e85 cc3d c926 f1bc
00000120: f742 abbc cfce ad3c db42 8dbd 10b5 a43d
00000130: 5fbb d9bd 5f00 7bbd e563 363e 1f70 2cbd
00000140: eb32 19bd e303 00be 757b fbbd 7214 29ba
00000150: 94a0 183d daeb c3bc 3ee0 0cbd 1ee9 073e
00000160: 8afb a93d b3fd a1bd dd51 9ebd 4596 863d
00000170: 57f7 a23d 3e5c 00bc 5819 163d 28ba 06bd
00000180: 28d0 2abd 76ae 803e 19b8 bfbd 4b03 833d
00000190: b0c7 3b3d 0d05 25be 987f 6d3d 0fd1 433d
000001a0: 3293 82bd ae05 dfbd 60a3 e03c 14af 6a3b
000001b0: c2a3 ce3c 6c28 04be eece 30bd cafa 01bd
000001c0: 325b a53c b88c aebd 0996 983d 3f57 63be
000001d0: 4260 953c ba78 23bd c5d2 eabd 2e44 2e3d
000001e0: 223e f7bc 77d4 86bd 842e 7f3c 7fb3 fbbc
000001f0: 5510 143d ce69 de3d b8c9 a9bd edb5 173e
00000200: b201 d9bd 8986 033e 8702 8b3d db8d 153e
00000210: 3f73 733d fda3 b63d 722a 833d 097a 9a3d
00000220: cb16 873c 0cb3 cfbd 25d4 10bd 355e 99bd
00000230: 40a2 41bd 0097 743d 0ee1 11bd 4ab1 7ebd
00000240: 5c8d 193d 8c4d 1dbd b941 2bbd 7ac3 603d
00000250: 0bc1 8a3d d860 22bd 3a84 e9bd 056a 0cbe
00000260: 1566 c53d 7ba5 a0bd 154f c0bd 7ceb 21bd
00000270: 7a60 763d c873 153e d728 a3bd 0c34 843d
00000280: e152 fc3c 6198 b0bd da89 36bd abe6 e93b
00000290: 8574 bcbd 2316 a13c c83e aa3b a556 ba3d
000002a0: 2869 3a3e 4a93 e43d 6101 0c3d 3b5f aa3c
000002b0: 918a 8d3b b5f6 913c 7433 043d f2cb 85bc
000002c0: 31f5 d6bd 988f d6bd 140c 1ebd eafb af3d
000002d0: f7d5 cdbc 030a 233d 49d1 90bd e6dc dfbd
000002e0: 9218 b03d b43d 51bc 6c0d 543d 87fa d43c
000002f0: 5adf 6e3c 6661 dc3d 883b a1bc 0490 2abd
00000300: 039d 30bd 3172 93bd 93bf 29be 7cf4 f9bc
00000310: 7b67 10be cdb5 c7bd b77d a43d b8bf a5bb
00000320: 1190 71bd 69e5 acbd 57fc 89bd aa3e 10bc
00000330: f092 7cbc 3a1d 593b 8740 28bb 5054 18be
00000340: 4de0 753d d1d2 75bd 3e2a d83d 2bf4 cbbc
00000350: 295b 483d 7711 e83d 1d86 663b 0417 e4bd
00000360: 44c9 1fbd 66d3 ab3d b390 623e fcda 87bd
00000370: 00e7 04be 9a29 d5bc 0f9b a63d 5569 70ba
00000380: e06f d9bb 8318 243d 1d2b 1b3e 6477 983d
00000390: 4e94 59be 7b0f 76bc 1ccf 70bd 7730 a83d
000003a0: 3ac7 00bd 93d5 f53d 9ea6 f73d 4aac 983d
000003b0: d4c1 9f3d 462a f63c d683 aebd 7c48 d0bb
000003c0: 598d 70bc 79f6 aabd 24cd d83c 836e 89bd
000003d0: 5b3e 443e 243f 16be f4fb 89bd 20d5 7cbd
000003e0: 655d b53c 7bdc 0cbe 53c1 003e 2c4d e8bc
000003f0: f1ff b13d 0373 9b3d 3ffa f53b cb2d 29bb
0.017455019 0.017562335 0.06173884 0.13523826 -0.019918604 0.022328636 -0.034338318 0.05199026
0.058837306 -0.12764509 0.082456686 0.057174016 0.04111952 -0.018703938 0.0051242886 0.0491804
-0.034112364 -0.0068730637 -0.07585771 0.07752409 -0.10755982 -0.0048940317 -0.11902529 0.030979987
0.056296334 -0.13111793 0.030204812 -0.008558467 -0.0390164 0.078891605 -0.05479986 -0.12271274
-0.0021637846 -0.05465549 -0.027124494 -0.038729396 0.2148729 0.1399787 -0.01386002 0.12706347
0.13250408 -0.09452801 0.064243026 0.020315478 -0.035730306 0.025834845 -0.044897687 -0.1241763
0.0068751066 0.080402374 0.17066881 0.150821 -0.1490505 0.012058479 0.14101307 0.14699084
0.020904094 -0.051600322 0.0076257247 0.031451333 0.021043807 0.05301505 0.067685075 -0.08876607
0.0059781154 0.06737337 0.21486229 -0.21447715 -0.021630682 -0.07678795 0.09986363 -0.02943744
-0.020905955 0.021216778 -0.06897517 0.080423474 -0.10631441 -0.06127965 0.17811544 -0.042099115
-0.037402075 -0.12501483 -0.12279407 -0.0006449885 0.037262514 -0.023916174 -0.03439354 0.13272521
0.082999304 -0.079097174 -0.07730458 0.065716304 0.079573326 -0.007834492 0.036645263 -0.032892376
-0.04170242 0.25133103 -0.09361286 0.063971125 0.045844734 -0.16115208 0.05798301 0.047806796
-0.063757315 -0.10889755 0.027421653 0.003580992 0.02522457 -0.12906045 -0.043166094 -0.03173331
0.020185087 -0.08522934 0.07450492 -0.2220125 0.018234376 -0.039910056 -0.11465982 0.04254549
-0.030180994 -0.06583493 0.015575055 -0.030725239 0.036148388 0.108600244 -0.08290428 0.14815493
-0.105960265 0.1284429 0.067875914 0.14604895 0.05943608 0.08917997 0.0640458 0.075428076
0.01649036 -0.10141572 -0.035358567 -0.07488672 -0.047273874 0.059714317 -0.03561502 -0.062180795
0.037488326 -0.038404033 -0.041810725 0.05487392 0.06775101 -0.03964314 -0.11402173 -0.13712318
0.09638611 -0.07844063 -0.09390084 -0.039531216 0.0601506 0.14594948 -0.07966774 0.0645524
0.030801238 -0.08622814 -0.04456506 0.0071380935 -0.09201912 0.019663876 0.0051954724 0.090985574
0.18204176 0.11160906 0.034181003 0.020797363 0.004319497 0.017817834 0.032275632 -0.0163326
-0.10495985 -0.10476607 -0.038585737 0.08592971 -0.02512644 0.03980447 -0.07071168 -0.10930805
0.085984364 -0.012771059 0.051770613 0.025998367 0.014579618 0.10760765 -0.019681707 -0.04164125
-0.043118488 -0.07199515 -0.16576986 -0.030512087 -0.14101975 -0.097514726 0.08031791 -0.005058255
-0.058975283 -0.08442194 -0.06737583 -0.008804003 -0.015415892 0.0033128993 -0.0025673227 -0.14875913
0.060028363 -0.060015503 0.10554932 -0.024896702 0.048915062 0.11331456 0.0035175153 -0.111372024
-0.0390103 0.083899304 0.22125511 -0.06633565 -0.12978745 -0.026020814 0.08135044 -0.0009170969
-0.006635651 0.04006244 0.15153165 0.07444647 -0.2124798 -0.015018339 -0.058791265 0.08212369
-0.031439997 0.12003627 0.120923266 0.074547365 0.07800642 0.030049454 -0.085212395 -0.006356297
-0.014682137 -0.08347792 0.026465006 -0.067105316 0.19164412 -0.14672524 -0.06737509 -0.06172669
0.02213926 -0.13755982 0.12573747 -0.02835711 0.08691395 0.07590296 0.0075066383 -0.0025814648

feature_extractor.conv_layers.2.conv.weight f4 [32, 32, 8]
00000000: 0eed 343c f828 553d 8381 af3d 0f42 d0bc
00000010: 280f 803d 13d2 adbd 3c7f 503e c0be bfbd
00000020: 7036 c33d 3427 34bc 6317 983c 3be3 63bd
00000030: 3ed8 c8bc bff7 0a3e 4c8c b13d dcc2 1bbc
00000040: 517d 413d 4b9d 8abd 3095 05bd 358b dd3c
00000050: 18ef 58bd 3147 e63b 5ea3 5e3c b01f 1abd
00000060: 0284 87bc 5cf5 98bd 666b 4cbc c040 953d
00000070: cc0f 8f3d 0c19 26bc cba4 103e ca69 153e
00000080: d4f1 403d e952 38bd 601a 90bb 43c5 7abd
00000090: 6b33 973d cccd 02be fff3 f6bc ca19 fe3d
000000a0: 7218 2ebc 0a18 e93d 53ed 4cbd 8064 fd3d
000000b0: 59f2 25bc 3d16 7bbc da88 a5bd 598d 873c
000000c0: f1c8 43bd a0e6 31bd 3cb7 4abd 5c1a 40bd
000000d0: f49f c2bd 6edf 00be 3133 173e bf34 e8bc
000000e0: 53b8 653a a7e9 eb3b 6bf7 3abb c95b acbc
000000f0: 1d4f 823c fbc8 d13c 75e8 fe3d cce7 cbbd
00000100: e409 96bd 3302 a4bd bbad 55bd 1504 cc3d
00000110: 65e0 4c3c 695c 163e c016 063c c7df 02be
00000120: d595 d63b b4e3 8dbd f162 243d 3797 b93d
00000130: bfde e7bd 119a 0ebd ac70 113e 0371 eb3d
00000140: a9de 443b cc81 0b3d a383 2fbd dfe6 983d
00000150: 3c7a 2fbe 52bd 1dbe efef 53bd f1a6 133e
00000160: d36b e33d 43b5 ebbc 849b d73d b149 023d
00000170: b08e 7d3d 7cfb 413c 07bb c93d b247 04bd
00000180: 72c1 00bc 0928 9a3d 53cf a9bd ff12 c63d
00000190: f8c8 86bc 5200 95bd f373 3ebc 13e4 c6bd
000001a0: 3977 7ebd dfbd d6bd 46cf fb3c 69fd f03d
000001b0: ea9f 1d3d 3519 05bd f4db cd3c 683e c2bc
000001c0: c768 b1bb 601a fa3d b217 28bd 9668 0fbe
000001d0: 2efd b0bc d995 083e befb d03c 1efc 8cbe
000001e0: 9cae c73d b4d0 8f3c c78a 163e 89da 743d
000001f0: a2f8 193d 8a30 083e a8c4 bdbd daf5 a93d
00000200: 4469 32bd cc62 97bc d878 8bbc 392d 3ebe
00000210: b6b9 cf3d 201c 343d 98ae a53b c3e3 d13c
00000220: 3e28 80bc d0f0 1ebe 4168 0e3d aaae dc3c
00000230: 22b4 3ebd b647 a2bd 0546 9f3d 8cac 7fbd
00000240: 45e9 8ebc 7173 0abb 8636 c5bd a916 13bb
00000250: 4601 fabd a6f0 943d 2e37 7dbd 32fc 54bd
00000260: 2f20 ca3b 9b3b 353d ab62 c3bd 02af e0bd
00000270: 786c 8e3d 2f97 ccbd 9b74 70bd 7788 8cbc
00000280: b740 acbd 0c4e 6dbd f8f9 16be 41b3 8abd
00000290: 0222 373e 52ea 913d 97fe 46bd 224f d6bd
000002a0: 0724 6b3d 0d8e 443d eac9 02bd 37ce c6bd
000002b0: d4a5 8d3d 5c06 183e 7a54 44bd 8dbd 19bd
000002c0: 3c01 1c3d 934f 6abd 0082 bd3d 71ee a13d
000002d0: efa3 f5bc 734e 99bd da56 18be ea60 a83d
000002e0: 6cde 19bd c25f 1e3e 77fc 8b3c 5242 9a3d
000002f0: 27c6 3e3e 907d bebd 8e3c edbc d84b cd3b
00000300: af9c c03d 8efa 603d 7f43 ef3c b997 73bd
00000310: a389 f53d d345 d7bd 9623 de3d fce4 3e3d
00000320: 93ac a03c 9820 343e c9ca ca3d e6e4 93bd
00000330: beb9 89bd 4c72 c33d d4e7 573c 476e 9dbd
00000340: fd34 083e 378c c9bd 5f05 debc 6a5c 0cbd
00000350: 45b7 223e fef0 433d 7063 603d 6a5d 0ebe
00000360: 5857 93bd c3d1 b03c f237 b73c 41b3 133e
00000370: 0dd5 103e 39bc 88bd 8eb6 ecbc ab21 06be
00000380: 1762 c83d 5232 9c3d 1b5d 00be f425 853d
00000390: d804 90bd 0e8c 7ebc 5436 87bc a86e ee3d
000003a0: 9625 c1bd e0b5 f13d 55c7 aa3c 4e82 f13d
000003b0: 37a5 00be 456d dabc 8ede 5f3d 8fe3 24bd
000003c0: 62b0 32bd 2427 8cbd 81ba d6bc 9176 1d3d
000003d0: 1bcb 51bd b1c5 cbbd a75e 5ebd 52cc ba3c
000003e0: 0b58 95bd 1f59 d2bc a02f e63b 1b39 0d3e
000003f0: e5ae 1a3e ddac 20be 7655 cd3d 6e4d 543d
0.011042846 0.052041024 0.08569624 -0.025422124 0.06252891 -0.08487334 0.20361036 -0.093625546
0.095318675 -0.010995675 0.01856584 -0.055636626 -0.024517175 0.1357107 0.08669338 -0.009506907
0.04723865 -0.067682825 -0.03261298 0.027043918 -0.052962393 0.0070275296 0.013588754 -0.037627876
-0.016542438 -0.074686736 -0.012476778 0.07287741 0.06985435 -0.010137808 0.14125364 0.14591137
0.047105625 -0.045000944 -0.0043976754 -0.06122328 0.07382854 -0.12773818 -0.030145643 0.124072626
-0.010625945 0.11381538 -0.050031018 0.123726845 -0.010128581 -0.015325126 -0.08082743 0.016546892
-0.047799055 -0.04343283 -0.049491152 -0.04690014 -0.09503165 -0.12585232 0.14765622 -0.028345464
0.0008763123 0.0071994844 -0.002852882 -0.02103986 0.015906865 0.02560853 0.124466814 -0.09956321
-0.07326105 -0.08008232 -0.052167635 0.09961716 0.012504672 0.14683689 0.008184135 -0.12780677
0.006548623 -0.069281965 0.04013342 0.09062045 -0.11321782 -0.034814898 0.14203137 0.11496165
0.0030039942 0.03405933 -0.042850148 0.0746591 -0.17136472 -0.15404251 -0.05174249 0.14419152
0.1110455 -0.028772956 0.10527709 0.03180856 0.061903656 0.011839744 0.09850126 -0.032294936
-0.007858621 0.07527167 -0.08291497 0.09671592 -0.016453251 -0.07275452 -0.011624324 -0.097114705
-0.06212542 -0.10485434 0.030738484 0.11767084 0.038482584 -0.032494742 0.025129296 -0.023711398
-0.0054141018 0.12212062 -0.041038223 -0.1400474 -0.0216051 0.13338412 0.025510665 -0.275361
0.09750101 0.017555572 0.14701377 0.059778724 0.03759063 0.13299766 -0.09266025 0.082988456
-0.04355742 -0.018479727 -0.017025396 -0.18571939 0.101428434 0.043972135 0.0050562136 0.0256213
-0.015644189 -0.1552155 0.034767393 0.026938755 -0.046558507 -0.07923834 0.07777027 -0.062420413
-0.017445216 -0.0021125937 -0.0962954 -0.0022443926 -0.12207274 0.072724625 -0.0618202 -0.051998325
0.0061683874 0.044246297 -0.09540304 -0.1097088 0.069542825 -0.099897735 -0.058704954 -0.017154915
-0.08410781 -0.05793576 -0.14743793 -0.06772471 0.17884067 0.07124771 -0.04858264 -0.10464312
0.057407405 0.047987033 -0.03193084 -0.09707301 0.06916395 0.14846176 -0.047932126 -0.037534285
0.038087115 -0.057204794 0.09253311 0.07906807 -0.029985396 -0.07485666 -0.14876881 0.0822161
-0.037565634 0.15466216 0.017088158 0.07532181 0.18630277 -0.09301293 -0.028959539 0.006265145
0.09404885 0.054926448 0.02920699 -0.059470866 0.11989143 -0.10511365 0.10846631 0.046605095
0.01961354 0.17590559 0.099019594 -0.07221393 -0.06724881 0.09543285 0.013177831 -0.07687049
0.13301463 -0.09841197 -0.02710217 -0.03426782 0.15890224 0.04783725 0.05478233 -0.13902822
-0.07194394 0.021584397 0.022365544 0.14423849 0.14143772 -0.066765256 -0.028895643 -0.13098781
0.09784334 0.07626785 -0.12535517 0.065013796 -0.07032174 -0.015536321 -0.016505398 0.116422
-0.09430997 0.11802268 0.020847002 0.11792432 -0.12563024 -0.026663432 0.054655604 -0.04025608
-0.043625243 -0.06843403 -0.026211979 0.03844315 -0.051219087 -0.09949816 -0.054289486 0.022802506
-0.072921835 -0.025677262 0.0070247203 0.13791315 0.1510578 -0.15690942 0.10026066 0.051831655

feature_projection.layer_norm.weight f4 [32]
00000000: 0000 803f 0000 803f 0000 803f 0000 803f
00000010: 0000 803f 0000 803f 0000 803f 0000 803f
00000020: 0000 803f 0000 803f 0000 803f 0000 803f
00000030: 0000 803f 0000 803f 0000 803f 0000 803f
00000040: 0000 803f 0000 803f 0000 803f 0000 803f
00000050: 0000 803f 0000 803f 0000 803f 0000 803f
00000060: 0000 803f 0000 803f 0000 803f 0000 803f
00000070: 0000 803f 0000 803f 0000 803f 0000 803f
1.0 1.0 1.0 1.0 1.0 1.0 1.0 1.0
1.0 1.0 1.0 1.0 1.0 1.0 1.0 1.0
1.0 1.0 1.0 1.0 1.0 1.0 1.0 1.0
1.0 1.0 1.0 1.0 1.0 1.0 1.0 1.0

feature_projection.layer_norm.bias f4 [32]
00000000: 0000 0000 0000 0000 0000 0000 0000 0000
00000010: 0000 0000 0000 0000 0000 0000 0000 0000
00000020: 0000 0000 0000 0000 0000 0000 0000 0000
00000030: 0000 0000 0000 0000 0000 0000 0000 0000
00000040: 0000 0000 0000 0000 0000 0000 0000 0000
00000050: 0000 0000 0000 0000 0000 0000 0000 0000
00000060: 0000 0000 0000 0000 0000 0000 0000 0000
00000070: 0000 0000 0000 0000 0000 0000 0000 0000
0.0 0.0 0.0 0.0 0.0 0.0 0.0 0.0
0.0 0.0 0.0 0.0 0.0 0.0 0.0 0.0
0.0 0.0 0.0 0.0 0.0 0.0 0.0 0.0
0.0 0.0 0.0 0.0 0.0 0.0 0.0 0.0

feature_projection.projection.bias f4 [16]
00000000: 0000 0000 0000 0000 0000 0000 0000 0000
00000010: 0000 0000 0000 0000 0000 0000 0000 0000
00000020: 0000 0000 0000 0000 0000 0000 0000 0000
00000030: 0000 0000 0000 0000 0000 0000 0000 0000
0.0 0.0 0.0 0.0 0.0 0.0 0.0 0.0
0.0 0.0 0.0 0.0 0.0 0.0 0.0 0.0

encoder.layer_norm.weight f4 [16]
00000000: 0000 803f 0000 803f 0000 803f 0000 803f
00000010: 0000 803f 0000 803f 0000 803f 0000 803f
00000020: 0000 803f 0000 803f 0000 803f 0000 803f
00000030: 0000 803f 0000 803f 0000 803f 0000 803f
1.0 1.0 1.0 1.0 1.0 1.0 1.0 1.0
1.0 1.0 1.0 1.0 1.0 1.0 1.0 1.0

encoder.layers.0.feed_forward.intermediate_dense.bias f4 [20]
00000000: 0000 0000 0000 0000 0000 0000 0000 0000
00000010: 0000 0000 0000 0000 0000 0000 0000 0000
00000020: 0000 0000 0000 0000 0000 0000 0000 0000
00000030: 0000 0000 0000 0000 0000 0000 0000 0000
00000040: 0000 0000 0000 0000 0000 0000 0000 0000
0.0 0.0 0.0 0.0 0.0 0.0 0.0 0.0
0.0 0.0 0.0 0.0 0.0 0.0 0.0 0.0
0.0 0.0 0.0 0.0

onnx::Mul_619 f4 [32, 1]
00000000: 0000 803f 0000 803f 0000 803f 0000 803f
00000010: 0000 803f 0000 803f 0000 803f 0000 803f
00000020: 0000 803f 0000 803f 0000 803f 0000 803f
00000030: 0000 803f 0000 803f 0000 803f 0000 803f
00000040: 0000 803f 0000 803f 0000 803f 0000 803f
00000050: 0000 803f 0000 803f 0000 803f 0000 803f
00000060: 0000 803f 0000 803f 0000 803f 0000 803f
00000070: 0000 803f 0000 803f 0000 803f 0000 803f
1.0 1.0 1.0 1.0 1.0 1.0 1.0 1.0
1.0 1.0 1.0 1.0 1.0 1.0 1.0 1.0
1.0 1.0 1.0 1.0 1.0 1.0 1.0 1.0
1.0 1.0 1.0 1.0 1.0 1.0 1.0 1.0

onnx::Add_620 f4 [32, 1]
00000000: 0000 0000 0000 0000 0000 0000 0000 0000
00000010: 0000 0000 0000 0000 0000 0000 0000 0000
00000020: 0000 0000 0000 0000 0000 0000 0000 0000
00000030: 0000 0000 0000 0000 0000 0000 0000 0000
00000040: 0000 0000 0000 0000 0000 0000 0000 0000
00000050: 0000 0000 0000 0000 0000 0000 0000 0000
00000060: 0000 0000 0000 0000 0000 0000 0000 0000
00000070: 0000 0000 0000 0000 0000 0000 0000 0000
0.0 0.0 0.0 0.0 0.0 0.0 0.0 0.0
0.0 0.0 0.0 0.0 0.0 0.0 0.0 0.0
0.0 0.0 0.0 0.0 0.0 0.0 0.0 0.0
0.0 0.0 0.0 0.0 0.0 0.0 0.0 0.0

onnx::MatMul_621 f4 [32, 16]
00000000: 4538 25bd 8bc0 febc e6ca cebc 8047 35bc
00000010: f843 a93b f350 5c3c 6539 43bc 9c37 6ebb
00000020: 788f 2cbc 394b 0dbc 1e99 c1bb 8b85 67bb
00000030: f766 e93c 7f28 993b e54d 293c 6b43 1ebb
00000040: 9b36 8f3c 70a4 0e3c 55ab dcbc 00f9 b6ba
00000050: a1ba 3c3b b43f d3bb 5978 cfbb 0d76 b4bc
00000060: 8ffc 2f3c c938 dbbb d547 f93b 221e 233b
00000070: cda4 8fbb ea81 adbc 5562 3b3c f874 ebbc
00000080: efd8 043c 7d4c e53b 5034 c9bb 7754 0a3d
00000090: e933 e6bc 4aa3 8dbc 7e77 3d3d 0e4b ba3c
000000a0: becc 45bc 8a8f 86bb 9d11 c83b 7ca7 53bb
000000b0: 38d5 70bc 13cc 923c 5b62 d53c 7661 133c
000000c0: 84a3 973b ef61 da3c a466 be3a 1377 e73c
000000d0: b8c1 173a 97ec 073c b255 0f3b 4ebb 613c
000000e0: b31e dbbc c9bc c83c 9369 70bc e21e 8fbc
000000f0: e776 75bc ac62 da3c 928c 973c 3b9e 2f3d
00000100: 5927 dcbb ce7f 1a3c f468 89bc 00b6 79bb
00000110: e7e3 12bc 8a86 dfb9 462f 233c d616 a8bc
00000120: c915 bbbc 05f7 53bc ad58 c73c 0114 78bc
00000130: 6cd3 e8bc f598 e0bb c494 21bd 3b8b d6bc
00000140: 4d04 c0bb c904 623b d1fc 1c39 17cb 923b
00000150: 360e 913c 8649 1a3c 4bb4 3e3c be5b 10bd
00000160: 2e01 c4bb 9812 913c a05a 82bc a0e1 263c
00000170: d43c 35bb b9ee af3c 8f5a 2a3c fd3d e13b
00000180: 1e12 583b 97b3 7ebb d6f2 09bc 440a 3c3c
00000190: 0d15 143c 29c1 a6bc 152c 48ba 00eb 833a
000001a0: b29b 5bbc 93ec 7e3a 3473 843a e2c5 8a3c
000001b0: 181d e5bc 4982 82bc ca7a 993c 8c7c fe3c
000001c0: 18f3 57bc f808 5dbc 2fdb 63bc e27f 01bd
000001d0: e6d1 4dbb 3d51 c83c 104a 023d 975a 6abc
000001e0: b0fc 02b9 fec2 703d f371 cdbc 890a b4ba
000001f0: ae84 56bc 69b8 c4bc d987 f83c 8209 3239
00000200: 8046 fabb 247d c0bb f20d f4ba 85ed 2abb
00000210: 2ad2 243c a1e5 083d 696c 7c3c 6ac2 94bc
00000220: 0171 3d3c 7857 28bc f057 d23c 8210 823b
00000230: 9e0c f4bc a137 b63b f213 2bbb 8294 3a3c
00000240: 1833 9fbc 66b7 073c cf97 9b3c b5e4 b83c
00000250: d971 023c 6fbc 653c 2626 c23c f9be e13a
00000260: 36ad afbc 95b6 cebc f0e5 98bc f981 05bc
00000270: c3b7 0a3c b86f ac3b 4591 2dbb 8b2f db3c
00000280: 10b4 853b ace2 da3b bcb2 3bba 3e4f 1fba
00000290: 99a7 e53c 37c3 3e3c ab07 bdbc 068c b8bb
000002a0: 0022 44bc a938 42bd 74ac 3cba 6e80 893a
000002b0: 06de 15bd a4d5 04bc 94ce 853c 5036 d73c
000002c0: 142c a8bc 2a1a 20bc 95e9 33bb d590 ea3a
000002d0: 663d 1f3c 2c53 e73c d220 8f3b 55ad cfbb
000002e0: 9a11 153c 80d0 98bb 6a7e c0bc 6245 eb3a
000002f0: d4f4 433c 5e63 583c 817e 5f3d dc44 9a3c
00000300: cac7 febc ad33 293c 2499 233d 5c0f c83b
00000310: 673f 2c3c e02f 4e3c 79e1 bc3b 4b4c debc
00000320: 723f 213c 53b9 633c 9960 473c 8934 7fbb
00000330: ebfe 9dbc c4dd 1e3b 996f c8bb 24e1 96bc
00000340: 55af cfbc dcd6 bd38 7595 89bb 6d83 a9bc
00000350: abb6 ceb6 cd93 c63c f5c7 6dbc 8a3a 403c
00000360: 5443 dabc fbe5 963b 6d48 023d 92cf e73c
00000370: 0de8 bc3c e75c babb f370 5ebc 4411 bbbc
00000380: 82ee fa3a 01e9 b2bb 307a 5dbb 01e7 793c
00000390: 9c9e 30bd fe37 283c b116 02bc d240 5ebb
000003a0: c919 a3bb 8396 69bc dc93 8cbb de1d 993c
000003b0: 6a27 5fbb 8d63 0e3d c27f 41ba 7464 8abc
000003c0: 75af 0cbb 526a 6cbc 2d10 833b ef60 763c
000003d0: e97c 87bc 201e 1abd f976 76bb 955d cc3c
000003e0: 0e25 efbc 818f b33c 32d6 a6bc a2dc c6bb
000003f0: 2fb2 0abd 50d4 8f3c 8062 df3b 855f 85bb
-0.040336866 -0.031097671 -0.025243234 -0.01106441 0.005165573 0.013447034 -0.011915539 -0.0036349064
-0.0105322525 -0.0086238915 -0.0059081456 -0.00353274 0.02849148 0.004674017 0.010333513 -0.002414907
0.017482093 0.008706197 -0.026937166 -0.0013959706 0.0028797763 -0.006446803 -0.006331485 -0.022028947
0.010741367 -0.006690119 0.00760744 0.0024889787 -0.0043836595 -0.021180112 0.011437018 -0.028742298
0.008108362 0.0069976435 -0.0061402693 0.03377196 -0.028100925 -0.017289776 0.046256535 0.022740867
-0.01207274 -0.0041064667 0.0061056153 -0.0032295873 -0.014699273 0.017919576 0.026047876 0.0089954045
0.004627647 0.026658027 0.0014526439 0.028255021 0.0005789059 0.0082961535 0.0021871147 0.013777567
-0.026748037 0.024504082 -0.014673608 -0.01747078 -0.014981962 0.026658379 0.018499646 0.04287551
-0.006718558 0.009429885 -0.016773678 -0.0038102865 -0.008965469 -0.00042634114 0.009960001 -0.020518702
-0.022837536 -0.012937312 0.024334276 -0.015141488 -0.028421126 -0.0068541714 -0.039448515 -0.026189437
-0.0058598877 0.0034487715 0.00014971501 0.0044797766 0.017706972 0.009416943 0.011639665 -0.035243742
-0.005981586 0.017709062 -0.015912354 0.010185629 -0.0027654665 0.021476137 0.010397567 0.0068738447
0.0032969783 -0.0038864368 -0.008419713 0.011477057 0.009038222 -0.020355778 -0.0007635963 0.0010064542
-0.01340382 0.00097245834 0.0010105134 0.016940061 -0.027967975 -0.015931265 0.018735308 0.031065248
-0.013180517 -0.013490908 -0.013907238 -0.0316161 -0.0031405627 0.0244528 0.031808913 -0.014303825
-0.000124919 0.05877971 -0.02507875 -0.001373605 -0.013093157 -0.024013715 0.030338215 0.00016978945
-0.007637799 -0.005874293 -0.0018619879 -0.0026081514 0.010059873 0.033422116 0.015406706 -0.01815911
0.011562587 -0.01027476 0.025676697 0.003969253 -0.029791173 0.0055608307 -0.0026104418 0.011387946
-0.019433543 0.008283472 0.018993286 0.022569994 0.007961714 0.014021977 0.023699831 0.0017223052
-0.021444898 -0.025233546 -0.01866433 -0.008148664 0.008466664 0.0052623414 -0.0026484292 0.026756069
0.004080303 0.0066798534 -0.00071601174 -0.00060771767 0.028034018 0.0116432225 -0.023074945 -0.0056319265
-0.011970997 -0.047417317 -0.00071973284 0.0010490546 -0.03658869 -0.0081075765 0.016333856 0.026271015
-0.02052883 -0.009771863 -0.0027452458 0.0017895947 0.009719228 0.028237902 0.004367926 -0.0063378015
0.009098435 -0.004663527 -0.023497779 0.0017949755 0.011960227 0.013207285 0.054564003 0.018831663
-0.031101126 0.010327262 0.03994097 0.0061053466 0.010513163 0.0125846565 0.005764183 -0.027135989
0.009841787 0.013899165 0.012169027 -0.0038941226 -0.019286593 0.002424107 -0.006116819 -0.018417902
-0.02535216 9.052243e-05 -0.004198725 -0.020692552 -6.1605438e-06 0.024240399 -0.0145130055 0.011732707
-0.026643433 0.0046050525 0.03180735 0.02829722 0.02305987 -0.0056873444 -0.013576734 -0.022835381
0.0019144567 -0.005459905 -0.0033794753 0.0152528295 -0.04312001 0.010267256 -0.00793998 -0.0033913148
-0.004977439 -0.014257076 -0.004290087 0.018691 -0.0034050592 0.034762908 -0.0007381403 -0.016893603
-0.0021466885 -0.014429646 0.003999731 0.015037759 -0.016539054 -0.037626386 -0.0037607534 0.024946967
-0.029192474 0.021919014 -0.020365808 -0.006068782 -0.033861335 0.017557293 0.006817162 -0.0040702247

onnx::Conv_624 f4 [16, 8, 16]
00000000: 3d34 0f3d 1971 62bd 2c8d 10bd a4f0 5cbd
00000010: fdf3 99bd dc50 a73d 48ab 4f3d 3759 14bd
00000020: a5bf 83bd 37ee 153d a235 2c3b 491a c43c
00000030: 5533 97bd 4084 9e3d 7908 f23c eb16 853d
00000040: 73e4 4abd e31e f9bc 8f32 61bd e4d9 113b
00000050: 928c 4c3d 15b8 583c e439 2b3d f48c 21bd
00000060: 9590 02bb c08a 82bb cf9a ad3b dc54 66bd
00000070: 123d 3e3d 71a9 82bd 8f1b 6b3d 19b2 df3a
00000080: f986 583d 7118 7ebd 2e17 46bc 2fa6 043d
00000090: 3583 36bd 0c0f 8abd 4b03 463c ad59 3bbd
000000a0: 2e3e 723d 64fa 5dbd 474a 0c3d da94 dabc
000000b0: 0c86 8cbd a520 663d a043 1e3d f71a 163d
000000c0: 97b3 103d 139b 82bd 3788 afbc 6848 9dbc
000000d0: 7bbe efbc 582e 03bd 50be 723d bf06 f7bc
000000e0: e462 9f38 755b 803d 00e6 1bbd 4635 56bd
000000f0: 9dba 6b3c 4ca1 8f3d b3a6 763d 0722 6c3b
00000100: f3f5 b1bd c315 6abd 3c82 583d 0904 83bd
00000110: 38ed 7b3d bb20 34bd c617 ce3c 1d52 89bd
00000120: 13ca 573d 8c6d ff3c 8f00 a8bd 28a1 54bd
00000130: dae3 403d 95c5 043d da1a b2bd cfef a0bd
00000140: 6b5f 9c3d a3ad ac3d e6ae 28bd 330f 79bd
00000150: ced2 f93c dd0f 2f3d b74b 703d 6a2b 683c
00000160: a3a1 a73d ef67 153d 8df5 893c 2467 02bd
00000170: cbf0 98bd 76ae 0abd 7bbc 32bd dd6c aabd
00000180: 6f4a 223d d70d a5bd 3579 a13d a8eb 80bc
00000190: d926 84bd 8e89 223d 7ff6 0c3d 705d b33c
000001a0: fd02 943d fc8a 923d d4a4 963d f55f f2bc
000001b0: 8b3c 94bd 964b b13d 8eb1 afbd 65cd 0fba
000001c0: bed5 84bd f8d5 173c 9270 aebd b9c4 94bd
000001d0: 9f28 a73c ada3 e7bc 3a15 783d 942b 45bc
000001e0: 56b3 3c3d f4ab b23c 1b07 503d ab55 753d
000001f0: 59cd 923d d314 553d eccb 8f3d f9a0 e43c
00000200: 317e a93c 2108 cfba 5bd3 aabd 56a9 a1bd
00000210: 74e1 84bd 7dfa 053d b69c 8bbc eff8 1e3d
00000220: d44e 443c 3322 71bd 6fe7 503d f33f 9dbd
00000230: 9b5f 9c3d 06e7 f0b8 fb0d 7d3c cf2e 6cbd
00000240: caff a53c 96e3 7b3d e265 21bd 12af 943c
00000250: 39c3 e03b bf73 8fbd 4a34 af3d a454 89bc
00000260: 133f 70bd 28ff 90bd 3db0 003c f54b b73a
00000270: 74b5 953b ac73 7ebd 27b9 13bd c02e 2cbd
00000280: fde8 1f3d e1c1 0bbc ac90 243c ae52 aa3d
00000290: 1267 983d a256 3f3d 6439 0abb 3040 7dbc
000002a0: 7ac2 b9bc 1ca6 d1bb 4dc1 a6bd fec1 863d
000002b0: bbfa a5bd ce69 30bc b7e5 e0bc 7287 173d
000002c0: d704 b5bd bac4 5c3d f16a 953b c9ba 33bd
000002d0: 0312 503d b33e 9b3d d7a5 a83c 149a 4b3c
000002e0: 3eaf e13c 821c adbd d4d0 8e3d 19e8 8d3d
000002f0: 2ba5 983d a73e 83bd 8b49 ef3c e30f b43d
00000300: 823b 8bbd 4340 d2bb c675 833c 96c1 963d
00000310: d96e bc3c e1da 77bd ac00 1ebc 77bd cd3b
00000320: e111 98bd d430 b6bc 420d 4cbd df0a 533d
00000330: c90f 89bb dbee c43c 586e 583d c1c6 91bd
00000340: d701 8e3d 7bea d93a 8a56 e23c 3d9d 0e3d
00000350: 5a86 3fbd f4d8 933c 188c 18bd 03a8 d53c
00000360: 461b 22bd 5f46 2e3c 0cdf 03bd 0007 3ebd
00000370: 78a5 6fbc dc88 80bd 6784 babc eaf6 d73c
00000380: c215 563d 841c b8bc 273b afbd 3bf0 e13c
00000390: 5e14 9e3d 1c82 993d c13f b43d 335a fdbc
000003a0: d192 34bd de75 3db8 fadf 743d 5d57 ae3d
000003b0: 96a5 953d 92bb 963d 68d6 20bd e198 893a
000003c0: b38a a1bb da24 a5bd 6e23 d03c 43ce b23d
000003d0: 8b42 853b f0c9 973d 29da 32bd 1c3b a7bd
000003e0: 6ae0 6c3b 80d0 aebd 2163 8d3d 66a9 37bd
000003f0: d6e2 ffbc 8c1e 853c 037b a7bd 3741 0e3d
0.034961928 -0.05528364 -0.035290882 -0.05394043 -0.0751724 0.081697196 0.050700456 -0.036217894
-0.06433038 0.036604133 0.0026277085 0.023938315 -0.07382838 0.077400684 0.029545056 0.06498512
-0.049534272 -0.030410236 -0.054979857 0.0022255117 0.049938746 0.013227482 0.041803256 -0.039441064
-0.0019922603 -0.0039838254 0.0052979956 -0.056233272 0.04644496 -0.06379975 0.05739933 0.0017066627
0.052863095 -0.062035028 -0.012090487 0.032385048 -0.044558723 -0.06741151 0.012085746 -0.04573982
0.05914133 -0.05419387 0.034250524 -0.026682306 -0.06861505 0.056183476 0.03863871 0.03664681
0.03532752 -0.06377234 -0.021427257 -0.019199565 -0.029265633 -0.03202662 0.059263527 -0.030154584
7.6001306e-05 0.06267444 -0.038061142 -0.0522969 0.014387754 0.07013187 0.06021757 0.0036031024
-0.08689489 -0.05714966 0.052858576 -0.06397254 0.061505526 -0.043976527 0.02515782 -0.06705115
0.052682947 0.031180166 -0.082032315 -0.051911503 0.047092296 0.03241499 -0.08696528 -0.0785824
0.07635387 0.08431556 -0.04118242 -0.06080551 0.030496027 0.042739738 0.058665957 0.014170507
0.08185127 0.036476072 0.01684072 -0.031836644 -0.074678026 -0.033857785 -0.04363678 -0.08321545
0.039621767 -0.0805928 0.078844465 -0.01573737 -0.06452722 0.039681964 0.034414764 0.02189514
0.072271325 0.071554154 0.07355657 -0.029586772 -0.0723811 0.08656995 -0.08578788 -0.0005485623
-0.064860806 0.009267323 -0.08517565 -0.07264084 0.020405112 -0.028276289 0.06056712 -0.012034316
0.046069466 0.02181051 0.050788026 0.059896152 0.07168073 0.052021813 0.07021317 0.027908789
0.020690056 -0.0015795269 -0.08341094 -0.078936264 -0.06488314 0.032709587 -0.017042499 0.03881162
0.011981685 -0.058870506 0.051001962 -0.07678213 0.07635423 -0.00011487123 0.015445228 -0.057661828
0.020263571 0.06149634 -0.039403804 0.018149886 0.00685921 -0.07004499 0.08554895 -0.016763993
-0.058653902 -0.07079917 0.0078545185 0.0013984429 0.00456875 -0.062122032 -0.036065247 -0.04203677
0.039040554 -0.008530111 0.010044258 0.08316551 0.07441534 0.04671348 -0.0021091336 -0.015457198
-0.022675741 -0.0063979756 -0.08142338 0.0657997 -0.08104464 -0.010767413 -0.027453287 0.036994405
-0.08838814 0.05389855 0.0045598675 -0.043879304 0.050798427 0.07580318 0.020586891 0.012426872
0.027549382 -0.08452703 0.069734246 0.06929035 0.07453378 -0.06408434 0.029209873 0.08792093
-0.067984596 -0.006416352 0.01604737 0.07361142 0.023002075 -0.060511474 -0.009643715 0.0062786895
-0.07425285 -0.02224008 -0.04981733 0.05152404 -0.00418279 0.024039676 0.052839607 -0.071179874
0.06933945 0.0016625667 0.027629156 0.034817923 -0.046758987 0.018047787 -0.03724298 0.02608109
-0.03957679 0.010636895 -0.032195136 -0.046393394 -0.014626853 -0.06276104 -0.022768212 0.026362855
0.052266844 -0.022474535 -0.08556204 0.027580371 0.077187285 0.074955195 0.088012226 -0.0309268
-0.044085328 -4.5170884e-05 0.059783913 0.08512757 0.07306974 0.07359995 -0.039266974 0.0010497832
-0.0049298643 -0.080636695 0.02540752 0.087307476 0.0040667704 0.074115634 -0.043665085 -0.08165571
0.0036144503 -0.08535862 0.06903673 -0.044839285 -0.031236093 0.016249917 -0.081777595 0.034730162

onnx::MatMul_629 f4 [16, 16]
00000000: b020 ecbb bb0d 57bc 3066 e1bb b031 103b
00000010: 3296 4b3a b586 0d3a db6a 5bbc 9031 10bc
00000020: eb6b 9c3c 78cf e9bc bc43 fe3b a5cc 6abc
00000030: c4f5 d0bc bbe7 a53c 1c81 6fbc 158b 393d
00000040: 7450 893b ff38 163c 61e5 8ebb 728f bbbc
00000050: 74f9 3cbc 62e7 e0bb 5c31 a53c 58fb 573c
00000060: de60 163c f72c 5f3b 41fa 8d3a 3df4 9bbb
00000070: 7021 653c 4582 1ebc cf3e 443c 36f6 adbc
00000080: 3bf8 fc3c 30ed 1cbd cd69 14bd 26bb 373c
00000090: e5d6 b5bb 7d22 c7ba 548b e8bc fbed be3c
000000a0: 5519 47bd 1e4f 463c 2376 f13c a709 213c
000000b0: edb3 c33c 7bcc 76bc 0b58 0cbc 33f5 3e3b
000000c0: 52af dfbb 4e8c e1bc 67b8 c0bb b4b1 003d
000000d0: 241b d1bc 3515 b73b 70d8 02bd cb88 1cbd
000000e0: b4bc 573a b40d 0b3c 935a f53b 0093 243d
000000f0: 5dd2 793c ca04 623c 8f20 51bd 00d9 22bc
00000100: 35cb 07bd 9073 49bc 74eb 693d 0b50 253c
00000110: 78f4 37bb a1f2 f73c d753 973c fd9c 833b
00000120: b44d d43c f540 5a3c 9771 873c 698a 233b
00000130: d417 9abc d78f a33b a658 7dbb 05a4 dcbb
00000140: 56f7 20bd 3d47 183c 708a c03b 9e46 b6bc
00000150: 5506 183c ed0c a8bc b80c 2b3c a94a 493b
00000160: 800c b63c be09 0ebd f39b 81bc b713 693a
00000170: 4e39 1f3c 1b82 67ba a7a9 b13b 83b2 6c3d
00000180: d25c a7bc 69a1 4d3d 5017 1d3c 0299 ec3b
00000190: 73d9 093c 8ab9 45bc 199f a8bb d9a0 21bc
000001a0: 7a22 a33b ff4c 053d 4775 9e3b 6c00 6b3c
000001b0: bb85 cd3b c968 003c 4a52 c3bc 599f 333c
000001c0: 1833 d338 36c2 27bd db68 eb3c 1753 e6b9
000001d0: 7999 dcbc f625 06bd 7cd5 2a3c 2ff5 983c
000001e0: 2732 a8bb f4b5 4bbb 81d1 c2bb 904d 8cbc
000001f0: f25b fb3c eb0f 2e3d 9edd a4bc bc57 87bc
00000200: 8683 813c 2a8b 3dbb 4dd4 a9bb a242 253b
00000210: 30c5 7abc 62d5 623c 4cc3 0abb 352f d9bc
00000220: a7a3 86bc 5d2f 823b 5511 543d 9733 b8bb
00000230: 951a fb3c 5064 a53b 8b76 243c 27b7 153d
00000240: 39c1 943b d79e 8e3c 47d3 a13c 84d0 653b
00000250: fcc6 4a3a e799 d8bc c95f 283c b2fe 8d3b
00000260: 8aac d33b 15ed 98bc cf93 d23c 0733 2c3b
00000270: c2f9 f13a 2f40 173b c643 cf3c 2247 5c3c
00000280: 5edb 4dbc 78b4 6ebc a0c3 44bc 3ead b13c
00000290: 9038 87bc b675 073b 98fd 4b3b 109e 1c3d
000002a0: 2d59 a5bc ff6a 8bbc 6016 9d3c 2ea1 993b
000002b0: f581 693a 98ae 7c3a e23e 57bc 41fb ba3b
000002c0: 1b5a a3bc a116 e1bc 6123 42bc f992 b1bc
000002d0: e223 c43c 2046 ab3c 4daa b7bc c91d 3ebc
000002e0: 99b4 1e3d 1af8 99bb b394 4cbc cab3 bc3c
000002f0: 6777 0fbd 7e88 57bc 0518 343b 8053 dabb
00000300: 2fae 0abc f5de 54bc 16ca 08bc 41ec 0cbd
00000310: 1c7e dc3c 79a0 1cbb b851 c63c 6f60 133c
00000320: 95fd cabc 8059 4f3c 92a9 b03c 4628 1f3b
00000330: 2290 d0bc 6548 243c a20a 29bd fb4b cb3c
00000340: 1be1 33bb f467 4a3c ab4b 373c c908 013c
00000350: 94ad 14bd 6d49 8d3b ed11 34bc 1267 03bd
00000360: fd1b 85bb a8a6 a0bc 6b70 373c 7984 f5bc
00000370: 1795 f03c 81db 243c fe2c bc3c efee 3e3c
00000380: 1409 813c 2361 f7bc 8473 c2bc 80a1 b63b
00000390: aae9 723c 240c 2a3c 29a2 223d ee8e a9bb
000003a0: 395e d3bc a447 613c ef73 873c 42ce 793b
000003b0: 8637 493c c60d 20bd 4447 15bb 483e 09bd
000003c0: de0b 05bd 39df 493b b215 04bd 7cec 57bc
000003d0: 2a76 e5bc a238 213c 2197 973c 8dd7 2cbc
000003e0: 0f73 75bb 24b4 58bb 5788 763c 5c7b 263d
000003f0: c280 7cb8 ee27 f5bb d112 05bc 78b6 a63b
-0.007206045 -0.013125832 -0.006878637 0.0022002272 0.00077662163 0.0005398796 -0.013392176 -0.008800879
0.019094428 -0.028541312 0.0077595394 -0.014331018 -0.025507815 0.0202521 -0.014618184 0.045298655
0.004190499 0.009168862 -0.00436084 -0.022895548 -0.011534084 -0.0068635205 0.020165138 0.013182484
0.009178368 0.00340539 0.0010832028 -0.00475934 0.013985023 -0.009674613 0.011977865 -0.021235567
0.030880084 -0.038312137 -0.036233712 0.011214053 -0.005549299 -0.0015192773 -0.02838675 0.023306837
-0.048608143 0.012103824 0.029475277 0.009828961 0.023889506 -0.0150634 -0.008565913 0.002913785
-0.0068263197 -0.027532723 -0.0058813575 0.03141947 -0.025525637 0.005587245 -0.031944692 -0.038216393
0.0008229718 0.008487154 0.007487604 0.040179253 0.015247908 0.013795087 -0.05105644 -0.009939432
-0.033152778 -0.012295619 0.05710931 0.0100898845 -0.0028069299 0.030267062 0.018472595 0.004016517
0.025915958 0.013321151 0.016533656 0.0024954325 -0.01881019 0.0049915123 -0.0038657575 -0.00673342
-0.039298378 0.009294328 0.005875878 -0.02225047 0.009278853 -0.020513976 0.010440044 0.0030714667
0.022222757 -0.03467726 -0.015821433 0.00088911824 0.009718252 -0.0008831338 0.0054218355 0.05778743
-0.020430002 0.05020276 0.009588078 0.0072203884 0.00841366 -0.012068162 -0.005145919 -0.009865009
0.004978475 0.032544132 0.004835758 0.014343362 0.0062720454 0.007837483 -0.02384295 0.010963284
0.00010070781 -0.0409567 0.028736522 -0.00043930925 -0.02692865 -0.032751046 0.010426875 0.0186716
-0.0051329318 -0.0031083794 -0.005945385 -0.017126828 0.030683491 0.04249565 -0.020125207 -0.016521327
0.015809786 -0.002892206 -0.005182779 0.0025216718 -0.015305802 0.01384482 -0.0021173535 -0.026511768
-0.016435457 0.0039729313 0.05177434 -0.0056213844 0.030652324 0.0050473586 0.0100380285 0.03655162
0.0045396355 0.017409725 0.019754065 0.0035066912 0.00077353395 -0.026440574 0.010276743 0.0043333406
0.0064597772 -0.018667737 0.025705246 0.0026275532 0.0018461274 0.0023079028 0.025300872 0.013444694
-0.012564508 -0.014569394 -0.012009531 0.021689054 -0.016506463 0.0020669526 0.0031126495 0.038236678
-0.020184124 -0.017018793 0.019175708 0.0046884036 0.000890761 0.00096390536 -0.013137551 0.0057062213
-0.019940427 -0.02747661 -0.011849255 -0.021676527 0.023942892 0.020907462 -0.022420073 -0.011603781
0.03874645 -0.0046987655 -0.0124866245 0.023034949 -0.03502598 -0.013155101 0.0027480137 -0.006662786
-0.00846438 -0.01299261 -0.008348962 -0.034404997 0.026915602 -0.002389936 0.024208888 0.0089951595
-0.02477912 0.012655616 0.021565232 0.002428548 -0.025459353 0.010027026 -0.041269906 0.024816504
-0.0027447406 0.012353886 0.011187474 0.00787563 -0.03629835 0.0043117316 -0.010990602 -0.032080717
-0.0040621744 -0.019610718 0.011196236 -0.029970394 0.029367967 0.010062099 0.022970673 0.011653646
0.0157514 -0.030197686 -0.023736723 0.0055734515 0.014826218 0.010378871 0.03970543 -0.0051745092
-0.025801765 0.013749991 0.016534774 0.0038117324 0.012281304 -0.039075635 -0.0022778073 -0.03350666
-0.03248202 0.0030803217 -0.032247253 -0.013178941 -0.028010447 0.0098401625 0.018504681 -0.010549438
-0.0037452613 -0.0033066357 0.015047154 0.04064499 -6.0201397e-05 -0.0074815666 -0.008122162 0.00508767

onnx::MatMul_630 f4 [16, 16]
00000000: 9222 ae3c cc32 a33c 2ef3 513c fa7d 043c
00000010: 7738 05bd 4f87 4ebd dc18 1d3b d952 d23c
00000020: 7cdf 68ba fd99 13bc c6bf 87ba b2bc cebc
00000030: f13a 8ebb 334c e1bb 6847 a33c 27a3 c83c
00000040: a135 cf3c 366a 9939 1811 00bc aff7 433d
00000050: 2533 d03a 6d62 05bc 1e52 45bc 6d88 17bb
00000060: f34c 81bc f7df 3cbc 8a99 7a3b 47df 9a3b
00000070: 1b2a bbbc 3ee9 5fbb 5d93 47bc b412 47b8
00000080: 578e 99bc 93d3 5d3c 5b33 3a3b aad2 49bb
00000090: 96e2 143d 907f 513b d016 383d cd20 0fbd
000000a0: c118 7bbb 135f 52bb 7428 19bc 2bb2 8abc
000000b0: 1522 043d 85e1 9b3c eb91 38b9 9028 343c
000000c0: 2d76 893c c9d4 e33c 178f 963c f79a 55bd
000000d0: 01c0 2f3d 2a62 563d e1bb 64bb defe 84bc
000000e0: 30ef 69bc e386 eebc 18fd 85ba cd46 02bd
000000f0: 0958 843c dd33 08bc aa04 343a 0ffa 393c
00000100: 7b77 85bc e6b6 ecbc ed4b 843c 94d1 d4bc
00000110: bb50 8bbb 4883 193c 01b7 1f3c 4f69 b9bb
00000120: 7b8a e13b 4f5c 723c 5b2b b03a a7ee c83c
00000130: ca1f d23c cea7 893a 153f 32bc 2580 bd3c
00000140: 4a85 ab3c 79c5 a4bc 3d1f 2b3b ceeb 80bc
00000150: 372e aabc b3f9 a6bb d309 5a3c 9d7f 423c
00000160: 4042 87ba 92f2 a9bc d5cd 7b3b 3de6 06bc
00000170: 7576 c2ba e1fe 75bc 002c 07bc c053 e13c
00000180: 26ce 31bd 97fb 98bc dbdd 1dbb bce3 073d
00000190: c1b4 143c 64be d8bc e6cc c3bc d2e0 373c
000001a0: 477c 003c fed0 c03c 1bf8 383c 67c7 1a3c
000001b0: 6bdc d5bc fb8e 033c 74e7 923c 53d9 aabc
000001c0: af57 b6bb 2682 0ebc 548b 7f3c 423f 8dbb
000001d0: 39ab 183b f1a9 143c c0c9 a1bc 1b69 fd3b
000001e0: cb69 f4bc a4a8 2e3d 073b 823c 3b1c 61bc
000001f0: c272 783c f682 9a3c 22ee b53b b391 a6bc
00000200: 6d58 ae3c 8973 e5bc 157c f23c 1b79 033d
00000210: 1e55 543c 8cf3 153d 6f18 833b 7e60 46bb
00000220: 4449 3bbc 1fda 20bd d816 b43b 2218 44bd
00000230: 46e7 953b dc19 113d 1429 df3c 61f5 e83b
00000240: 7e69 cb3b b72b f03c 6587 70bc ce52 ba3c
00000250: 22ef aebc 539f 57bb d43f 2fbd 02b3 ae3c
00000260: 0922 b63c 0b6b b33c 6df1 13bd a993 93bc
00000270: 0b9e 103d 6982 703c fb2a 6dbc 17b2 b8bb
00000280: d0d7 353c d45f d0bb 52db b6bc 61bb 10bd
00000290: d88c ea3c 26d5 82bb 1661 91bc feac 913b
000002a0: 937e 9b3c 0f57 253c ca79 843b 577e 0e3c
000002b0: ea41 53bc c766 50bc 2af6 d9bb 82b3 973b
000002c0: 6a6c 96bc 6d0a 923c 2940 163d b92c ba3c
000002d0: 9d22 5c3c 5b6a 193d c735 623b 1982 42bc
000002e0: 51f5 093b f9e0 3e3d a7d8 f4bb 5aef 1cbd
000002f0: 1b67 043d b912 f63b 5917 6abc 6f71 dd3b
00000300: 0bdf 07bb 5f03 073d 4121 c4bc 5eb2 213c
00000310: 609c a23c fd6b b2bb 6f2b bdbc 6e98 4a3c
00000320: dd43 00bd 5e48 4dbb 5629 06bd ef55 cabb
00000330: 77eb 933a c506 893b 29ad 3d3b 185b 9c3c
00000340: 2b8e c13a aa8f 59bb 0166 c43c 8ffb 94ba
00000350: 8f6f 153a 99d3 69bc 640d 1dbb b050 4b3c
00000360: f89c d4ba 7b5f af3c 01b8 65bc 2fc6 53ba
00000370: d581 c93c dc53 4bbc 0aa9 3ebc 865f 18bc
00000380: 893a 07bd 2645 60bb 5f78 043c 42f3 313c
00000390: 419a d0ba a8bf 90bc d216 8bbc 2716 87bc
000003a0: 47bf c33a b3d6 bf3c dfb0 073c 057a d23c
000003b0: 2287 3b3d 38e4 d1bc 7a5c 133d 816d c4bc
000003c0: 0ff5 c9bb ee7e 9cbc 0934 913b 7f17 15bc
000003d0: c6c2 8f3c f2c1 eabc 3114 0abd b73f 693b
000003e0: 070c 563c c515 173b 78dd 233c 65bf 093d
000003f0: 658f 443c e772 0a3c e104 fcbc 5cb5 48bc
0.021256719 0.019921683 0.012814326 0.008086676 -0.032524552 -0.05042201 0.0023971116 0.02567427
-0.00088833994 -0.009008882 -0.0010356836 -0.025236461 -0.0043405225 -0.0068755387 0.01993151 0.02449186
0.025294127 0.00029261567 -0.0078165755 0.04784363 0.0015884383 -0.008141142 -0.012043504 -0.0023122088
-0.015783763 -0.011528007 0.003823849 0.0047263238 -0.022847226 -0.0034166123 -0.01218113 -4.7462716e-05
-0.01874463 0.013539213 0.0028411958 -0.0030795732 0.0363489 0.0031966902 0.04494363 -0.03494339
-0.0038314315 -0.0032100126 -0.009348024 -0.01693066 0.032259066 0.019028435 -0.00017601966 0.010995999
0.016779983 0.027811425 0.018378777 -0.05214974 0.04290772 0.05233971 -0.0034902024 -0.016234811
-0.014278218 -0.029117053 -0.0010222523 -0.031805802 0.01615526 -0.008313146 0.000686715 0.0113511225
-0.016292324 -0.028895807 0.016149485 -0.02597884 -0.004251567 0.009369679 0.009748221 -0.0056583057
0.0068829632 0.014792516 0.0013440655 0.02452786 0.025649924 0.001050228 -0.010879298 0.023132393
0.02093758 -0.020113694 0.0026111149 -0.01573744 -0.02077399 -0.0050956844 0.013308006 0.011871246
-0.0010319427 -0.02074555 0.0038422246 -0.008233604 -0.0014836328 -0.015014381 -0.0082502365 0.027505755
-0.04340949 -0.018674655 -0.0024088535 0.03317617 0.009076298 -0.026457973 -0.023901414 0.011223035
0.00784213 0.023537155 0.011289622 0.009446955 -0.02610608 0.008029695 0.017932631 -0.020855581
-0.005564652 -0.008698022 0.015597183 -0.0043105194 0.0023295416 0.00907372 -0.019749522 0.007733477
-0.029835602 0.042641297 0.015897287 -0.013739641 0.015164079 0.018861275 0.0055520693 -0.020333147
0.0212824 -0.028009193 0.029600183 0.032097917 0.012959747 0.036609218 0.0040007154 -0.0030269916
-0.011431042 -0.039270516 0.0054958872 -0.047874577 0.004574689 0.035425052 0.027241267 0.0071093296
0.006207644 0.02931772 -0.014680718 0.022744562 -0.021354262 -0.003290136 -0.04278548 0.021325592
0.022233026 0.021901628 -0.036118913 -0.018014746 0.03530697 0.01467953 -0.014475579 -0.0056364643
0.011098817 -0.00635908 -0.022321377 -0.03533495 0.028631613 -0.0039926944 -0.01774649 0.004445671
0.018981254 0.010091557 0.0040428387 0.008697114 -0.012894133 -0.0127198165 -0.0066516595 0.0046295533
-0.018362243 0.017827237 0.03668228 0.022726404 0.013435987 0.037454944 0.0034516917 -0.011871838
0.002105076 0.04660127 -0.007472116 -0.0383142 0.03232489 0.007509556 -0.014287793 0.006757907
-0.002073231 0.0329622 -0.023941638 0.009869186 0.019849956 -0.005445002 -0.023092 0.012365444
-0.03131472 -0.0031323652 -0.032754265 -0.006174795 0.0011285384 0.004181715 0.0028942323 0.019086406
0.0014767101 -0.0033197203 0.02397442 -0.0011366474 0.00057005225 -0.01427164 -0.002396428 0.012409374
-0.0016221097 0.021407833 -0.014020921 -0.0008078543 0.024598042 -0.01241013 -0.011636982 -0.009300118
-0.033014808 -0.0034220903 0.008085339 0.01086122 -0.0015915112 -0.017669514 -0.016978655 -0.016490055
0.0014934324 0.023417806 0.008281915 0.02569295 0.04578317 -0.025621518 0.035976864 -0.023977997
-0.0061632465 -0.019103494 0.004431252 -0.00909984 0.01754893 -0.028656933 -0.033710662 0.0035590956
0.013064391 0.0023053747 0.010001533 0.033629794 0.011997079 0.008450246 -0.030764045 -0.012250271
