examples/onnx_models/2lcnvrl_sigmoid.onnx (onnx, 1569 bytes, 3 tensors)

conv1.weight f4 [3, 3, 5, 5]
0.09534814 -0.17302704 -0.028943386 -0.057932343 0.18436852 -0.18095492 0.04375186 0.021941537
0.1911028 -0.03459826 0.097010516 -0.12263004 0.21853262 -0.089701526 0.030200621 0.33500275
0.06745926 0.13916223 -0.1609399 -0.25325596 0.010465381 -0.17261404 -0.069426954 -0.010549071
-0.42100424 0.001632074 -0.01292548 -0.25049984 0.31071106 0.12107227 -0.1561972 -0.12743084
0.0314678 0.013453335 0.0339563 -0.16896583 0.18264219 0.27562356 0.030851653 0.12636225
-0.04057737 -0.21288362 -0.22877958 0.39570037 -0.23940627 0.065063655 -0.13994026 0.05212879
0.053467266 -0.17746311 -0.26196826 -0.12679613 0.0045677237 -0.13746692 0.03026792 0.22889172
-0.10223543 0.15581234 0.029025486 0.03002894 -0.10214835 0.077137545 -0.117345914 0.23636721
0.45978427 0.070242465 -0.03180574 -0.10690859 -0.017021555 0.1917681 -0.02160358 -0.0134298345
-0.1363079 0.13283202 0.048944604 -0.21985915 -0.060561847 0.111350045 -0.3604079 0.16398226
0.09610517 0.28836963 0.18385154 -0.1855143 0.11756073 0.0066712205 0.09065072 0.23862873
0.08010116 0.13760458 0.0425373 -0.10242547 -0.27993712 -0.13959703 -0.05398132 -0.03103703
-0.17266898 -0.023350466 -0.2518051 0.05926534 0.0795988 0.15516797 -0.43519828 0.16405565
-0.16260137 -0.0853664 -0.12121311 0.090001 -0.037449043 -0.11079847 -0.16952626 -0.14512995
-0.26817355 -0.01404888 0.049955767 -0.010951179 -0.042284735 -0.17774038 -0.16142306 -0.011369255
-0.41766006 0.13301115 0.111844376 0.08176569 0.36037025 -0.1794147 0.13273053 -0.11655304
0.023181114 0.12336451 -0.19080772 -0.04043188 -0.013270652 -0.22812687 -0.007364964 -0.03948065
0.057629414 -0.05076087 0.06785303 -0.27779225 -0.07709939 -0.008318539 -0.08611886 0.060270887
0.31860813 -0.053710036 0.0773991 -0.032193054 0.14726478 -0.22679865 0.033205967 0.113035604
0.1434527 0.08009379 -0.1381082 -0.10697102 0.013534876 -0.04138359 0.232216 0.16079801
0.15354425 -0.045366004 0.10724325 -0.017004015 -0.14962989 -0.21758454 0.23998675 -0.14493494
-0.020343548 -0.21130824 -0.04287035 0.16420098 -0.14688243 -0.26971316 -0.008909319 0.08807524
0.056951035 0.06487731 0.024849622 0.06143132 -0.036056537 0.60227865 -0.2352468 -0.0053806384
0.17058156 -0.1706115 0.16347444 0.009688914 -0.19933525 0.26778498 -0.19610962 -0.20258042
0.034374565 0.12342469 0.15211903 -0.32552117 -0.27661413 0.23610097 -0.11748256 -0.047198262
0.09331447 -0.01068015 -0.22671689 0.023153344 0.14412823 0.095395334 0.16969378 -0.21371718
-0.16884606 -0.05736332 -0.052707903 0.19452596 -0.21173486 -0.25360438 -0.15308523 0.15607107
-0.09207849 -0.0704868 -0.14240195 -0.00077068864 0.060297046 0.021053841 0.12758657 0.09496811
0.16299401
00000000: e345 c33d 002e 31be ae1a edbc 774a 6dbd
00000010: 1acb 3c3e 3f4c 39be 2635 333d bdbe b33c
00000020: 74b0 433e e8b6 0dbd 73ad c63d 7525 fbbd
00000030: 04c7 5f3e 6fb5 b7bd 4b67 f73c 7b85 ab3e
00000040: 1528 8a3d 8b80 0e3e 6ecd 24be c4aa 81be
00000050: fd76 2b3c bcc1 30be b82f 8ebd 03d6 2cbc
00000060: de8d d7be 51eb d53a 64c5 53bc 8441 80be
00000070: 8515 9f3e bdf4 f73d 29f2 1fbe 3b7d 02be
00000080: 61e4 003d 606b 5c3c c315 0b3d 6105 2dbe
00000090: 8e06 3b3e 881e 8d3e 9bbc fc3c 1b65 013e
000000a0: 7534 26bd 2afe 59be 3245 6abe 3d99 ca3e
000000b0: eb26 75be 1840 853d 804c 0fbe 0085 553d
000000c0: 7e00 5b3d e4b8 35be b420 86be d8d6 01be
000000d0: d8ac 953b 21c4 0cbe 6ef4 f73c 9762 6a3e
000000e0: cf60 d1bd 458d 1f3e dbc6 ed3c 40ff f53c
000000f0: 2733 d1bd 4afa 9d3d 0e53 f0bd 3f0a 723e
00000100: d868 eb3e 48db 8f3d bc46 02bd e4f2 dabd
00000110: ca70 8bbc db5e 443e fef9 b0bc cf08 5cbc
00000120: 4c94 0bbe 1e05 083e 237a 483d c222 61be
00000130: b30f 78bd 7e0b e43d 6287 b8be f7ea 273e
00000140: cad2 c43d 2fa5 933e 9443 3c3e 76f7 3dbe
00000150: aec3 f03d 419a da3b 16a7 b93d 175b 743e
00000160: 140c a43d 37e8 0c3e 983b 2e3d 72c4 d1bd
00000170: eb53 8fbe 86f2 0ebe 841b 5dbd 5f41 febc
00000180: 23d0 30be 7a49 bfbc 99ec 80be 37c0 723d
00000190: b204 a33d 5ae4 1e3e 4fd2 debe 34fe 273e
000001a0: f980 26be 94d4 aebd 943e f8bd 7252 b83d
000001b0: 2b64 19bd 4fea e2bd 4b98 2dbe f29c 14be
000001c0: 0b4e 89be 462d 66bc 6b9e 4c3d 936c 33bc
000001d0: c232 2dbd 9301 36be 164c 25be 1d46 3abc
000001e0: 8ad7 d5be 1334 083e aa0e e53d c574 a73d
000001f0: 7382 b83e 7db8 37be 83ea 073e 5cb3 eebd
00000200: 52e6 bd3c 88a6 fc3d 1963 43be e69b 25bd
00000210: 266d 59bc 179a 69be cc55 f1bb 76b6 21bd
00000220: d20c 6c3d a1ea 4fbd 88f6 8a3d c93a 8ebe
00000230: 49e6 9dbd 7b4a 08bc 165f b0bd 9bde 763d
00000240: 9b20 a33e 0eff 5bbd 6b83 9e3d dddc 03bd
00000250: 94cc 163e e83d 68be fb02 083d 367f e73d
00000260: 44e5 123e 3708 a43d 3c6c 0dbe 9f13 dbbd
00000270: 62c1 5d3c d781 29bd 08ca 6d3e 3ca8 243e
00000280: b43a 1d3e b4d1 39bd 59a2 db3d 014c 8bbc
00000290: 9438 19be 7bce 5ebe 16bf 753e d369 14be
000002a0: 83a7 a6bc 3061 58be d298 2fbd 4d24 283e
000002b0: 5968 16be d817 8abe 64f8 11bc cb60 b43d
000002c0: 7d45 693d 65de 843d 6f91 cb3c 689f 7b3d
000002d0: 05b0 13bd ef2e 1a3f 8ae4 70be 1150 b0bb
000002e0: efac 2e3e c8b4 2ebe d865 273e 40be 1e3c
000002f0: 8a1e 4cbe 1d1b 893e f6d0 48be 3e71 4fbe
00000300: 58cc 0c3d 15c6 fc3d 17c5 1b3e b6aa a6be
00000310: 5ea0 8dbe 74c4 713e b29a f0bd f752 41bd
00000320: a81b bf3d ccfb 2ebc 7928 68be 15ac bd3c
00000330: 5a96 133e a15e c33d 35c4 2d3e add8 5abe
00000340: fbe5 2cbe cdf5 6abd 3ee4 57bd d031 473e
00000350: 06d1 58be 6fd8 81be 60c2 1cbe 18d1 1f3e
00000360: a693 bcbd 625b 90bd d1d1 11be 0a08 4aba
00000370: 09fa 763d 1b79 ac3c 0ea6 023e a47e c23d
00000380: e7e7 263e

conv1.bias f4 [3]
0.013933495 -0.011624947 -0.015099943
00000000: 5049 643c 9076 3ebc c065 77bc

conv2.weight f4 [1, 3, 1, 1]
0.5364026 -0.11816475 -0.5259776
00000000: ae51 093f 5c00 f2bd 78a6 06bf
