examples/onnx/idolmodel/network.onnx (onnx, 5041 bytes, 2 tensors)

conv1.weight f4 [1, 1, 5, 5]
0	0x3cc95227	0.024575306
1	0x3d048fe2	0.03236378
2	0x3d9e785a	0.07737799
3	0xbde3b60e	-0.111187086
4	0xbe681df0	-0.2266767
5	0xbd66bc3d	-0.05633186
6	0x3d9f27e8	0.077712834
7	0x3e13f721	0.14449741
8	0xbe0e58ac	-0.13901013
9	0xbd199496	-0.03749522
10	0x3e36c493	0.17848425
11	0x3d9050c2	0.07046653
12	0xbd878ed8	-0.06619042
13	0xbcd0636e	-0.025438037
14	0xbdca39b4	-0.09874287
15	0x3db582a7	0.088628106
16	0xbd3f6939	-0.046731208
17	0x3db128b7	0.08650344
18	0x3d551b9f	0.052028295
19	0x3dea647a	0.11444946
20	0xbb3b304c	-0.0028562723
21	0xbd1012c2	-0.03517414
22	0x3d1d8510	0.038456976
23	0x3cc88f2a	0.024482328
24	0x3d2b63b8	0.041843146

d1.weight f4 [1, 992]
0	0xbd514e30	-0.051099956
1	0xbce529cd	-0.027974034
2	0xbca1e19d	-0.019760901
3	0x3d36981f	0.044578668
4	0xbd78b78a	-0.06072191
5	0xbd4a4e79	-0.049391244
6	0x3d7b1090	0.061295092
7	0x3cc954b4	0.024576522
8	0x3cf5b1ee	0.02999207
9	0xbc927ea2	-0.017882649
10	0xbd3f8a1b	-0.046762567
11	0xbc25155b	-0.010075892
12	0xbca2dc9f	-0.019880591
13	0x3ca83dbf	0.020537255
14	0x3c4983a9	0.012299457
15	0x3c3ea024	0.01163486
16	0x3d99a6f3	0.07502546
17	0x3df33f00	0.11877251
18	0x3cc5acea	0.024130303
19	0xbcef37b8	-0.029201373
20	0xbd63089f	-0.055428144
21	0xbd7966f9	-0.060889218
22	0x3d5fdeba	0.054655768
23	0x3d053f0a	0.03253082
24	0xbd81eb43	-0.06343701
25	0xbd08aaae	-0.033365898
26	0x3d9f9ca1	0.077935465
27	0x3db5b35e	0.08872102
28	0xbd1e448c	-0.03863959
29	0xbcfe0515	-0.031008283
30	0x3d0c41ff	0.034242626
31	0xbdc2dc8d	-0.09514723
32	0xbd814348	-0.06311661
33	0x3d463db2	0.04839868
34	0x3d0c65b6	0.034276687
35	0x3cfd5e0f	0.03092864
36	0x3cddac19	0.027059602
37	0x3c2aae1d	0.010417488
38	0x3dbdb0cd	0.09262238
39	0xbd0f59cc	-0.034997746
40	0xbc20e99b	-0.009821321
41	0x3d3040b2	0.04303045
42	0x3d275539	0.04085276
43	0x3d184b2e	0.037181072
44	0x3c555b6f	0.013022288
45	0xbc801b81	-0.015638115
46	0xbd161802	-0.03664399
47	0x3be5526d	0.0069983513
48	0xbb8b4876	-0.0042505814
49	0x3d3d93aa	0.0462834
50	0x3b476446	0.0030424758
51	0x3ca8b71f	0.020595131
52	0xbbae4f17	-0.005319487
53	0x3b97b3eb	0.004629602
54	0x397241fb	0.00023103498
55	0x3c2f02bf	0.010681807
56	0xbd02996d	-0.0318846
57	0xbc6a8244	-0.014313284
58	0xbd0a46a1	-0.033758763
59	0x3cb7200a	0.022354145
60	0x3d1a7bd2	0.03771574
61	0x3d5ee2ec	0.05441563
62	0x3da04294	0.07825199
63	0xbd281bee	-0.04104226
64	0xbdc8b4fe	-0.098001465
65	0xbd9ce476	-0.07660763
66	0xbd179e0f	-0.03701597
67	0xbd567330	-0.052355945
68	0xbdb5344b	-0.08847865
69	0xbdb2d54d	-0.0873209
70	0xbc17ba7a	-0.009260768
71	0x3ca89d02	0.02058268
72	0xbcdaae1c	-0.02669435
73	0xbd25a2f9	-0.040438626
74	0xbd037e34	-0.03210278
75	0x3d858100	0.065187454
76	0x3d8bc04d	0.06823788
77	0x3d75f7a4	0.06005062
78	0x3d15dfc4	0.036590353
79	0xbd0cb4d5	-0.034352142
80	0x3c008373	0.00784384
81	0xbc887b17	-0.016660256
82	0xbd5450b2	-0.05183477
83	0x3cd60689	0.026126163
84	0xbcf0b636	-0.02938376
85	0xbcbcbc9e	-0.023039158
86	0xbd69a758	-0.057044357
87	0xbc2e0b25	-0.010622774
88	0xbc94fe5c	-0.018187694
89	0x3cb172ca	0.021661181
90	0x3d05c9a3	0.032663
91	0x3d14d367	0.03633442
92	0x3d7b1052	0.06129486
93	0x3aa1b580	0.0012337416
94	0x3a9b49be	0.0011847538
95	0xbd0d2b32	-0.034465022
96	0x3d2c1931	0.042016212
97	0x3d53cdd9	0.051709983
98	0x3cbbf188	0.02294232
99	0x3bbe175c	0.0058011245
100	0x3cee00ba	0.02905308
101	0xbbf8095c	-0.007569475
102	0xbcfa2075	-0.030533055
103	0x3c23edf0	0.010005459
104	0x3d14907b	0.0362706
105	0x3d16652f	0.03671759
106	0x3d3cdac9	0.046107087
107	0xbd2f3774	-0.042777494
108	0xbbdabde5	-0.006675469
109	0xbd4a9048	-0.049454004
110	0x3bc9c958	0.0061580352
111	0x3bd485d3	0.0064856797
112	0xbcf6f18c	-0.030144475
113	0xbc2eb2b3	-0.010662722
114	0xbd2e8e4b	-0.04261617
115	0xbac8675e	-0.0015289595
116	0xbc952202	-0.018204693
117	0xbd1ab09d	-0.037766088
118	0xbd72d61a	-0.059286214
119	0xbcc7a5ae	-0.024370994
120	0x3c0ec97d	0.008715031
121	0xbd9697b4	-0.07353154
122	0x3caa66a0	0.020800889
123	0x3d1fe5c1	0.03903747
124	0xbdd05a1d	-0.10173438
125	0x3cfeaea4	0.031089135
126	0xbd54848a	-0.05188421
127	0x3d2fb426	0.042896412
128	0x3c26271a	0.0101411585
129	0x3d012b07	0.031535175
130	0x3d1b3569	0.037892733
131	0xbb8d7ec4	-0.00431809
132	0x3b40894c	0.002937871
133	0xbd47157b	-0.04860447
134	0x3c0d582a	0.008626977
135	0xbc8eb50b	-0.017420312
136	0x3c5b0dc7	0.013369984
137	0x3d36a252	0.044588394
138	0xbb0b90c9	-0.0021296015
139	0x3c977221	0.018487038
140	0x3d66c489	0.056339774
141	0x3ca7c9df	0.020482002
142	0x3ba982ad	0.0051730485
143	0xbb79258c	-0.0038016764
144	0xbd2516fd	-0.040305126
145	0xbc7a6601	-0.015283109
146	0x3c1459fd	0.009054658
147	0x3b36f8d7	0.0027919316
148	0xbc1fff5b	-0.009765471
149	0x3d245045	0.040115613
150	0xbc80d94b	-0.015728613
151	0x3d683b77	0.056697335
152	0x3cce9ca5	0.025221178
153	0x3b437ba5	0.0029828337
154	0xbc0d058b	-0.008607279
155	0x3b207e43	0.002448932
156	0x3d2c1ff9	0.04202268
157	0x3d09810f	0.033570345
158	0x3c57ab12	0.013163345
159	0x3d14893c	0.03626369
160	0x3c354bf4	0.011065472
161	0x3d1b003b	0.037842017
162	0x3c369489	0.011143812
163	0x3b034944	0.0020032683
164	0x3a8fdab6	0.0010975215
165	0x3d714721	0.058905724
166	0xbb93d026	-0.004510897
167	0x3ce74579	0.02823137
168	0xbc242217	-0.010017893
169	0xbb8bb8f5	-0.004263992
170	0x3c1267e7	0.008935905
171	0x3cd9c6e4	0.026584096
172	0xbc9d20a1	-0.019180598
173	0xbcf68c46	-0.030096184
174	0x3bf28d53	0.007402101
175	0xbca35c94	-0.019941606
176	0xbcebd1ec	-0.028786622
177	0x3b971782	0.0046109566
178	0x3cc4d8ba	0.024029125
179	0x3ca21161	0.019783678
180	0xbc3b5895	-0.011434694
181	0x3c272442	0.010201516
182	0x3d2bd3b9	0.04194996
183	0x3d4a47ca	0.04938487
184	0x3d904a3d	0.0704541
185	0xbddf8588	-0.10914141
186	0xbdd6f08a	-0.10495098
187	0x3c7dfbe7	0.015501953
188	0x3b08504f	0.002079982
189	0x3e0885c5	0.13332279
190	0x3d1f732e	0.038928203
191	0x3c19b0a3	0.009380492
192	0x3d9156d1	0.07096637
193	0x3cf9e74a	0.030505795
194	0x3ce68fce	0.028144743
195	0x3c06b174	0.008221019
196	0x3d005f04	0.031340614
197	0x3d0f2de2	0.034955867
198	0xbc04e388	-0.008110888
199	0xbc98d488	-0.01865603
200	0xbc240c98	-0.010012768
201	0xbd1d18a1	-0.038353566
202	0x3d96c946	0.073626086
203	0x3cd0f206	0.02550603
204	0x3c8041f8	0.015656456
205	0xbc1df801	-0.009641648
206	0x3d0c6ffc	0.034286484
207	0x3b9b36f7	0.004736777
208	0xbd13162d	-0.03590982
209	0x3d349a8c	0.0440927
210	0xbcb5eb3c	-0.022206895
211	0xbd8c22ab	-0.0684255
212	0xbc7ecb83	-0.015551451
213	0xbc697414	-0.014248867
214	0xbd16d0e2	-0.0368203
215	0xbd4ac877	-0.049507584
216	0xbd8d6851	-0.069046624
217	0xbd0dba4e	-0.034601502
218	0x3a236bf1	0.0006234041
219	0x3c0e2fd2	0.008678393
220	0xbd5b8585	-0.05359413
221	0xbc1f3aee	-0.00971864
222	0x3c875654	0.016520657
223	0xbc3829c3	-0.0112404255
224	0x3d224d06	0.039624237
225	0x3b89cad0	0.0042050853
226	0x3b02a05c	0.0019932007
227	0xbcc17bda	-0.023618627
228	0xbcc036c8	-0.023463622
229	0x3c8159ed	0.01578995
230	0xbbb39982	-0.005480946
231	0xbd13ff44	-0.036132112
232	0x3beffe5f	0.0073240246
233	0xbd402fbf	-0.046920534
234	0xbbeda92d	-0.0072528333
235	0x3ccd18d5	0.025036255
236	0xbd347928	-0.044060856
237	0xbbd2da54	-0.006434718
238	0xbd166c4f	-0.036724385
239	0x3d7a81e2	0.061159022
240	0xbd364edc	-0.0445088
241	0x3d273565	0.040822405
242	0x3cc64c4b	0.024206301
243	0x3cc787c0	0.024356723
244	0xbd575c06	-0.052577995
245	0x3c428131	0.011871622
246	0xbc4539c3	-0.012037697
247	0x3c584a4b	0.013201307
248	0x3cd047bd	0.025424832
249	0xbceec038	-0.029144391
250	0xbbc771b0	-0.0060865507
251	0xbd1c8c34	-0.038219646
252	0x3d680f87	0.056655433
253	0xbc24a89e	-0.010049967
254	0x3de36aa0	0.111043215
255	0x3d31ab70	0.043376386
