examples/onnx/linear_svc/network.onnx (onnx, 25297 bytes, 2 tensors)

biases f8 [1]
00000000: 7d0e 1564 bbdb d23f
0.2946613767019029

onnx::MatMul_13 f8 [3072, 1]
00000000: 2e95 d83b 8364 e9bf f7d4 278b 75dd ebbf
00000010: ef7a 2aec 6d89 09c0 2db1 a546 5225 c73f
00000020: fb67 aaee 94ee c13f 9138 c33c e357 fdbf
00000030: 878c f826 8065 ea3f 39eb 4a8e e9d2 e53f
00000040: e3a0 12e5 5cf7 f4bf b591 bb80 acd4 e23f
00000050: 6615 16f4 ce56 dd3f efe1 ee0f 8b96 f5bf
00000060: e708 620a 2883 ca3f 4e6a 5a79 0dfa c13f
00000070: 2eca 79af 8c17 f8bf 5a33 dbca 3045 e03f
00000080: 7105 856d 1d5b dd3f d04e 912a df23 f2bf
00000090: 20b6 5eb7 1877 dd3f 7b2a 9863 e548 da3f
000000a0: 9788 8499 8959 eebf ac15 5b43 a309 c53f
000000b0: ebd1 bce3 bed1 d33f 8ea8 3e62 99c1 e9bf
000000c0: 0df0 68c6 401e 7fbf 2857 8b01 1bf8 d23f
000000d0: c92c dbde 2459 e7bf 8333 429f 8fdc d03f
000000e0: 64a7 0558 e19e e13f 77a1 b668 cb0f cfbf
000000f0: 79b4 f4c8 750e c63f 9727 5dde 4a4b dd3f
00000100: 2cef b206 afa5 c6bf 7451 5853 31b2 c73f
00000110: f7b4 08a0 2f8b e03f 01cd 71e3 a4e6 b3bf
00000120: b658 2afb 8c79 dabf 2a14 1847 8b3c ccbf
00000130: 0e4b 6fd2 4f9d e8bf ae4e 6c39 ec1d d4bf
00000140: 1fa8 c2d7 4992 d2bf cb71 0c9d 3370 eebf
00000150: f8ba 95da e79f d1bf 49a3 3df2 eb4e ccbf
00000160: 580a de02 0427 efbf 0642 fc0c 7253 d1bf
00000170: f284 9687 d93a c6bf dfb2 d14a 2a14 ebbf
00000180: 8e58 c7d1 39ad c6bf 5623 3f35 d7e6 bcbf
00000190: 4726 9912 ae2a e4bf 2bb6 5c54 aa3a c0bf
000001a0: 0efe 2893 d6b8 47bf 0446 f749 65fb e1bf
000001b0: d97c b0fe 7e55 c03f a68f 1e55 696e c03f
000001c0: fc09 0020 b0c6 e5bf dea1 1c26 9d41 e23f
000001d0: 90a6 f4cf 287a dd3f 5552 cc72 8257 e0bf
000001e0: e065 21ff d029 d23f 93a7 f1ee e644 c93f
000001f0: 9ec4 b957 a527 e8bf 4799 035b 68f7 ba3f
00000200: c3d3 ff0d 7ef7 b03f 5b85 a103 d213 ecbf
00000210: c4be 4c6c 5d98 ca3f 8a54 ed82 31a7 cd3f
00000220: 9fc0 0879 cc3d ebbf 8dab 28ff d372 d63f
00000230: d9eb ee7d d82c dc3f a7cc 50e7 b2d2 e8bf
00000240: cadc af45 d3eb e13f cd48 db6f b207 e43f
00000250: 5032 5e72 f0bc e2bf ee79 77b2 25f1 ea3f
00000260: 1b18 3800 7621 e63f 5fc2 5734 82d1 e0bf
00000270: 2845 6402 0860 e73f 327f 2b1a 1e62 da3f
00000280: 55ef f8be 0360 e6bf 2e91 d041 eb1f d13f
00000290: 151d 0a92 227c afbf 7ab1 99f9 4c96 f1bf
000002a0: cedb 5b44 3bce d53f dda5 657b d1ef c73f
000002b0: 4043 824e 7541 f3bf 1e44 c157 51ac e33f
000002c0: 08b1 ecc8 381d dd3f fae7 e4c4 0734 f3bf
000002d0: eb52 c7f5 5409 d53f 6ab2 9195 5280 9bbf
000002e0: 3d73 51ba 7f54 febf e2db 7c57 f708 dfbf
000002f0: ffa1 dcf0 a154 eebf 19d4 891c 97e0 07c0
00000300: 51a1 5709 01c9 c7bf d76d 4860 b7a7 d3bf
00000310: 8eb8 4c64 d3dd 00c0 ed2b 284c a3b8 c43f
00000320: 19d0 e8d6 61ea b43f 4ec5 5ff5 7ea2 f8bf
00000330: d1f2 cca9 7ffe dd3f f4f5 081b 46af d23f
00000340: 8453 0a32 9174 f5bf 52aa ec6d 4df7 c93f
00000350: 3d2f df91 9c1f 933f dd05 1e59 2bdf f6bf
00000360: 45e0 be6a c10c bcbf 5b86 f02d 02f1 d3bf
00000370: e984 4bdc 444d f9bf 510c 460f 05ad d33f
00000380: 073b 8452 817c c73f 8217 7305 ddd7 edbf
00000390: 5fdf f2c5 833b 703f d983 6809 154c b4bf
000003a0: 587d 365c 7135 f0bf 5dd9 105c c595 863f
000003b0: 1b3b df5f 415c b93f d3b3 5689 0508 e6bf
000003c0: b1b1 e9c5 c647 cfbf 1f00 5b1d 3640 b13f
000003d0: 2c70 0bd7 9ade e1bf 4b11 7675 9393 c3bf
000003e0: 1610 e648 0b37 cf3f 4652 ebba b36d bfbf
000003f0: 24f2 6eef fcc8 b83f 96a8 061b e80a e03f
00000400: 4434 c51b a26f d23f 3d35 0f63 510a b03f
00000410: 4d83 e05a 4009 e13f 8204 f586 f577 db3f
00000420: c4c0 ada3 f7e9 c9bf 7504 e168 2782 b63f
00000430: 22b5 0856 7da4 b63f 5dc2 dd9b 90ad 9fbf
00000440: b737 5da8 c6c3 81bf 27cd 814d a3c2 943f
00000450: d5ad 686f f995 bfbf 1160 1bbd 00db 93bf
00000460: 532e 5db5 26df c3bf 9bac aa9e 617c d1bf
00000470: f18e 1d49 aa85 c3bf f14f b4ef f908 cabf
00000480: 5da0 abf3 cc70 d0bf b65e 77f5 2ae0 c4bf
00000490: cce0 bcd9 4b62 c43f b94a 7c57 e080 d9bf
000004a0: 88bc 4764 44e8 c3bf d493 a0cc 1502 bb3f
000004b0: 7ca3 5077 2654 cbbf 7e97 074d 87a8 b5bf
000004c0: 42ee 7b51 ed50 cabf bda6 4fdc f0a2 b83f
000004d0: 7d0a 4ea0 0a46 cb3f 0460 c8b6 9852 c2bf
000004e0: 8028 bd5e b3a3 b2bf 24ea bc69 7153 b63f
000004f0: 270f e7ba 1bf7 c3bf 478b 097f ed11 e3bf
00000500: 7603 76c7 74e4 dabf 0eef ee16 7dcd e3bf
00000510: dab4 681a 9e49 d7bf ed0a bacf c38f d3bf
00000520: 98f3 4c76 592d e4bf 3ba1 3ffa 045a ddbf
00000530: 6665 4f4c 89f6 d2bf 403e 2253 e34d eebf
00000540: a1b0 f788 75e7 b8bf 9463 a634 6234 bc3f
00000550: 945c 6c78 9042 e2bf 735a 3d51 d1f1 adbf
00000560: 889f e1c4 0e8c c0bf 60cd 689f b64b e7bf
00000570: 1f00 6b9d b748 743f 71f5 49a9 5f1e cbbf
00000580: 3d49 c95c d86f edbf cdb6 af19 ef82 a8bf
00000590: e831 6f1d c6c2 d2bf eb66 dcf3 17d4 f0bf
000005a0: 521b 840f f1b1 a73f 422f 5322 93f6 c5bf
000005b0: 88d0 31c7 7064 f3bf 6e1f f724 484c dd3f
000005c0: 00c5 2b3b ede3 cf3f 0477 8b5d 256b f1bf
000005d0: 66f4 7d7c 4476 c23f d7ca 8ac1 ca06 cabf
000005e0: 42cb 0adc 5e6b fbbf 2931 2228 0bb6 903f
000005f0: d491 718a b8d4 d5bf 7e3b bcd1 e431 00c0
00000600: 084c 4375 5ddf e13f d640 1f2b a21e e03f
00000610: 199c f70d 533d eebf 76af fa06 4621 e73f
00000620: 1dbd 9533 ebb9 e63f 579d e614 b019 e3bf
00000630: 1572 f2dd 8c35 e23f d6e2 b4c7 2868 dd3f
00000640: 8efe 9fff 4815 edbf 8b1d 00f8 94e9 d53f
00000650: 8adc 9c3a 583b ca3f 2310 c192 f404 eebf
00000660: 1f75 f2b9 3cec bc3f 51e5 2f40 604c cdbf
00000670: 5fe4 e1cd 78dd f1bf 25b5 b1c7 0756 e03f
00000680: df14 ba9a f220 cd3f 43cc 16d5 c94b e4bf
00000690: 3365 f6c6 2aaa d83f 8c92 d794 a703 bb3f
000006a0: 9c32 3a9d 8807 e4bf 23f8 27ca 8451 d93f
000006b0: b5db 2867 fd43 c63f aff4 4eed 22e5 d5bf
000006c0: 00f9 4b37 fd2f babf b022 3c3b db35 c2bf
000006d0: 9ffe 1a18 7e1d e2bf 8c99 0dc3 197a c8bf
000006e0: 5659 64fc 68f9 b8bf ef75 9b01 3dd1 d1bf
000006f0: 9c42 c91a a7ff 7abf 12df 3407 d01e d23f
00000700: 9efc 2ea8 c12d cc3f c522 df52 24d7 b43f
00000710: 8569 fa79 c200 e13f 2097 0fc5 3019 e33f
00000720: e74d 4faf 1bc4 cfbf b169 55d9 a3f6 99bf
00000730: 513f 9c51 70e9 cf3f 1cfd ec9d a43f d0bf
00000740: e3de 6025 64b3 d5bf 3b41 b2af 9d8e c3bf
00000750: 3903 a285 7f14 d23f 3e59 11f6 1a8a d43f
00000760: a1ee 5016 e587 da3f 0823 8353 76e7 cf3f
00000770: 2c0b 5f45 5d51 d03f d8dd 811d b661 e03f
00000780: 6746 5a7e 44fc c5bf 1c3a 7600 1a81 b2bf
00000790: 1a2c f641 7b7d e23f 0688 13f1 b0b5 d6bf
000007a0: 440a f651 0a03 b9bf 3046 90a3 612c dd3f
000007b0: 3270 8a49 37de 973f 6511 d079 5b1b cd3f
000007c0: b7bd ae50 1f70 d53f 7df5 2d3f 37c5 c13f
000007d0: 7834 2501 dba7 dc3f ccba 5ccc 43e1 d43f
000007e0: e94a 0416 16d9 d43f 0d63 237b 9835 e43f
000007f0: 4a72 e62c 9c3c e43f 4d62 763b 5b4a 7a3f
-0.7935196083896352 -0.8707835882075007 -3.1921041918243342 0.18082645845005044 0.14009343770595692 -1.833956944803081 0.8248902093076972 0.6819961337235788
-1.3103913257746675 0.5884611620245354 0.45842336498784275 -1.3492537138355336 0.20712757594089412 0.1404435007614943 -1.5057494024773734 0.5084461175953081
0.4586862153556331 -1.1337577498242588 0.46039407641623775 0.4106992218591256 -0.9484298704521902 0.16435662068231005 0.30967685928342686 -0.8048827093928297
-0.007597210910315522 0.29639315748987594 -0.729631839052126 0.2634619765529395 0.5506445616895062 -0.24266951191863104 0.17231628715800065 0.4577204867861097
-0.17693126513574364 0.18512550897197466 0.5169904828705104 -0.0777380996021755 -0.4136688664233462 -0.22059765788449798 -0.7692031011632439 -0.31432633979532454
-0.290178738311285 -0.9511964862209025 -0.27538486810855956 -0.22115849807894453 -0.9735126548769797 -0.2707181097803474 -0.17367095108514935 -0.8462115727721445
-0.17716143363094655 -0.11289734888044953 -0.6302099574324495 -0.12679032439466317 -0.0007239387253505385 -0.5619379467627259 0.1276091331101046 0.12836949020595262
-0.6805039048197723 0.5705095047351809 0.46058101947947083 -0.5106823198462488 0.2838022700794607 0.1974152247160502 -0.7548395837203719 0.10533764097235575
0.06627643434315104 -0.8774194785038775 0.20777480876994592 0.2316648377697315 -0.8512937892865188 0.350758551767904 0.4402371625725983 -0.7757200734980828
0.5600372658799639 0.6259395775507756 -0.5855638726948857 0.8419369207074945 0.6915845875053067 -0.5255747816391468 0.7304725691521172 0.41223862224250063
-0.6992205362252927 0.26757317950456894 -0.0614939502020723 -1.0991945028318626 0.34071237254778175 0.1870061733746259 -1.2034810129882345 0.6147848810161383
0.4549085580972734 -1.2002027217081364 0.32869457246606143 -0.026856699351287018 -1.8956296232274348 -0.4849222521183362 -0.9478311256726214 -2.984663222271149
-0.18582165676276444 -0.30711159136418814 -2.1083133541024557 0.1618847009525263 0.08170138832866804 -1.5396718583036377 0.4686583669861593 0.29194786682259566
-1.3409587816906603 0.20285957209974242 0.018675276187237733 -1.4294846993583328 -0.10956963401884064 -0.3115849922779483 -1.58136449864133 0.30743528834881767
0.18348709611060363 -0.9326005083500919 0.003963007678230073 -0.07928592185682194 -1.0130475618423898 0.011027852890134577 0.09906395521759885 -0.6884792024990197
-0.24437794364656676 0.06738603798567099 -0.558423442849294 -0.1529411624470732 0.2438673120451546 -0.12276767075975056 0.0968168339304119 0.5013313796855694
0.28806355201669853 0.06265743893091709 0.5323793196622347 0.42919672183422375 -0.20245261661648872 0.08792349157831032 0.08844741201820175 -0.030935534966774692
-0.008674194348397763 0.020273734670309154 -0.12338217706626804 -0.0193901172086442 -0.1552475343290661 -0.2732166337470489 -0.15251663751688896 -0.20339893535913192
-0.2568848018258956 -0.16309105859430922 0.15924976474503294 -0.398490987238954 -0.15552573105330603 0.10550056691916093 -0.2135055620758769 -0.08460279112440891
-0.20559469679561643 0.09623628023805515 0.21307499720940717 -0.14314564633309612 -0.07281037390672118 0.08721073943608154 -0.15597864748098653 -0.5959384423443702
-0.4201938579426988 -0.6188340614239409 -0.36386826113705484 -0.3056497124272671 -0.6305358229216038 -0.45861935079894395 -0.29629738285219387 -0.9470078109461113
-0.09728178590711646 0.11017431054496135 -0.5706255294816338 -0.058485547224951605 -0.12927422154757218 -0.7279923547234084 0.004952161069638832 -0.21186443105754507
-0.9199029743415746 -0.04787394703440171 -0.29313805460404163 -1.0517806554620914 0.04627946199803169 -0.17158736396810964 -1.2120216160811044 0.4577808724393354
0.2491432703896308 -1.0886586813061863 0.1442342384215493 -0.2033322758703295 -1.7137135119816809 0.016319441151197687 -0.34110845107923393 -2.0243622193879096
0.5585162439623454 0.5037394373157678 -0.9449858925626159 0.7228117119134214 0.710195160629073 -0.5968857200831889 0.5690368971732506 0.45948237898441613
-0.9088482849765158 0.34238170832437537 0.2049360548205395 -0.9381049028675118 0.11297969379161941 -0.22889330991874116 -1.1165702860146423 0.510501756694485
0.22756798319838986 -0.6342515146155921 0.38538617544107295 0.10552451499786225 -0.625919634899748 0.3956005071812589 0.17394988572206463 -0.34211037802362915
-0.1022947559358478 -0.1422685660584384 -0.5661001654443288 -0.19122621559217767 -0.0975556961242082 -0.2783958926864604 -0.00659146571395355 0.28313065246355607
0.22014637672507303 0.08140780471070304 0.5313427336107429 0.5968250130506227 -0.24817224559829684 -0.0253549195671014 0.2493114851463312 -0.25388446257052677
-0.3390741696380088 -0.15278979376717836 0.2825011067398467 0.32092927961402384 0.4145443647318903 0.24925116613146536 0.25496608519113084 0.511927659636906
-0.17176109475672094 -0.07228243361735348 0.5778175628960327 -0.35483954947096696 -0.09770264149668956 0.4558338258076189 0.023308624137470875 0.22739737937821328
0.33496840361746244 0.13883104882181022 0.44774508582924666 0.3262490745282036 0.32574989461970333 0.6315424351733739 0.6323986889797848 0.006418568016123572
