examples/onnx/rnn/network.onnx (onnx, 1398 bytes, 3 tensors)

onnx::RNN_29 f4 [1, 3, 3]
00000000: 2e31 c2be d8dc e83d b0ba 033f e49a e8bd
00000010: 1027 a93d 3205 f1be 284f bcbd fc1d 93be
00000020: 408c fb3d
-0.37928146 0.113702476 0.5145674 -0.11357668 0.08259404 -0.47074276 -0.09194785 -0.28733814
0.1228261

onnx::RNN_30 f4 [1, 3, 3]
00000000: 42fd 12bf a8ad 463e 9bd0 06bf 42b4 a2be
00000010: 08ee f83e d032 d33e c4a2 22be 1e2f ae3e
00000020: 203b f23d
-0.5741769 0.19402182 -0.52662057 -0.3177815 0.48619103 0.41249704 -0.15882403 0.34020323
0.118276834

onnx::RNN_31 f4 [1, 6]
00000000: f06d 773d 4227 033f b0d9 fe3d e492 cabe
00000010: 001c 03bc da9a 943e
0.06040758 0.5123178 0.12443864 -0.39565194 -0.008002281 0.29024392
