examples/onnx/2l_relu_sigmoid_conv/network.onnx (onnx, 2036 bytes, 3 tensors)

cl1.weight f4 [3, 3, 5, 5]
-0.10367442 0.06490232 -0.11106782 -0.102012485 -0.108338244 -0.006445974 0.096241444 -0.04178375
0.09821342 0.06708206 -0.0821889 -0.06727142 -0.006642103 -0.09329561 -0.013226613 0.012525931
0.050907105 -0.0538694 0.023703977 0.052860796 0.10581012 -0.10257576 0.007079795 -0.052400306
-0.007583551 0.025505006 0.083656535 -0.04903529 0.100758955 0.08662957 -0.10316461 -0.029238455
0.03129971 0.088544816 -0.09621629 0.08447775 -0.10007328 -0.06504281 0.008736424 0.0060688257
-0.09702741 0.08481191 -0.031206593 0.052864492 -0.061574787 0.0021677837 0.07828952 -0.038658135
0.07204461 -0.084644906 -0.102101855 -0.06597005 0.0022603422 0.047314063 0.08542612 0.115023434
-0.018612348 -0.10890799 0.012438834 0.08625075 -0.009564474 0.037093654 0.103615716 -0.017099462
0.092745334 -0.10560112 0.051086694 -0.08985687 -0.09703407 -0.08254266 0.048387095 -0.10102411
-0.062493127 -0.0785571 0.06383033 -0.11518522 0.07328971 0.097160146 -0.06892852 -0.035931475
-0.004745476 -0.084229626 0.11155166 0.057962984 -0.015359916 -0.012098193 0.06764494 0.043861136
0.021961689 0.018474221 0.08265647 -0.016663909 -0.10996898 -0.073626466 0.103646785 0.09365547
-0.078547746 -0.100403585 0.05242896 0.06742558 -0.07326655 -0.10776084 -0.087878704 0.009251542
0.050602183 -0.05581942 0.010304734 -0.03159073 0.007327333 0.05169785 -0.057828035 -0.016549066
-0.098406225 -0.10427064 -0.1153153 -0.010556869 0.08921464 0.017532587 0.020287856 0.006457083
-0.028412119 -0.015326783 -0.10851237 0.10334028 -0.11305642 0.071624026 -0.0030939654 -0.0038030222
-0.11115677 0.094192505 0.026680648 -0.008678801 0.09675075 0.07119636 0.090989664 -0.020709239
0.10394797 -0.017147765 -0.056874804 0.10927075 -0.112849645 0.0032152906 0.05649376 -0.065395884
-0.044261783 0.089186415 -0.054930277 0.0072635934 -0.11211317 -0.110257454 -0.03417074 0.11380412
0.059188306 -0.016027704 -0.05122742 0.11100964 -0.09346969 0.03653732 -0.063731 0.022978783
-0.096096784 -0.07485178 -0.11460314 -0.025375254 0.1139821 -0.045731194 0.01325646 0.06943625
0.045120746 0.02480124 0.06623575 -0.070591204 0.09425497 0.03381124 0.060410798 -0.10580373
-0.06032774 -0.0041553676 0.052997828 -0.11126583 -0.075949624 0.032902896 -0.09840155 -0.09575818
0.042031363 -0.06863628 0.059165403 -0.057860825 -0.061416876 -0.037996434 -0.112336084 0.0297793
-0.04077156 -0.073502004 0.08617772 0.08919388 0.035370022 0.030013919 -0.05415588 0.009903774
-0.099747345 -0.10815064 -0.06569412 0.021913096 -0.0044680163 0.1110342 0.076088 0.021662608
-0.03705892 -0.07967268 0.04026863 0.070852354 0.09548733 0.01841569 -0.07634263 0.048079163
-0.028883316 0.091931775 0.103485 0.046800286 0.014838025 0.08289485 0.07341543 -0.09268074
-0.06670795
00000000: 4153 d4bd 82eb 843d 8677 e3bd eceb d0bd
00000010: 71e0 ddbd c038 d3bb 3c1a c53d 7025 2bbd
00000020: 1e24 c93d 5262 893d a752 a8bd 99c5 89bd
00000030: 00a6 d9bb c511 bfbd 70b4 58bc 9039 4d3c
00000040: f883 503d 29a6 5cbd d82e c23c 9084 583d
00000050: fab2 d83d 3d13 d2bd a0fd e73b b4a1 56bd
00000060: 707f f8bb e0ef d03c 1e54 ab3d 3ad9 48bd
00000070: b65a ce3d d86a b13d f847 d3bd 7c85 efbc
00000080: 2034 003d fc56 b53d 0c0d c5bd ac02 ad3d
00000090: 38f3 ccbd 2a35 85bd 3823 0f3c 00dd c63b
000000a0: 4fb6 c6bd deb1 ad3d f8a4 ffbc 7088 583d
000000b0: d835 7cbd 6011 0e3b 4256 a03d fe57 1ebd
000000c0: 208c 933d 4f5a adbd c71a d1bd 4e1b 87bd
000000d0: 4022 143b 64cc 413d e4f3 ae3d 6891 eb3d
000000e0: ec78 98bc 270b dfbd 40cc 4b3c 3ca4 b03d
000000f0: 50b4 1cbc 84ef 173d 7a34 d43d 2c14 8cbc
00000100: 44f1 bd3d 6645 d8bd 4840 513d e106 b8bd
00000110: ccb9 c6bd 200c a9bd 8c31 463d bbe5 cebd
00000120: cbf8 7fbd 8be2 a0bd 7ab9 823d 3be6 ebbd
00000130: ea18 963d e6fb c63d 652a 8dbd e22c 13bd
00000140: f07f 9bbb 9580 acbd 3275 e43d 986a 6d3d
00000150: 28a8 7bbc 8037 46bc 6e89 8a3d bca7 333d
00000160: 00e9 b33c 4057 973c cc47 a93d c082 88bc
00000170: 6b37 e1bd 79c9 96bd c444 d43d 70ce bf3d
00000180: a4dd a0bd 65a0 cdbd c0bf 563d 6c16 8a3d
00000190: c60c 96bd b7b1 dcbd c0f9 b3bd c893 173c
000001a0: 3c44 4f3d e7a2 64bd 30d5 283c 4865 01bd
000001b0: 201a f03b 20c1 533d 17dd 6cbd e891 87bc
000001c0: 3489 c9bd d88b d5bd 6e2a ecbd b8f6 2cbc
000001d0: 2ab6 b63d 80a0 8f3c b832 a63c f095 d33b
000001e0: 88c0 e8bc 301d 7bbc bc3b debd 12a4 d33d
000001f0: 208a e7bd 9eaf 923d 20c4 4abb 203c 79bb
00000200: 29a6 e3bd 00e8 c03d 6091 da3c 8831 0ebc
00000210: 4225 c63d 66cf 913d ca58 ba3d 6ca6 a9bc
00000220: ace2 d43d 7879 8cbc 8ef5 68bd 58c9 df3d
00000230: b71d e7bd a0b7 523b 0066 673d 47ee 85bd
00000240: d84b 35bd 5ea7 b63d 92fe 60bd 7003 ee3b
00000250: 979b e5bd a9ce e1bd 9ef6 0bbd 2212 e93d
00000260: 706f 723d 884c 83bc d8d3 51bd 0659 e33d
00000270: 096d bfbd 28a8 153d 6685 82bd 003e bc3c
00000280: 64ce c4bd e44b 99bd 0db5 eabd c4df cfbc
00000290: 726f e93d a250 3bbd a031 593c 9834 8e3d
000002a0: 88d0 383d f82b cb3c 9ca6 873d 1f92 90bd
000002b0: c008 c13d a87d 0a3d 5071 773d a0af d8bd
000002c0: 381a 77bd c029 88bb 4014 593d 57df e3bd
000002d0: 7a8b 9bbd 30c5 063d c086 c9bd dd1c c4bd
000002e0: 1429 2c3d 2e91 8cbd 6c57 723d 79ff 6cbd
000002f0: 4390 7bbd 26a2 1bbd 7610 e6bd b8f3 f33c
00000300: 1400 27bd 3888 96bd f27d b03d 48ab b63d
00000310: 28e0 103d c0df f53c 8ed2 5dbd 7043 223c
00000320: 5648 ccbd 157e ddbd a48a 86bd 1883 b33c
00000330: 7068 92bb e665 e33d 06d4 9b3d c875 b13c
00000340: 18cb 17bd 6e2b a3bd b8f0 243d 0a1b 913d
00000350: dc8e c33d 80dc 963c 8659 9cbd a8ee 443d
00000360: b49c ecbc ba46 bc3d f2ef d33d a8b1 3f3d
00000370: 301b 733c c6c4 a93d d45a 963d 66cf bdbd
00000380: 2d9e 88bd

cl1.bias f4 [3]
-0.06251751 -0.032613806 -0.06008579
00000000: 2e09 80bd 0e96 05bd 841c 76bd

cl2.weight f4 [1, 3, 1, 1]
0.41571957 0.38234776 0.29497957
00000000: 32d9 d43e 16c3 c33e 9007 973e
