examples/onnx/xgboost_reg/network.onnx (onnx, 9504 bytes, 5 tensors)

_operators.0.root_biases f4 [12]
0	0x3ee78736	0.45220345
1	0x3ee78736	0.45220345
2	0x3efb089e	0.49030012
3	0x3f696252	0.9116565
4	0x3ee78736	0.45220345
5	0x3f68d144	0.90944314
6	0x3e00bac0	0.1257124
7	0x3a8259e5	0.0009945004
8	0x3f7f46e8	0.9971757
9	0x3f696252	0.9116565
10	0x3cb1581b	0.021648457
11	0x3f28e864	0.659796

_operators.0.leaf_nodes f4 [192, 1]
0	0x3cdd3ba3	0.027005976
1	0xbabfe863	-0.00146414
2	0x3db3a992	0.08772577
3	0x3db3a992	0.08772577
4	0xbd91ab68	-0.07112771
5	0xbd0d5383	-0.03450347
6	0x3bd78111	0.006576665
7	0xbd82a74e	-0.06379567
8	0x3ca8f777	0.020625813
9	0xbbfc4591	-0.0076987226
10	0x3da33144	0.07968381
11	0x3da33144	0.07968381
12	0xbc010d9f	-0.007876783
13	0xbd9b7233	-0.07590141
14	0x3d5d7f5c	0.054076537
15	0x3c0130f5	0.007885207
16	0xbc40f4b4	-0.011777092
17	0x3b333998	0.002734756
18	0x3d8b3d04	0.06798747
19	0x3d8b3d04	0.06798747
20	0xbd61e840	-0.05515313
21	0xbcc79f5b	-0.024367979
22	0x3bb90d5d	0.005647345
23	0xbd4697e5	-0.0484847
24	0x3d90a66d	0.07062993
25	0x3d90a66d	0.07062993
26	0x3d90a66d	0.07062993
27	0x3d90a66d	0.07062993
28	0x3c22c6f3	0.0099351285
29	0xbd9dd98c	-0.077075094
30	0x3d8ce44f	0.06879484
31	0x3d8ce44f	0.06879484
32	0x3b9df0d7	0.00481997
33	0xbbaaf558	-0.0052172355
34	0x3d57d1c9	0.0526903
35	0x3d57d1c9	0.0526903
36	0xbcb2bf0b	-0.021819612
37	0x3cdbf29e	0.026849087
38	0xbd939ff6	-0.072082445
39	0xbcb80dbd	-0.022467488
40	0x3d898b6f	0.06716048
41	0xbd19424d	-0.037416745
42	0x3d9ab435	0.07553903
43	0x3d9ab435	0.07553903
44	0xbdb28501	-0.08716775
45	0xbdb28501	-0.08716775
46	0x3bc92ee3	0.0061396225
47	0x3d6f841f	0.05847561
48	0xbd556178	-0.052094907
49	0x3bf899c3	0.007586689
50	0x3d56d294	0.052446917
51	0x3d56d294	0.052446917
52	0xbd1ff797	-0.03905448
53	0xbdbe9e93	-0.093075894
54	0x3cd5efde	0.026115354
55	0xbd869ba9	-0.065726586
56	0x3cdae1c0	0.026718974
57	0xbd112782	-0.03543807
58	0x3d11efcb	0.035629075
59	0x3d8f5f17	0.07000559
60	0xb99be413	-0.00029733832
61	0xbd496fdd	-0.049178947
62	0x3d8ed44a	0.06974085
63	0x3b2308d2	0.0024877083
64	0x3bc4a58a	0.006001179
65	0xbd8c51a1	-0.06851507
66	0x3db43b7b	0.088004075
67	0x3c871700	0.01649046
68	0xbd68eb09	-0.056864772
69	0xbcaa58c2	-0.020794276
70	0x3d9c4d68	0.076319516
71	0xbb09da28	-0.0021034572
72	0x3d605f64	0.05477847
73	0x3d605f64	0.05477847
74	0xbb982ded	-0.0046441467
75	0x3d464664	0.048406973
76	0xbd79d22e	-0.06099146
77	0xbd79d22e	-0.06099146
78	0x3c03aed6	0.00803729
79	0xb9bb3dbe	-0.0003571342
80	0x3c86b5c4	0.016444094
81	0xbc01e478	-0.007928006
82	0x3c662021	0.014045746
83	0x3d234555	0.039861042
84	0xbce336b5	-0.027736047
85	0xbd7af8a5	-0.061272282
86	0x3d4e817f	0.050416466
87	0xbd0474fa	-0.03233812
88	0x3d912dfe	0.070888504
89	0x3d912dfe	0.070888504
90	0x3d912dfe	0.070888504
91	0x3d912dfe	0.070888504
92	0xbc2e4725	-0.010637079
93	0x3d3f8703	0.046759617
94	0xbc86d358	-0.016458198
95	0x3aa7c76f	0.0012800525
96	0x3a418521	0.00073822035
97	0xbd899a90	-0.067189336
98	0x3d7a73d7	0.06114563
99	0x3d7a73d7	0.06114563
100	0xbd6caffd	-0.057785023
101	0xbd6caffd	-0.057785023
102	0x3cd270bf	0.025688527
103	0xbcf03abd	-0.029324884
104	0x3d353959	0.044244144
105	0xbd35607c	-0.044281468
106	0x3d77bc6d	0.06048243
107	0x3c5a13a4	0.013310347
108	0xbc14a4c8	-0.00907249
109	0xbd9fe4d7	-0.078073196
110	0x3d1830c7	0.037155893
111	0xbb635ccc	-0.0034692762
112	0x3994978b	0.00028341668
113	0xbd6e9c4b	-0.05825452
114	0x3d6c8d9d	0.05775224
115	0x3ca63076	0.02028678
116	0xbd80c547	-0.06287628
117	0xbd80c547	-0.06287628
118	0xbd80c547	-0.06287628
119	0xbd80c547	-0.06287628
120	0x3d4b9fed	0.049713064
121	0x3d4b9fed	0.049713064
122	0x3d4b9fed	0.049713064
123	0x3d4b9fed	0.049713064
124	0x3d4b9fed	0.049713064
125	0x3d4b9fed	0.049713064
126	0x3d4b9fed	0.049713064
127	0x3d4b9fed	0.049713064
128	0x3b229aa7	0.0024811418
129	0x3b229aa7	0.0024811418
130	0x3b229aa7	0.0024811418
131	0x3b229aa7	0.0024811418
132	0xbd7945e5	-0.060857672
133	0xbd7945e5	-0.060857672
134	0xbd7945e5	-0.060857672
135	0xbd7945e5	-0.060857672
136	0x3d89082d	0.066910125
137	0x3d89082d	0.066910125
138	0x3d89082d	0.066910125
139	0x3d89082d	0.066910125
140	0xbd3df976	-0.046380483
141	0xbd3df976	-0.046380483
142	0x3cf12664	0.029437251
143	0x38ce4a6c	9.8367076e-05
144	0xbd077eed	-0.03308003
145	0x3a92a080	0.0011186749
146	0x3c346e2d	0.011012596
147	0x3cf29cd2	0.029615793
148	0xbd85d4c2	-0.06534721
149	0xbd85d4c2	-0.06534721
150	0x3d0ded40	0.034650087
151	0xbcb9fca5	-0.022703478
152	0x3c3dc069	0.011581519
153	0xbd26a2aa	-0.040682472
154	0x3d88f58d	0.0668746
155	0x3d88f58d	0.0668746
156	0xbdaf8591	-0.08570398
157	0xbdaf8591	-0.08570398
158	0x3ce21b8d	0.027601028
159	0xba0a806c	-0.00052834186
160	0x39b0a135	0.00033689445
161	0xbc5cc5c8	-0.013474889
162	0x3d966992	0.07344355
163	0x3d966992	0.07344355
164	0xbc45bf39	-0.012069517
165	0xbd897cef	-0.06713282
166	0x3d256518	0.040379614
167	0xbcc3f155	-0.023918787
168	0x3d8a4971	0.06752289
169	0x3d8a4971	0.06752289
170	0x3d8a4971	0.06752289
171	0x3d8a4971	0.06752289
172	0xbd5f3481	-0.05449343
173	0xbd5f3481	-0.05449343
174	0x3c9c969b	0.019114783
175	0xbc872d0a	-0.016500968
176	0xba2ba659	-0.000654792
177	0xbcf8cd38	-0.030371293
178	0x3d558695	0.0521303
179	0x3d558695	0.0521303
180	0xbdb680a0	-0.08911252
181	0xbdb680a0	-0.08911252
182	0x3b96183a	0.0045805248
183	0xbceb4189	-0.028717773
184	0x3cfd9c6b	0.030958375
185	0xbd66f04a	-0.0563815
186	0x3d82d293	0.0638782
187	0x3cbcaa24	0.023030348
188	0xbd81e569	-0.06342585
189	0xbd81e569	-0.06342585
190	0xbbadbe44	-0.0053022224
191	0x3b1dd9d0	0.0024086125

_operators.0.biases.0 f4 [24]
0	0x3f106021	0.5639668
1	0x3e4dd29c	0.20099872
2	0x3f106021	0.5639668
3	0x3ee632e6	0.44960707
4	0x3f106021	0.5639668
5	0x3ef5285c	0.47882354
6	0x3f722122	0.94581807
7	0x3f5e9260	0.869421
8	0x3f7c315a	0.98512805
9	0x3ee3befd	0.4448165
10	0x3f722122	0.94581807
11	0x3f66bc1b	0.90130776
12	0x3e3b348e	0.18281767
13	0x3ddc9cde	0.107721075
14	0x3b8a58dc	0.0042220186
15	0x00000000	0.0
16	0x3f7f6624	0.9976523
17	0x3f7f2262	0.9966184
18	0x3f722122	0.94581807
19	0x3f524f92	0.82152665
20	0x3d525646	0.051351808
21	0x3c8eed72	0.017447207
22	0x3f2b32bd	0.66874295
23	0x3f20b8ce	0.6278199

_operators.0.biases.1 f4 [48]
0	0x3f10fe99	0.56638485
1	0x3f0325f4	0.51229787
2	0x3e545aec	0.20737809
3	0x3e095c38	0.13414085
4	0x3f10fe99	0.56638485
5	0x3f026a36	0.50943315
6	0x00000000	0.0
7	0x3a8259e5	0.0009945004
8	0x3f10fe99	0.56638485
9	0x3efd0874	0.49420512
10	0x3ef7baea	0.48384792
11	0x3ef3082b	0.4746717
12	0x3f73dc09	0.9525762
13	0x3f6d65b4	0.9273331
14	0x3f647bec	0.8925159
15	0x3f313531	0.6922179
16	0x3f7f46e8	0.9971757
17	0x3f7ae4ba	0.9800526
18	0x3ee632e6	0.44960707
19	0x3ee3170c	0.4435352
20	0x3f742249	0.95364815
21	0x3f6d0663	0.9258787
22	0x00000000	0.0
23	0x3f5e9260	0.869421
24	0x3e3ddb8e	0.18540785
25	0x3e298b5f	0.16557072
26	0x3df96e7a	0.12179275
27	0x3d97fcbe	0.074212536
28	0x3c4dc527	0.012559212
29	0x00000000	0.0
30	0x00000000	0.0
31	0x00000000	0.0
32	0x00000000	0.0
33	0x00000000	0.0
34	0x00000000	0.0
35	0x3f7ed3e0	0.99542046
36	0x3f742249	0.95364815
37	0x3f71aa52	0.94400513
38	0x3f533184	0.8249743
39	0x3f517115	0.81813174
40	0x3d6f381e	0.058403127
41	0x3d30f40b	0.043201488
42	0x00000000	0.0
43	0x3c824f72	0.015907023
44	0x3f2bae18	0.6706252
45	0x3f2a0e64	0.6642821
46	0x3f225c6a	0.6342226
47	0x3f1f634e	0.622609

_operators.0.biases.2 f4 [96]
0	0x3f7c315a	0.98512805
1	0x00000000	0.0
2	0x3f0da0af	0.5532331
3	0x3ee89cf3	0.45432243
4	0x3e6cf657	0.23140846
5	0x00000000	0.0
6	0x3e0bfd4a	0.13670841
7	0x3ddc9cde	0.107721075
8	0x3f696252	0.9116565
9	0x00000000	0.0
10	0x3f0e2434	0.5552399
11	0x3ee89cf3	0.45432243
12	0x00000000	0.0
13	0x00000000	0.0
14	0x3b8a58dc	0.0042220186
15	0x00000000	0.0
16	0x3f4b531c	0.7942369
17	0x00000000	0.0
18	0x3eff13f1	0.49819902
19	0x3efcc236	0.4936692
20	0x3ef89784	0.48553097
21	0x00000000	0.0
22	0x00000000	0.0
23	0x3a8259e5	0.0009945004
24	0x3f7f46e8	0.9971757
25	0x00000000	0.0
26	0x3f6e37a1	0.9305363
27	0x3f6c8d7d	0.92403394
28	0x3f6574be	0.8963126
29	0x3f636869	0.8883119
30	0x3f36cb16	0.71403635
31	0x3f2ed1ce	0.68288887
32	0x3f7f6624	0.9976523
33	0x3f7f2262	0.9966184
34	0x3f7b59f1	0.98184115
35	0x3f7a2ccf	0.9772462
36	0x00000000	0.0
37	0x3ee539d9	0.44770697
38	0x00000000	0.0
39	0x3e4dd29c	0.20099872
40	0x3f7c315a	0.98512805
41	0x3f73dc09	0.9525762
42	0x3f6e37a1	0.9305363
43	0x3f6c8d7d	0.92403394
44	0x00000000	0.0
45	0x00000000	0.0
46	0x3f647bec	0.8925159
47	0x3f59908c	0.84986186
48	0x3e3e4582	0.18581203
49	0x00000000	0.0
50	0x00000000	0.0
51	0x3e19abdb	0.15006964
52	0x3dfadc27	0.12249022
53	0x3ddf7542	0.10911037
54	0x3d997532	0.07493056
55	0x3d525646	0.051351808
56	0x3c52b354	0.012860138
57	0x3c399ff4	0.01132964
58	0x00000000	0.0
59	0x00000000	0.0
60	0x00000000	0.0
61	0x00000000	0.0
62	0x00000000	0.0
63	0x00000000	0.0
64	0x00000000	0.0
65	0x00000000	0.0
66	0x00000000	0.0
67	0x00000000	0.0
68	0x00000000	0.0
69	0x00000000	0.0
70	0x00000000	0.0
71	0x3f7c315a	0.98512805
72	0x3f7f46e8	0.9971757
73	0x3f73dc09	0.9525762
74	0x00000000	0.0
75	0x3f7160fd	0.9428862
76	0x3f54321c	0.8288896
77	0x00000000	0.0
78	0x00000000	0.0
79	0x3f4b531c	0.7942369
80	0x3dc2ddce	0.09514962
81	0x00000000	0.0
82	0x3d41c5ee	0.0473079
83	0x3d1734aa	0.03691546
84	0x00000000	0.0
85	0x00000000	0.0
86	0x00000000	0.0
87	0x3b8a58dc	0.0042220186
88	0x3f2ed1ce	0.68288887
89	0x00000000	0.0
90	0x00000000	0.0
91	0x3f297574	0.66194844
92	0x3f238012	0.63867295
93	0x3f215c92	0.63031876
94	0x00000000	0.0
95	0x3efb089e	0.49030012
