examples/onnx/xgboost_reg/network.onnx (onnx, 21851 bytes, 7 tensors)

_operators.0.root_biases f4 [12]
0	0x3f77c452	0.96783936
1	0x3f77c452	0.96783936
2	0x3f77c452	0.96783936
3	0x3d91660f	0.07099544
4	0x3f77c452	0.96783936
5	0x3c7fe314	0.0156181045
6	0x3e8103a4	0.2519809
7	0x3f7de458	0.9917655
8	0x3f7478b8	0.954967
9	0x3f772786	0.9654468
10	0x3ca9a147	0.020706786
11	0x3e6c7f6e	0.23095486

_operators.0.leaf_nodes f4 [768, 1]
0	0x3cfa473f	0.03055155
1	0x3cfa473f	0.03055155
2	0x3cfa473f	0.03055155
3	0x3cfa473f	0.03055155
4	0x3cfa473f	0.03055155
5	0x3cfa473f	0.03055155
6	0x3cfa473f	0.03055155
7	0x3cfa473f	0.03055155
8	0x3cfa473f	0.03055155
9	0x3cfa473f	0.03055155
10	0x3cfa473f	0.03055155
11	0x3cfa473f	0.03055155
12	0x3cfa473f	0.03055155
13	0x3cfa473f	0.03055155
14	0x3cfa473f	0.03055155
15	0x3cfa473f	0.03055155
16	0xbc68e649	-0.0142150605
17	0xbd7ebc6f	-0.062191423
18	0x3b94e9e7	0.004544485
19	0x3b94e9e7	0.004544485
20	0xbdd4cab2	-0.103902236
21	0xbdd4cab2	-0.103902236
22	0xbdd4cab2	-0.103902236
23	0xbdd4cab2	-0.103902236
24	0xbcbf5775	-0.023357132
25	0xbcbf5775	-0.023357132
26	0xbae83ec1	-0.0017718897
27	0x3bda7bed	0.006667605
28	0xbd8fba5d	-0.07017968
29	0xbd8fba5d	-0.07017968
30	0xbd8fba5d	-0.07017968
31	0xbd8fba5d	-0.07017968
32	0xbc12ca18	-0.008959316
33	0x3c2a0ed7	0.010379515
34	0x3db3d249	0.08780343
35	0x3db3d249	0.08780343
36	0xbd5365c7	-0.051610734
37	0xbd5365c7	-0.051610734
38	0xbd5365c7	-0.051610734
39	0xbd5365c7	-0.051610734
40	0x3b57c0da	0.0032921345
41	0x3d82f3c7	0.06394153
42	0x3d93d3ca	0.0721813
43	0xbce6e9fa	-0.02818774
44	0x3d86d875	0.06584255
45	0x3c607c13	0.013701457
46	0x3cb1934a	0.021676678
47	0x3dd43e0f	0.10363399
48	0x3c74e45b	0.014947022
49	0x3d94641b	0.07245656
50	0xbcc8af6b	-0.024497708
51	0x3ca2af8a	0.019859094
52	0xbc383562	-0.011243196
53	0x3c9f94bb	0.0194801
54	0xbba7639c	-0.00510831
55	0xbd02a541	-0.03189588
56	0x3ccf6485	0.025316486
57	0x3ccf6485	0.025316486
58	0xbc68713a	-0.014187152
59	0xbc68713a	-0.014187152
60	0x3da41fb8	0.08013862
61	0x3da41fb8	0.08013862
62	0x3da41fb8	0.08013862
63	0x3da41fb8	0.08013862
64	0x3cd4bc8f	0.025968818
65	0x3cd4bc8f	0.025968818
66	0x3cd4bc8f	0.025968818
67	0x3cd4bc8f	0.025968818
68	0x3cd4bc8f	0.025968818
69	0x3cd4bc8f	0.025968818
70	0x3cd4bc8f	0.025968818
71	0x3cd4bc8f	0.025968818
72	0x3cd4bc8f	0.025968818
73	0x3cd4bc8f	0.025968818
74	0x3cd4bc8f	0.025968818
75	0x3cd4bc8f	0.025968818
76	0x3cd4bc8f	0.025968818
77	0x3cd4bc8f	0.025968818
78	0x3cd4bc8f	0.025968818
79	0x3cd4bc8f	0.025968818
80	0xbc45f6f2	-0.012082802
81	0xbd419972	-0.047265477
82	0x3b7d2734	0.0038628103
83	0x3b7d2734	0.0038628103
84	0xbd9e12eb	-0.07718452
85	0xbd9e12eb	-0.07718452
86	0xbd9e12eb	-0.07718452
87	0xbd9e12eb	-0.07718452
88	0xbcbd9078	-0.023140177
89	0xbcbd9078	-0.023140177
90	0xbb8bb093	-0.0042629926
91	0x3bb9b620	0.005667463
92	0xbd77b5cc	-0.06047611
93	0xbd77b5cc	-0.06047611
94	0xbc4afbe7	-0.01238916
95	0xbc4afbe7	-0.01238916
96	0xbd2e5b17	-0.04256734
97	0xbd2e5b17	-0.04256734
98	0xbd2e5b17	-0.04256734
99	0xbd2e5b17	-0.04256734
100	0x3d9c2b54	0.07625452
101	0x3d9c2b54	0.07625452
102	0x3d9c2b54	0.07625452
103	0x3d9c2b54	0.07625452
104	0x3a951b45	0.0011375925
105	0x3cb25335	0.021768192
106	0xbdc1d49d	-0.09464381
107	0xba0978c7	-0.00052441325
108	0x3cad5dec	0.02116295
109	0xbd7408eb	-0.059578817
110	0x3d893aa5	0.06700639
111	0xbcc0c11c	-0.023529582
112	0xbd5b8a20	-0.053598523
113	0xbc0996b8	-0.008397751
114	0x3d3a6a5a	0.04551158
115	0xbd2b9863	-0.041893374
116	0x3d9619ae	0.07329117
117	0x3d9619ae	0.07329117
118	0x3d9619ae	0.07329117
119	0x3d9619ae	0.07329117
120	0xbd4e88d3	-0.050423454
121	0x3cf17e64	0.029479213
122	0x3d1bddcb	0.038053315
123	0xbd2052f0	-0.039141595
124	0xbcdc29ee	-0.026875462
125	0xbdcd706c	-0.100312084
126	0xbcd9d71c	-0.02659183
127	0x3d7386da	0.059454776
128	0x3cb4d37c	0.0220735
129	0x3cb4d37c	0.0220735
130	0x3cb4d37c	0.0220735
131	0x3cb4d37c	0.0220735
132	0x3cb4d37c	0.0220735
133	0x3cb4d37c	0.0220735
134	0x3cb4d37c	0.0220735
135	0x3cb4d37c	0.0220735
136	0x3cb4d37c	0.0220735
137	0x3cb4d37c	0.0220735
138	0x3cb4d37c	0.0220735
139	0x3cb4d37c	0.0220735
140	0x3cb4d37c	0.0220735
141	0x3cb4d37c	0.0220735
142	0x3cb4d37c	0.0220735
143	0x3cb4d37c	0.0220735
144	0xbc284518	-0.0102703795
145	0xbc284518	-0.0102703795
146	0xbc284518	-0.0102703795
147	0xbc284518	-0.0102703795
148	0xbd64a9dd	-0.055826057
149	0xbd64a9dd	-0.055826057
150	0xbc2c8952	-0.010530787
151	0xbc2c8952	-0.010530787
152	0xbce559d4	-0.027996935
153	0x3b572e27	0.0032833905
154	0xbd601974	-0.054711774
155	0xbd601974	-0.054711774
156	0xbb5f80f4	-0.0034103962
157	0x3b9ddad4	0.004817346
158	0xbc788a24	-0.015169654
159	0xbc788a24	-0.015169654
160	0x3d1bfa39	0.038080428
161	0xbb8f6966	-0.004376578
162	0x3d744f75	0.05964609
163	0x3cb03c04	0.021512993
164	0xbd40a317	-0.047030535
165	0x3d26a135	0.040681083
166	0xbaa0f715	-0.0012280667
167	0x3d135586	0.035970233
168	0x3cfad9d1	0.030621441
169	0xba58154d	-0.000824292
170	0xbd2ff9cb	-0.04296283
171	0x3b99adba	0.0046898993
172	0x3bc3f1c4	0.0059797484
173	0x3d41557e	0.047200672
174	0x3cd4d358	0.025979683
175	0xbc4b7a24	-0.012419257
176	0xbd1cf8f8	-0.038323373
177	0xbc126a27	-0.0089364415
178	0x3d3614e0	0.0444535
179	0xbc23b5e8	-0.0099921
180	0x3c06fed7	0.0082394695
181	0x3d96eee0	0.073697805
182	0xbd3d52a6	-0.046221398
183	0x3d1b70ca	0.03794936
184	0x3abc504c	0.0014367192
185	0xbd31dca4	-0.04342331
186	0xbcf70861	-0.030155363
187	0xbdd251a4	-0.10269478
188	0x3cf797d4	0.030223764
189	0xbd06a9b4	-0.032876685
190	0x3d8e31e6	0.06943111
191	0x3d8e31e6	0.06943111
192	0xbcd41fd3	-0.025894081
193	0x3cc9cac1	0.024632813
194	0xbc8e287a	-0.017353285
195	0x3c284e5a	0.010272587
196	0xbc933d79	-0.017973648
197	0xbd733701	-0.059378628
198	0x3b35fc9a	0.002776897
199	0xbc49bdac	-0.012313288
200	0x3d3159f9	0.043298695
201	0x3bfef161	0.0077802395
202	0xbd594c4d	-0.05305128
203	0x3d37d533	0.044881057
204	0x3c0ac7f4	0.008470524
205	0x3c0ac7f4	0.008470524
206	0x3dd0c63f	0.101940624
207	0x3cae2945	0.021259913
208	0xbc49e839	-0.012323433
209	0xbc49e839	-0.012323433
210	0x3b9042f0	0.004402511
211	0x3b9042f0	0.004402511
212	0x3d1d7c04	0.03844835
213	0x3d1d7c04	0.03844835
214	0x3d1d7c04	0.03844835
215	0x3d1d7c04	0.03844835
216	0x3b862d2d	0.004094741
217	0x3b862d2d	0.004094741
218	0xbbdb4ead	-0.0066927285
219	0xbbdb4ead	-0.0066927285
220	0xbc917291	-0.017754825
221	0xbc917291	-0.017754825
222	0xbdb0eeee	-0.08639322
223	0xbdb0eeee	-0.08639322
224	0xbda5ef73	-0.08102312
225	0xbda5ef73	-0.08102312
226	0x3ccd59b1	0.025067182
227	0x3ccd59b1	0.025067182
228	0x3daee65a	0.0854003
229	0x3d0cb4df	0.03435218
230	0xbc00af84	-0.007854346
231	0xbc00af84	-0.007854346
232	0xbce7d969	-0.028301911
233	0x3caa76cc	0.0208086
234	0xbda7ccce	-0.0819336
235	0xbda7ccce	-0.0819336
236	0x3d811953	0.06303658
237	0x3d811953	0.06303658
238	0xbcabb1f5	-0.02095888
239	0x3cc84220	0.024445593
240	0x3dd1b887	0.10240274
241	0x3dd1b887	0.10240274
242	0x3dd1b887	0.10240274
243	0x3dd1b887	0.10240274
244	0x3dd1b887	0.10240274
245	0x3dd1b887	0.10240274
246	0x3dd1b887	0.10240274
247	0x3dd1b887	0.10240274
248	0xbcf0880f	-0.029361753
249	0xbcf0880f	-0.029361753
250	0x3c8d00f8	0.017212376
251	0xbc321040	-0.010868132
252	0x3d693728	0.056937367
253	0x3d693728	0.056937367
254	0x3d693728	0.056937367
255	0x3d693728	0.056937367

_operators.0.biases.0 f4 [24]
0	0x3f7f3bf2	0.99700844
1	0x3f4a83e2	0.7910749
2	0x3f7f3bf2	0.99700844
3	0x3e8103a4	0.2519809
4	0x3f7f3bf2	0.99700844
5	0x3df4d224	0.11954144
6	0x3da11f16	0.07867257
7	0x3e0d2f20	0.13787508
8	0x3f7f3bf2	0.99700844
9	0x3f6bbf56	0.9208883
10	0x3f4e6ea0	0.8063755
11	0x3f585c20	0.8451557
12	0x3e983923	0.29731092
13	0x3e7e4c3a	0.24833766
14	0x3e9fe1b0	0.31226873
15	0x3f7d8e2e	0.99045074
16	0x3e5e4ade	0.21708247
17	0x3f6b35c4	0.91878915
18	0x3f7b7028	0.9821801
19	0x3f64bb3a	0.89348185
20	0x3d310534	0.043217853
21	0x3b7beb89	0.003843995
22	0x3e8159a8	0.25263715
23	0x3e4f6f10	0.2025721

_operators.0.biases.1 f4 [48]
0	0x00000000	0.0
1	0x3f79c1a0	0.97561073
2	0x3f5663ed	0.83746225
3	0x3cb72e4a	0.02236094
4	0x00000000	0.0
5	0x3f79c1a0	0.97561073
6	0x3f726cab	0.94697064
7	0x3f32dfd6	0.69872797
8	0x00000000	0.0
9	0x3f18ef7e	0.59740436
10	0x3f345cc0	0.70454025
11	0x3f2af3d2	0.6677829
12	0x3dd0f2a6	0.102025315
13	0x3f51f68b	0.8201682
14	0x3f14b274	0.580848
15	0x3d2e9c9a	0.042629816
16	0x00000000	0.0
17	0x3f7a94b2	0.9788314
18	0x3d8f2765	0.06989936
19	0x3da1f12e	0.079073295
20	0x3f56aa46	0.83853567
21	0x3df66899	0.12031669
22	0x00000000	0.0
23	0x3f3d64f8	0.7398219
24	0x3e9e7f22	0.3095637
25	0x3f546dc0	0.82979965
26	0x3f5cf7f8	0.8631587
27	0x3f0e6632	0.5562469
28	0x00000000	0.0
29	0x00000000	0.0
30	0x3f7dc63b	0.991306
31	0x3f7b11bc	0.98073936
32	0x3f77e92a	0.96840155
33	0x3eaa9870	0.33319426
34	0x3f29cd7f	0.6632919
35	0x3f539fe8	0.8266587
36	0x00000000	0.0
37	0x3f7f3bf2	0.99700844
38	0x3f1f95c4	0.623379
39	0x3f62db52	0.88615906
40	0x3dd81a54	0.10551897
41	0x3d27d1fc	0.04097174
42	0x3e974a3f	0.29548833
43	0x00000000	0.0
44	0x3e89b398	0.26894832
45	0x3e328928	0.17435133
46	0x3f27356c	0.6531589
47	0x3f1a9dc0	0.6039696

_operators.0.biases.2 f4 [96]
0	0x00000000	0.0
1	0x00000000	0.0
2	0x3f1dc906	0.6163486
3	0x3f784f2d	0.9699581
4	0x3d4c091b	0.04981337
5	0x3f0b019c	0.5429933
6	0x3f32dfd6	0.69872797
7	0x3f41992e	0.7562436
8	0x00000000	0.0
9	0x00000000	0.0
10	0x3f1dc906	0.6163486
11	0x3f784f2d	0.9699581
12	0x3f5f2df5	0.871795
13	0x3e983923	0.29731092
14	0x3f40264c	0.75058436
15	0x3f189030	0.5959501
16	0x00000000	0.0
17	0x00000000	0.0
18	0x3f70542e	0.9387845
19	0x3f798d26	0.97481
20	0x3f11da98	0.5697417
21	0x3f26fbef	0.6522817
22	0x3e928aeb	0.2862161
23	0x3c43b844	0.011945788
24	0x3f32ee7a	0.69895136
25	0x3eea5bfe	0.4577331
26	0x3d93da7e	0.072194085
27	0x3f24231a	0.6411606
28	0x3f4ea779	0.80724293
29	0x3cb0a1b1	0.021561475
30	0x00000000	0.0
31	0x3eb04854	0.34430182
32	0x00000000	0.0
33	0x00000000	0.0
34	0x3f7f2621	0.99667555
35	0x3f7805d4	0.96883893
36	0x3f1f95c4	0.623379
37	0x3f706be7	0.93914646
38	0x3db6074d	0.08888111
39	0x3f69b073	0.91284865
40	0x3ef905c4	0.4863721
41	0x3f127c40	0.5722084
42	0x3ec3923c	0.38197505
43	0x3f19328c	0.59842753
44	0x00000000	0.0
45	0x00000000	0.0
46	0x3ddb498d	0.10707388
47	0x3b1a20e9	0.002351815
48	0x3ead46a5	0.3384296
49	0x3f187084	0.59546685
50	0x3f1f5dee	0.622527
51	0x3da1e5cb	0.07905158
52	0x00000000	0.0
53	0x00000000	0.0
54	0x3f5d2852	0.8638965
55	0x3f1e1723	0.61754054
56	0x00000000	0.0
57	0x00000000	0.0
58	0x00000000	0.0
59	0x00000000	0.0
60	0x00000000	0.0
61	0x00000000	0.0
62	0x3f1411c2	0.57839596
63	0x3f798c90	0.97480106
64	0x3ecb7776	0.3973958
65	0x3f29dc96	0.6635221
66	0x00000000	0.0
67	0x3f0f307c	0.55933356
68	0x3f6e42ee	0.93070877
69	0x3e8f697f	0.28010175
70	0x3f56bafe	0.8387908
71	0x3f51ed58	0.8200278
72	0x00000000	0.0
73	0x00000000	0.0
74	0x00000000	0.0
75	0x3e31c65b	0.17360823
76	0x3f47efe3	0.78100413
77	0x3de11251	0.10989822
78	0x00000000	0.0
79	0x3ddb7b08	0.10716826
80	0x3e020a14	0.12699157
81	0x3f1ec020	0.6201191
82	0x00000000	0.0
83	0x3f0c194c	0.547261
84	0x3f5867c8	0.8453336
85	0x3f2403b0	0.64068127
86	0x00000000	0.0
87	0x00000000	0.0
88	0x3ec34b83	0.38143548
89	0x3f3795d2	0.7171298
90	0x3f038d62	0.5138761
91	0x00000000	0.0
92	0x3f4ce6cd	0.80039674
93	0x3e58d478	0.211748
94	0x3f3497fa	0.705444
95	0x3e489e8b	0.1959173

_operators.0.biases.3 f4 [192]
0	0x00000000	0.0
1	0x00000000	0.0
2	0x00000000	0.0
3	0x00000000	0.0
4	0x3e8848e5	0.26618114
5	0x00000000	0.0
6	0x3ecb6529	0.39725617
7	0x00000000	0.0
8	0x3f580f95	0.84398776
9	0x00000000	0.0
10	0x3f4f938a	0.810845
11	0x3e62716b	0.22113578
12	0x3f182233	0.59427184
13	0x3ecf2f4e	0.40465778
14	0x3f634932	0.8878356
15	0x00000000	0.0
16	0x00000000	0.0
17	0x00000000	0.0
18	0x00000000	0.0
19	0x00000000	0.0
20	0x3e8848e5	0.26618114
21	0x00000000	0.0
22	0x3f3c84a8	0.7363992
23	0x3e393e70	0.18090224
24	0x00000000	0.0
25	0x00000000	0.0
26	0x3e9f713d	0.3114108
27	0x3f0cc6fc	0.54991126
28	0x3eba9f7e	0.36449808
29	0x00000000	0.0
30	0x3f599778	0.8499675
31	0x3f03ab5a	0.51433337
32	0x00000000	0.0
33	0x00000000	0.0
34	0x00000000	0.0
35	0x00000000	0.0
36	0x00000000	0.0
37	0x3e66c5fc	0.22536463
38	0x3f1dc906	0.6163486
39	0x3d234351	0.03985912
40	0x3f52cafa	0.8234097
41	0x3f0a0991	0.5392085
42	0x3f7594fc	0.9593046
43	0x3ee9e456	0.4568202
44	0x3e8f10d0	0.27942514
45	0x3e4ffb30	0.20310664
46	0x3f0ee260	0.5581417
47	0x3f0b2453	0.543523
48	0x3f11da98	0.5697417
49	0x3f2f736e	0.68535507
50	0x3dc11cf5	0.09429351
51	0x3dc81882	0.097702995
52	0x3d9a6ca3	0.07540252
53	0x00000000	0.0
54	0x3d9215d6	0.07133071
55	0x3f1b12f0	0.6057577
56	0x3f36d3cb	0.7141692
57	0x3dbf4fb2	0.093413725
58	0x3e8b06de	0.27153677
59	0x3edc8ada	0.43074685
60	0x00000000	0.0
61	0x00000000	0.0
62	0x3dab1f74	0.083556086
63	0x00000000	0.0
64	0x00000000	0.0
65	0x00000000	0.0
66	0x00000000	0.0
67	0x00000000	0.0
68	0x00000000	0.0
69	0x00000000	0.0
70	0x3df10734	0.11768952
71	0x00000000	0.0
72	0x3f47efe3	0.78100413
73	0x3f40a43a	0.7525059
74	0x00000000	0.0
75	0x3f6f58de	0.93494976
76	0x3f6998c1	0.9124871
77	0x00000000	0.0
78	0x3f7d00bc	0.98829246
79	0x3e3ed1b4	0.18634683
80	0x3f6d28a0	0.92640114
81	0x3ee0415c	0.43799865
82	0x3eeaac42	0.45834547
83	0x3f0151b5	0.505153
84	0x3ecb19af	0.39668033
85	0x3f399376	0.7249063
86	0x3f66c5b8	0.90145445
87	0x3ef84254	0.48488104
88	0x00000000	0.0
89	0x00000000	0.0
90	0x00000000	0.0
91	0x00000000	0.0
92	0x00000000	0.0
93	0x00000000	0.0
94	0x00000000	0.0
95	0x00000000	0.0
96	0x3ebfc5b8	0.37455535
97	0x3f17cea4	0.59299684
98	0x3e9ce685	0.30644622
99	0x3e4d7ea3	0.2006784
100	0x3f5fe7de	0.87463176
101	0x00000000	0.0
102	0x3f70c6d8	0.9405341
103	0x3d6905be	0.05689024
104	0x00000000	0.0
105	0x00000000	0.0
106	0x00000000	0.0
107	0x00000000	0.0
108	0x3ef9e8b0	0.4881034
109	0x3dd0ef1e	0.10201858
110	0x3ece0637	0.40239117
111	0x3d71f21c	0.059068784
112	0x00000000	0.0
113	0x00000000	0.0
114	0x00000000	0.0
115	0x00000000	0.0
116	0x00000000	0.0
117	0x00000000	0.0
118	0x00000000	0.0
119	0x00000000	0.0
120	0x00000000	0.0
121	0x00000000	0.0
122	0x00000000	0.0
123	0x00000000	0.0
124	0x00000000	0.0
125	0x00000000	0.0
126	0x00000000	0.0
127	0x3f7cffbc	0.9882772
128	0x3f24ba2f	0.64346594
129	0x00000000	0.0
130	0x3f38af29	0.72142273
131	0x3da7923e	0.0818219
132	0x00000000	0.0
133	0x00000000	0.0
134	0x00000000	0.0
135	0x00000000	0.0
136	0x00000000	0.0
137	0x3f0a99a6	0.541407
138	0x3e6ee572	0.23329714
139	0x00000000	0.0
140	0x3f4a0cec	0.7892597
141	0x3e94f7be	0.29095262
142	0x3f307eda	0.6894356
143	0x3c971dfb	0.018446913
144	0x00000000	0.0
145	0x00000000	0.0
146	0x00000000	0.0
147	0x00000000	0.0
148	0x00000000	0.0
149	0x00000000	0.0
150	0x3e523f06	0.20531854
151	0x3f391dbc	0.72310996
152	0x3f5643f2	0.83697426
153	0x3f4319cc	0.7621124
154	0x3f40a43a	0.7525059
155	0x3e95da9b	0.29268345
156	0x00000000	0.0
157	0x00000000	0.0
158	0x3ded0d7c	0.115748376
159	0x3db93fd7	0.090453796
160	0x3f084250	0.53226185
161	0x3f1ed63e	0.6204566
162	0x3e740638	0.23830497
163	0x3d84eef6	0.06490891
164	0x00000000	0.0
165	0x00000000	0.0
166	0x3e2a4d1e	0.1663098
167	0x3cc4146d	0.023935521
168	0x3f7dbf42	0.9911996
169	0x3c8dc4f1	0.017305823
170	0x00000000	0.0
171	0x00000000	0.0
172	0x00000000	0.0
173	0x00000000	0.0
174	0x00000000	0.0
175	0x00000000	0.0
176	0x3f5ab262	0.8542844
177	0x3e9d12a1	0.30678275
178	0x3e197e87	0.14989673
179	0x3e820b0c	0.25399053
180	0x3e797aa8	0.24363196
181	0x3eb99b22	0.3625117
182	0x00000000	0.0
183	0x00000000	0.0
184	0x3f586e0e	0.8454293
185	0x3f4ef09b	0.80835885
186	0x3e5fab62	0.21842721
187	0x3e558ee6	0.20855293
188	0x3e47a81c	0.19497722
189	0x3e8a47c2	0.27007872
190	0x3ec26d0b	0.37973818
191	0x3eff00a8	0.49805188

_operators.0.biases.4 f4 [384]
0	0x00000000	0.0
1	0x00000000	0.0
2	0x00000000	0.0
3	0x00000000	0.0
4	0x00000000	0.0
5	0x00000000	0.0
6	0x00000000	0.0
7	0x00000000	0.0
8	0x3f432d30	0.76240826
9	0x00000000	0.0
10	0x00000000	0.0
11	0x00000000	0.0
12	0x00000000	0.0
13	0x3ea82303	0.32839212
14	0x00000000	0.0
15	0x00000000	0.0
16	0x3f0fef9a	0.5622498
17	0x00000000	0.0
18	0x00000000	0.0
19	0x00000000	0.0
20	0x3f74e1b8	0.9565692
21	0x3f67f748	0.90611696
22	0x3f619bf2	0.8812858
23	0x3f58b9e2	0.84658635
24	0x3f3db792	0.7410823
25	0x3e966fb3	0.29382095
26	0x3eb0281a	0.34405595
27	0x3eecdc8c	0.46262014
28	0x00000000	0.0
29	0x00000000	0.0
30	0x00000000	0.0
31	0x00000000	0.0
32	0x00000000	0.0
33	0x00000000	0.0
34	0x00000000	0.0
35	0x00000000	0.0
36	0x00000000	0.0
37	0x00000000	0.0
38	0x00000000	0.0
39	0x00000000	0.0
40	0x3f432d30	0.76240826
41	0x00000000	0.0
42	0x00000000	0.0
43	0x00000000	0.0
44	0x00000000	0.0
45	0x3e8aeb84	0.2713281
46	0x00000000	0.0
47	0x00000000	0.0
48	0x00000000	0.0
49	0x00000000	0.0
50	0x00000000	0.0
51	0x00000000	0.0
52	0x3e56a1cc	0.20960158
53	0x3f187084	0.59546685
54	0x3f238f76	0.6389078
55	0x3da1e5cb	0.07905158
56	0x3f1be780	0.60900116
57	0x3dee87b8	0.1164698
58	0x00000000	0.0
59	0x00000000	0.0
60	0x3d480e4f	0.04884177
61	0x3d71fc64	0.05907859
62	0x3f325c04	0.69671655
63	0x3d3f3580	0.04668188
64	0x00000000	0.0
65	0x00000000	0.0
66	0x00000000	0.0
67	0x00000000	0.0
68	0x00000000	0.0
69	0x00000000	0.0
70	0x00000000	0.0
71	0x00000000	0.0
72	0x00000000	0.0
73	0x00000000	0.0
74	0x00000000	0.0
75	0x00000000	0.0
76	0x3f2bb277	0.6706919
77	0x00000000	0.0
78	0x3e8aeb84	0.2713281
79	0x00000000	0.0
80	0x3f670c6e	0.9025334
81	0x3ec1f4e2	0.37882143
82	0x3e5e4614	0.2170642
83	0x3f546bfa	0.8297726
84	0x3eb8b0ec	0.3607248
85	0x3e1fa5d1	0.15590598
86	0x3f061777	0.52379555
87	0x3ef38ea5	0.47569767
88	0x3f4dbbce	0.8036469
89	0x3c976f89	0.018485801
90	0x3f67781c	0.9041765
91	0x3e472898	0.19449079
92	0x3e681946	0.22665891
93	0x3eaf12ee	0.3419413
94	0x3f292277	0.66068214
95	0x00000000	0.0
96	0x3f73d48c	0.95246196
97	0x3f0a0991	0.5392085
98	0x3f364052	0.71191895
99	0x3ec3923c	0.38197505
100	0x3dcf5f6e	0.10125624
101	0x3ea5ce54	0.32383978
102	0x00000000	0.0
103	0x3da6e6b2	0.081494704
104	0x00000000	0.0
105	0x00000000	0.0
106	0x00000000	0.0
107	0x00000000	0.0
108	0x00000000	0.0
109	0x00000000	0.0
110	0x00000000	0.0
111	0x00000000	0.0
112	0x00000000	0.0
113	0x00000000	0.0
114	0x3caf3fc8	0.021392718
115	0x00000000	0.0
116	0x3f17d5bb	0.593105
117	0x00000000	0.0
118	0x00000000	0.0
119	0x3f0d9a2a	0.5531336
120	0x00000000	0.0
121	0x00000000	0.0
122	0x00000000	0.0
123	0x00000000	0.0
124	0x00000000	0.0
125	0x3c8e3abc	0.017361991
126	0x00000000	0.0
127	0x00000000	0.0
128	0x00000000	0.0
129	0x00000000	0.0
130	0x00000000	0.0
131	0x00000000	0.0
132	0x00000000	0.0
133	0x00000000	0.0
134	0x00000000	0.0
135	0x00000000	0.0
136	0x00000000	0.0
137	0x00000000	0.0
138	0x00000000	0.0
139	0x00000000	0.0
140	0x3f02c9fb	0.5108945
141	0x3f7973be	0.97442234
142	0x00000000	0.0
143	0x00000000	0.0
144	0x3f5f2df5	0.871795
145	0x3f2f99f0	0.68594265
146	0x3f7091fb	0.9397275
147	0x3d17b75d	0.037040103
148	0x00000000	0.0
149	0x00000000	0.0
150	0x00000000	0.0
151	0x00000000	0.0
152	0x3f0fb04c	0.5612838
153	0x3f5ad848	0.8548627
154	0x00000000	0.0
155	0x00000000	0.0
156	0x00000000	0.0
157	0x00000000	0.0
158	0x3d1187ce	0.035529904
159	0x3d838f6d	0.06423841
160	0x3f356c44	0.70868325
161	0x3f475786	0.77867925
162	0x00000000	0.0
163	0x3ecbb38c	0.3978542
164	0x3e9dad24	0.30796158
165	0x3f477024	0.7790549
166	0x3ecd3a75	0.40083662
167	0x00000000	0.0
168	0x3f4288e6	0.7599014
169	0x3effc2ea	0.49953395
170	0x3f4ae4a6	0.7925514
171	0x3dd559fc	0.10417554
172	0x3d5e87c2	0.054328687
173	0x3f600fa4	0.87523866
174	0x3eabd536	0.33561105
175	0x3f73bf8f	0.9521417
176	0x00000000	0.0
177	0x00000000	0.0
178	0x00000000	0.0
179	0x00000000	0.0
180	0x00000000	0.0
181	0x00000000	0.0
182	0x00000000	0.0
183	0x00000000	0.0
184	0x00000000	0.0
185	0x00000000	0.0
186	0x00000000	0.0
187	0x00000000	0.0
188	0x00000000	0.0
189	0x00000000	0.0
190	0x00000000	0.0
191	0x00000000	0.0
192	0x3f0e5ee6	0.55613554
193	0x3f4a861b	0.7911088
194	0x3f2a855e	0.6660975
195	0x3f38c6aa	0.7217814
196	0x00000000	0.0
197	0x00000000	0.0
198	0x3e6d2f04	0.23162466
199	0x00000000	0.0
200	0x00000000	0.0
201	0x00000000	0.0
202	0x00000000	0.0
203	0x00000000	0.0
204	0x00000000	0.0
205	0x3f629ffb	0.8852536
206	0x00000000	0.0
207	0x3d2b6044	0.041839853
208	0x00000000	0.0
209	0x00000000	0.0
210	0x00000000	0.0
211	0x00000000	0.0
212	0x00000000	0.0
213	0x00000000	0.0
214	0x00000000	0.0
215	0x00000000	0.0
216	0x3f6cf7af	0.92565435
217	0x3f72d7ef	0.9486074
218	0x3e16b58e	0.14717695
219	0x3f7d00bc	0.98829246
220	0x3f08c442	0.53424466
221	0x3f631298	0.88700247
222	0x3e1b21ad	0.15149565
223	0x3e12b99a	0.14328614
224	0x00000000	0.0
225	0x00000000	0.0
226	0x00000000	0.0
227	0x00000000	0.0
228	0x00000000	0.0
229	0x00000000	0.0
230	0x00000000	0.0
231	0x00000000	0.0
232	0x00000000	0.0
233	0x00000000	0.0
234	0x00000000	0.0
235	0x00000000	0.0
236	0x00000000	0.0
237	0x00000000	0.0
238	0x00000000	0.0
239	0x00000000	0.0
240	0x00000000	0.0
241	0x00000000	0.0
242	0x00000000	0.0
243	0x00000000	0.0
244	0x00000000	0.0
245	0x00000000	0.0
246	0x00000000	0.0
247	0x00000000	0.0
248	0x00000000	0.0
249	0x00000000	0.0
250	0x00000000	0.0
251	0x00000000	0.0
252	0x00000000	0.0
253	0x00000000	0.0
254	0x3ed7276c	0.42022264
255	0x3f7cb40e	0.9871224
